logs/Rain100L/PReNet6_r/net_latest.pth (torch_old, 382755 bytes, 16 tensors)

conv0.0.weight f4 [32, 6, 3, 3]
0	0x3d10e5e8	0.035375506
1	0xbe55bc17	-0.20872532
2	0xbd343c06	-0.044002555
3	0x3e25cfa5	0.16192491
4	0xbe4887b9	-0.19583024
5	0xbde3ab71	-0.11116684
6	0x3e03ef21	0.12884189
7	0xbe2b6bed	-0.16740389
8	0xbc0d4692	-0.008622782
9	0x3e00c02e	0.1257331
10	0xbe3ae856	-0.18252692
11	0x3cf3d12d	0.029762829
12	0x3e1662c7	0.14686118
13	0xbe286f44	-0.16448694
14	0xbe09a383	-0.13441281
15	0x3e130dae	0.14360687
16	0xbe04bf81	-0.12963678
17	0xbd8a15df	-0.06742453
18	0xbdd02618	-0.10163516
19	0xbe12834d	-0.143079
20	0x3e407c27	0.1879736
21	0x3d8da316	0.06915872
22	0xbd025918	-0.031823248
23	0xbd2c4075	-0.04205366
24	0x3d013b07	0.031550433
25	0x3d32cd90	0.04365307
26	0xbdbeb1d6	-0.09311263
27	0x3d06ae57	0.032881107
28	0xbc8383f2	-0.016054127
29	0xbc7beba1	-0.0153760025
30	0x3e366b5c	0.17814392
31	0xbe28cc68	-0.16484225
32	0xbd2be499	-0.041966055
33	0x3e4a80f9	0.19775762
34	0x3d000554	0.03125508
35	0xbd96ca71	-0.073628314
36	0x3e041025	0.12896784
37	0xbde69529	-0.11258919
38	0x3b64e60e	0.0034927162
39	0x3e5cf84a	0.2157909
40	0xbd3e06fd	-0.046393383
41	0x3d8a7aa7	0.06761675
42	0xbd0adccf	-0.033901986
43	0xbb7b82cc	-0.0038377522
44	0xbe07fe9b	-0.13280718
45	0x3c373f47	0.01118452
46	0xbc8f4d97	-0.017493052
47	0xbc7b1274	-0.015324224
48	0x3d16a602	0.03677941
49	0xbc2eac16	-0.010661146
50	0x3cb5f8c3	0.022213345
51	0xbd1bcc72	-0.03803677
52	0xbcb46e3c	-0.02202522
53	0x3ced99a8	0.029003933
54	0x3ddbd964	0.10734823
55	0x3c8b75c6	0.017023932
56	0x3bc0c789	0.0058831614
57	0x3e0179a1	0.12644054
58	0x3d830150	0.06396735
59	0x3e027a9b	0.12742083
60	0x3cdf596d	0.027264321
61	0x3dc17338	0.09445804
62	0x3d1365b2	0.035985656
63	0xbd488128	-0.048951298
64	0xbd02b30e	-0.03190904
65	0xbcf4773c	-0.029842012
66	0x3d248fad	0.040176082
67	0xbe0f6362	-0.14002755
68	0xbd8e17bc	-0.06938121
69	0xbc5eb158	-0.013592087
70	0x3dc3bf3b	0.09557959
71	0x3ca078da	0.019588877
72	0xbe1f35a3	-0.15547805
73	0xbe145419	-0.14485206
74	0x3dae2e65	0.08504943
75	0x3d5b2b89	0.053508315
76	0xbbc7adc5	-0.006093713
77	0x3d91395f	0.07091021
78	0xbd1bafb9	-0.03800938
79	0xbe08dc2c	-0.13365239
80	0xbda27915	-0.07933251
81	0x3dca86d0	0.09888995
82	0x3dde0433	0.10840645
83	0x3ccd515d	0.025063211
84	0xbdcd13da	-0.10013552
85	0x3d5f06dc	0.0544499
86	0xbc15aafb	-0.009135003
87	0x3d797f55	0.06091245
88	0x3e0dc4ba	0.13844576
89	0x3e2ccd7e	0.16875264
90	0x3d01021b	0.03149615
91	0x3d8e1eda	0.06939478
92	0xbe0e88a6	-0.13919315
93	0x3db80cff	0.08986854
94	0xbdf86aa2	-0.121297136
95	0xbddf86d3	-0.109143876
96	0xbe0606b6	-0.13088498
97	0xbc99f714	-0.018794574
98	0xbdc14387	-0.09436708
99	0xbe2fc394	-0.17164451
100	0x3dff8362	0.12476231
101	0x3d4a4935	0.049386222
102	0x3deca65f	0.1155517
103	0xbdaae405	-0.083442725
104	0xbde738ab	-0.112901054
105	0xbdd6e13c	-0.10492179
106	0xbd925f59	-0.07147092
107	0x3d9ed7e2	0.0775602
108	0x3e2199bb	0.157813
109	0x3dd78322	0.105230585
110	0xbb1ba6f8	-0.0023750644
111	0xbe01b04e	-0.12664911
112	0xbdc01b1f	-0.09380173
113	0x3daf532e	0.08560787
114	0x3c3b2969	0.011423447
115	0x3d6d2615	0.057897646
116	0x3cc2c3dd	0.023775036
117	0xbc35c1bd	-0.011093554
118	0x3cd96b27	0.026540352
119	0xbda3fdd0	-0.08007395
120	0xbe28b62a	-0.1647574
121	0xba05d12d	-0.0005104717
122	0x3d5f2ba8	0.054484993
123	0xbb1b7bc3	-0.002372489
124	0x3e01b9c9	0.12668528
125	0x3daa0642	0.08301975
126	0x3e0da449	0.13832201
127	0xbd7562eb	-0.05990879
128	0xbd8fc930	-0.07020795
129	0xbdc92a2f	-0.09822499
130	0xbe5de71b	-0.21670191
131	0x3d8fdc6f	0.07024466
132	0x3e337f2a	0.17528978
133	0xbdfcf4e2	-0.12351395
134	0xbda91cff	-0.08257484
135	0xbd84d396	-0.06485669
136	0x3e2488fd	0.16067882
137	0xbccaeee7	-0.02477212
138	0xbe2e5100	-0.17023087
139	0x3e2618d8	0.16220415
140	0xbdecab45	-0.115561046
141	0xbbd3af4a	-0.006460105
142	0x3d2cdb1a	0.04220114
143	0xbe0b0c65	-0.13578947
144	0xbd13b5f5	-0.0360622
145	0x3e72a18d	0.23694439
146	0xbd7e6f6b	-0.062117975
147	0xbe27c2d6	-0.16382918
148	0x3c6ba7f3	0.014383304
149	0x3d8dc7f0	0.06922901
150	0x3babde78	0.005245026
151	0x3cbede90	0.023299485
152	0xbd24409b	-0.040100675
153	0x3e7fecdc	0.24992698
154	0xbdbe2661	-0.09284664
155	0x3d840cec	0.06447777
156	0x3e006c87	0.125414
157	0xbe1bac14	-0.15202361
158	0x3cb886d4	0.022525229
159	0x3e7e0339	0.24805917
160	0xbd51e20d	-0.05124097
161	0xbd18c69b	-0.03729878
162	0xbdeb13e0	-0.114784
163	0xbc6ba1dd	-0.014381853
164	0xbdde4c41	-0.10854388
165	0xbd014f95	-0.031570036
166	0x3d23f3e0	0.0400275
167	0xbd8cef4c	-0.0688158
168	0xbdd94c88	-0.106103
169	0xbe237877	-0.15963922
170	0x3d5c84e3	0.05383767
171	0x3da059d5	0.07829634
172	0xbe27de8f	-0.16393493
173	0xbdd10a99	-0.102070995
174	0x3ba575ee	0.0050494587
175	0xbdd487e3	-0.10377481
176	0x3cde85ef	0.027163474
177	0xbc5877ae	-0.013212128
178	0xbab4aedd	-0.0013785023
179	0xbe17b6fd	-0.14815898
180	0xbe70e52b	-0.2352492
181	0xbd752539	-0.05984995
182	0x3dba29a2	0.09089972
183	0xbe3a6a6d	-0.1820466
184	0xbe72f6fb	-0.23727028
185	0x3e020900	0.12698746
186	0xbd93aa4d	-0.07210217
187	0xbdf4baaa	-0.11949666
188	0x3db85603	0.090007804
189	0x3bb79d15	0.0056034424
190	0x3e05fdcd	0.13085099
191	0x3de611ef	0.11233889
192	0xbdc48905	-0.09596447
193	0x3e0809a2	0.13284925
194	0x3df5bb0a	0.119985655
195	0x3e15a2af	0.1461284
196	0x3dca711b	0.098848544
197	0xbde1f1a7	-0.1103242
198	0x3e20dcb5	0.15709193
199	0x3ce395b5	0.027781347
200	0xbdb57c63	-0.088616155
201	0x3dfba976	0.122881815
202	0x3d8daa2d	0.06917224
203	0xbdd0aaaf	-0.10188805
204	0x3e20e4aa	0.15712228
205	0x3d4f5ea4	0.050627366
206	0x3dfb88e3	0.122819684
207	0x3d8ac65b	0.067761146
208	0x3dcad57a	0.09903999
209	0x3e11b484	0.14229017
210	0x3db4cb66	0.08827858
211	0x3e096fe5	0.1342159
212	0x3dbb480a	0.091446
213	0xbd9c1baa	-0.07622464
214	0x3d54d29c	0.051958665
215	0xbcfd96f7	-0.030955775
216	0xbd606552	-0.054784127
217	0xbd552662	-0.052038558
218	0x3db9ef51	0.09078849
219	0x3dbd56e8	0.09245092
220	0xbd6e08b4	-0.05811377
221	0xbca92435	-0.020647148
222	0xbcec4d86	-0.02884556
223	0xbd49b8c0	-0.049248457
224	0xbdd63f18	-0.10461253
225	0x3d6c9096	0.057755075
226	0x3dd0422f	0.101688735
227	0x3d39c987	0.045358207
228	0x3c053516	0.008130332
229	0x3df060e8	0.117372334
230	0x3e0ae565	0.1356407
231	0x3d7e1a39	0.062036727
232	0x3dd27804	0.102767974
233	0xbbbf5a04	-0.005839588
234	0xbdb83f22	-0.08996417
235	0xbe25dd48	-0.16197693
236	0x3ced6860	0.028980434
237	0xbd718341	-0.058963064
238	0xbe188bec	-0.14897126
239	0x3e420057	0.18945442
240	0x3db12df8	0.08651346
241	0xbd8d84ee	-0.0691012
242	0xbe260f8a	-0.16216865
243	0xbc47c065	-0.0121918665
244	0x3dd33c95	0.103142895
245	0xbdc0e1f1	-0.09418095
246	0x3d5c11fb	0.053728085
247	0xbd187f77	-0.037230935
248	0x3dc822f0	0.09772289
249	0xbe5e1304	-0.21686941
250	0xbd35dbf4	-0.044399217
251	0xbdf4ad13	-0.11947074
252	0x3dda36cc	0.10654983
253	0x3e696adc	0.2279467
254	0x3e1aa4d4	0.1510194
255	0x3d605821	0.054771546

conv0.0.bias f4 [32]
0	0x3d8ad1a8	0.0677827
1	0x3ace8db2	0.0015758781
2	0xbd6f0640	-0.05835557
3	0x3d661dd3	0.056180786
4	0x3d5909bc	0.0529878
5	0x3c087c78	0.008330457
6	0x3dd711fa	0.10501476
7	0x3cb5abba	0.022176612
8	0x3c180107	0.009277589
9	0x3dc85de7	0.097835355
10	0x3c3ff13b	0.011715229
11	0x3cb65e2c	0.022261702
12	0x3d37809e	0.044800393
13	0x3ce03cf7	0.02737282
14	0xbdc331b4	-0.095309645
15	0x3c856cce	0.016287234
16	0xbc2c2f57	-0.010509334
17	0x3d54da9d	0.0519663
18	0xbb3796d4	-0.0028013485
19	0x3d9c5064	0.07632521
20	0x3de01c0a	0.10942848
21	0x3db72613	0.08942809
22	0x3d174a0f	0.036935862
23	0x3d8b69e7	0.06807309
24	0xbe9953b1	-0.29946664
25	0x39dce32b	0.00042130923
26	0xbdfaf266	-0.12253265
27	0xbbcdaa8f	-0.0062764357
28	0x3d41b469	0.047291193
29	0x3c107ee2	0.008819314
30	0x3c2300d1	0.009948925
31	0x3dfc6932	0.12324752

res_conv1.0.weight f4 [32, 32, 3, 3]
0	0xbd82c5a2	-0.06385352
1	0x3da76eb3	0.08175411
2	0x3dc0ff1b	0.094236575
3	0x3d314654	0.04327996
4	0x3dbc2f97	0.091887645
5	0x3d109349	0.035296712
6	0x3d5707d9	0.05249772
7	0x3d1ed12f	0.03877371
8	0x3e2eedbf	0.1708288
9	0xbc3a0570	-0.011353835
10	0x3c38f0e9	0.011287906
11	0x3cf428ce	0.029804613
12	0xbc8a5358	-0.016885445
13	0xbe11d832	-0.14242628
14	0x3dd3ff1e	0.10351394
15	0xbdac0f81	-0.08401395
16	0x3e174453	0.14772157
17	0x3d7cf532	0.061757274
18	0xbd8f3a28	-0.06993514
19	0x3c043f33	0.0080717085
20	0x3d477ae2	0.048701175
21	0x3ba9b783	0.005179347
22	0x3d842e00	0.06454086
23	0xbe20d236	-0.15705189
24	0xbb64143c	-0.00348021
25	0x3d6601da	0.05615411
26	0xbd199867	-0.037498858
27	0xbcb69814	-0.022289313
28	0x3c600771	0.013673649
29	0xbcdb93a4	-0.026803799
30	0x3d84ab02	0.0647793
31	0x3c7f23a5	0.015572463
32	0xbcc267ca	-0.023731131
33	0x3d5e601c	0.054290876
34	0x3dcb0f60	0.09915042
35	0x3da32362	0.07965733
36	0xbcc234cd	-0.023706818
37	0xbceea993	-0.029133594
38	0x3d9aa35a	0.07550688
39	0xbdac9ba9	-0.08428127
40	0x3d5943d0	0.053043187
41	0x3d6bacd2	0.05753786
42	0xbcd6f6f6	-0.026240807
43	0x3da4ee9b	0.08053323
44	0x3c9edf01	0.019393446
45	0xbc2042fd	-0.009781596
46	0xbda3e899	-0.08003349
47	0xbdeaffd9	-0.1147458
48	0xbdd82437	-0.105537824
49	0xbbd2f2e5	-0.0064376467
50	0x3d6dd130	0.058060825
51	0xbc9d7023	-0.01921851
52	0x3e35b6b9	0.17745484
53	0x3e2572fd	0.16157146
54	0x3d2b075c	0.041755065
55	0x3d0d1b44	0.03444983
56	0x3ccea5c8	0.025225535
57	0xbbda3474	-0.006659085
58	0x3d91e8fd	0.07124517
59	0xbdbf5024	-0.093414575
60	0xbd407cd2	-0.046994038
61	0xbd052ea0	-0.03251517
62	0x3cb282a2	0.021790806
63	0xbd1c59f0	-0.03817171
64	0x3cf72421	0.030168595
65	0xbdc65a36	-0.09685175
66	0xbd9b24ab	-0.07575353
67	0xbe0ce79c	-0.13760227
68	0x3e13800d	0.14404316
69	0x3d697e47	0.057005193
70	0x3dd454a3	0.10367706
71	0xbd207de9	-0.039182577
72	0x3d060bd1	0.032726113
73	0xbce827f1	-0.028339358
74	0x3d7d3d66	0.061826132
75	0x3cc9ce7b	0.02463459
76	0xbcd5d712	-0.02610353
77	0x3de222e8	0.11041814
78	0xbcc21112	-0.02368978
79	0xbd943d6e	-0.07238279
80	0x39b34e71	0.00034199984
81	0xbcd98084	-0.026550539
82	0xbd9ea923	-0.07747104
83	0xbdd0d6d1	-0.10197223
84	0xbcabc1ae	-0.020966377
85	0xbd6ebf29	-0.058287773
86	0xbde9ae29	-0.114101715
87	0xbd6091a9	-0.054826412
88	0xbde5f713	-0.11228766
89	0x3c8f4398	0.017488286
90	0xbdc1112d	-0.09427104
91	0x3ce3a31a	0.027787734
92	0xbd5dc29b	-0.05414067
93	0xbd31e68c	-0.043432757
94	0xbdf4651a	-0.11933346
95	0xbd65f975	-0.056146104
96	0xbe020720	-0.1269803
97	0xbdb9f43e	-0.090797886
98	0xbe27cc17	-0.16386448
99	0x3c5566f0	0.0130250305
100	0xbd57e479	-0.052708123
101	0x3cc4c577	0.02401994
102	0x3d754359	0.05987868
103	0xbdbbeccf	-0.09176027
104	0x3d90c7e4	0.07069376
105	0xbd89bd2e	-0.06725536
106	0xbdf2997d	-0.11845682
107	0xbe6ab7c7	-0.22921668
108	0x3d6f99ff	0.05849647
109	0x3b82c998	0.003991317
110	0x3c545a53	0.012960988
111	0xbd8d92bb	-0.06912752
112	0x3c63cfb9	0.013904505
113	0x3ddb1fb3	0.106994055
114	0x3c26b99f	0.010176091
115	0xbdae6829	-0.08515961
116	0x3dc6863a	0.096935704
117	0x3c3efc84	0.011656884
118	0xbd48cd26	-0.04902377
119	0xbe004cff	-0.12529372
120	0x3db71176	0.08938877
121	0xbd8e7276	-0.069554254
122	0x3c761920	0.015020639
123	0x3d4f900b	0.05067448
124	0xbd2e1d14	-0.0425082
125	0xbd85acb8	-0.06527084
126	0x3ce8eb1e	0.028432425
127	0x3cd603d9	0.026124882
128	0xbd65d192	-0.056108065
129	0xbced9fda	-0.029006887
130	0x3cd828d2	0.026386652
131	0xbd240edb	-0.04005323
132	0x3d690e29	0.05689827
133	0xbcd04838	-0.025425062
134	0xbd5cdf06	-0.05392363
135	0x3d5a90ff	0.053360935
136	0x3d66f7a0	0.056388497
137	0x3d70b2eb	0.05876438
138	0x3d892251	0.066959985
139	0x3d5787e1	0.05261982
140	0x3cf9ac9f	0.03047782
141	0x3d18ce1b	0.037305932
142	0xbba278db	-0.0049582548
143	0xbc27aacc	-0.010233592
144	0xbc212596	-0.009835621
145	0x3d21cbca	0.03950099
146	0x3d71751c	0.058949575
147	0x3bc8d063	0.0061283573
148	0x3d0edc84	0.03487827
149	0xbd3d3c06	-0.04619982
150	0xbcf30da1	-0.029669585
151	0xbd8dfb3f	-0.06932687
152	0x3dece40f	0.11566936
153	0x3d7e5051	0.062088314
154	0x3b34738d	0.0027534694
155	0x3d6e4b7e	0.058177464
156	0x3bd0b00e	0.0063686436
157	0x3d6852dc	0.056719646
158	0x3d78ad94	0.060712412
159	0x3d212a40	0.039346933
160	0x3d66f16b	0.056382578
161	0x3dbc584a	0.09196527
162	0x3ba7e303	0.0051234975
163	0xbc3d9a69	-0.011572459
164	0xbe05049a	-0.12990037
165	0x3c45b78c	0.012067687
166	0xbc1f6de4	-0.00973079
167	0xbe3bf698	-0.18355787
168	0xbd7b5975	-0.06136461
169	0xbc3bd4b4	-0.011464287
170	0x3da6b8ae	0.081406936
171	0xbe25ef32	-0.16204527
172	0x3cf0c5f7	0.029391272
173	0x3d85ec01	0.06539155
174	0x3c2122d9	0.0098349685
175	0xbba5dc8e	-0.0050616926
176	0x3c493bf7	0.012282363
177	0x3d771ec0	0.06033206
178	0xbdbb595a	-0.09147902
179	0x3cf207e5	0.02954478
180	0xbd8b302f	-0.067963
181	0xbdf3d19f	-0.119052164
182	0xbe2a07dc	-0.1660456
183	0x3d584c3c	0.052807078
184	0xbd802db8	-0.0625872
185	0xbd4e8973	-0.05042405
186	0xbd8bc537	-0.06824725
187	0x3cfb5bd3	0.030683434
188	0xbb54e1e7	-0.003248328
189	0xbda1cd82	-0.07900526
190	0xbe098ea3	-0.13433318
191	0xbd20980f	-0.039207514
192	0x3d5baea9	0.053633366
193	0xbcbdcc49	-0.0231687
194	0xbd66dc0f	-0.056362208
195	0x3e33632f	0.17518304
196	0x3e043164	0.12909466
197	0x3d164fb8	0.03669712
198	0x3d251307	0.04030135
199	0x3e043b96	0.12913355
200	0x3db3820f	0.08765041
201	0xbca367c0	-0.019946933
202	0x3da9dc01	0.082939155
203	0x3ded4029	0.11584503
204	0xbddb17fb	-0.10697933
205	0xbcb1f600	-0.021723747
206	0x3b44c80f	0.003002647
207	0x3e306893	0.17227392
208	0x3e1308ca	0.14358822
209	0x3c9e60e2	0.019333307
210	0x3e0d9010	0.13824487
211	0x3c818855	0.015812078
212	0xbd8de404	-0.06928256
213	0x3d124df8	0.035718888
214	0x3d129982	0.035790928
215	0xbd96e2cd	-0.073674776
216	0xbdf2c486	-0.1185389
217	0x3aa6256a	0.0012675945
218	0x3d4a9564	0.049458876
219	0x3c24591b	0.01003101
220	0xbc7f3db5	-0.015578677
221	0x3d836680	0.06416035
222	0x3e46d971	0.19418885
223	0x3ce5f772	0.028072093
224	0x3e7ee0a6	0.24890384
225	0x3d34969a	0.044088937
226	0x3b6874e8	0.0035470072
227	0xbd88c57d	-0.06678293
228	0x3d130b3f	0.035899397
229	0x3d081b66	0.033229254
230	0xbda86cff	-0.08223914
231	0x3c5cef8d	0.013484848
232	0xbc3f9dcd	-0.0116953375
233	0xbdec1a0b	-0.11528405
234	0xbd5a0255	-0.05322488
235	0x3da9325e	0.0826156
236	0xbd407d33	-0.0469944
237	0x3d89a8d6	0.06721656
238	0xbc62fc15	-0.013854046
239	0xbd114942	-0.035470255
240	0xbcbf92bc	-0.023385398
241	0x3c9bd2f1	0.019021483
242	0x3d4c1c1e	0.049831502
243	0xbd869b83	-0.0657263
244	0x3c92a432	0.01790056
245	0x3d2573e6	0.040393732
246	0xbc644aa0	-0.013933808
247	0x3cee8f80	0.02912116
248	0xbc2abb05	-0.0104205655
249	0xbdb77294	-0.08957401
250	0xbd96f476	-0.07370846
251	0xbda4c107	-0.080446295
252	0xbd2e5b05	-0.04256727
253	0xbd9a0956	-0.07521312
254	0xbd502393	-0.050815176
255	0x3d386567	0.04501858

res_conv1.0.bias f4 [32]
0	0xbc7b762e	-0.015348
1	0x3c1151d5	0.008869608
2	0xbc60146f	-0.013676747
3	0x3d25f5d7	0.040517654
4	0xbb56b1ae	-0.0032759714
5	0x3d2d44e3	0.042302024
6	0xbd9aad60	-0.075526
7	0xbca120e0	-0.019668996
8	0xbc63a4cc	-0.013894271
9	0xbd28af69	-0.04118291
10	0xbd590e55	-0.052992184
11	0xbd0bc10d	-0.034119654
12	0xbc7dc7bc	-0.015489515
13	0x3cbf2891	0.023334773
14	0x3c46c672	0.012132274
15	0xbdb2ff73	-0.08740129
16	0xbbbed8e6	-0.005824196
17	0x3bbda241	0.0057871644
18	0xbc6b9add	-0.014380184
19	0xbb860055	-0.004089395
20	0x3cc906da	0.0245394
21	0xbd175c35	-0.03695317
22	0x3b0cce8b	0.0021485414
23	0xbbaf14b8	-0.005343046
24	0x3b8f5dfb	0.004375217
25	0xbc88aab7	-0.016682966
26	0xbcabb235	-0.020959
27	0x3bf84cee	0.00757753
28	0xbc22b109	-0.009929904
29	0x3bf3efb3	0.007444346
30	0xbbef6a83	-0.0073063984
31	0xbd01d149	-0.03169373

res_conv1.2.weight f4 [32, 32, 3, 3]
0	0x3a24cf7d	0.00062870217
1	0xbcf90512	-0.030397926
2	0xbd8abda2	-0.06774451
3	0xbd1c499c	-0.038156137
4	0xbd0e4f87	-0.034743812
5	0xbbbbcc4c	-0.005731141
6	0x3d34f872	0.04418225
7	0xbd17d81c	-0.037071332
8	0x3d25a382	0.040439136
9	0x3c835894	0.016033448
10	0x3b4a3913	0.0030856773
11	0xbcf4969d	-0.029856974
12	0x3b8249a7	0.003976065
13	0x3c95005e	0.018188652
14	0xbd927f1e	-0.07153152
15	0x3bb76a48	0.0055973865
16	0xbd0d2e59	-0.03446803
17	0xbcff11d5	-0.031136433
18	0x3cfec2f8	0.031098828
19	0xbd0d3d15	-0.03448208
20	0xbd554f1f	-0.05207741
21	0xbbe0c9d4	-0.0068599973
22	0x3ca7c089	0.02047755
23	0xbc91b20d	-0.017785097
24	0x3d1da76e	0.03848975
25	0xbc5437e4	-0.0129527785
26	0x3b05a1c2	0.0020390605
27	0xbd80975a	-0.06278868
28	0xbca94041	-0.020660521
29	0xbd27f16c	-0.041001722
30	0x3c804adb	0.015660694
31	0xbcae6e8e	-0.021292951
32	0xbd9b3899	-0.075791545
33	0xbc0ae55b	-0.008477534
34	0xbd3f3da4	-0.046689644
35	0x3c869120	0.016426623
36	0x3d1e696c	0.038674757
37	0xbd42afd4	-0.047530964
38	0x3d009441	0.031391386
39	0xbca5ab81	-0.020223381
40	0xbc041260	-0.008061022
41	0xbd643190	-0.05571133
42	0xbc1ceed7	-0.009578428
43	0x3cd352ff	0.025796412
44	0x3d3d730a	0.046252288
45	0xbd240dbd	-0.040052164
46	0xbd4d8891	-0.050179068
47	0xbcf3ce0d	-0.029761339
48	0xbd10a26e	-0.035311155
49	0xbb886999	-0.004162979
50	0x3c5b96e5	0.013402675
51	0xbc1ac11a	-0.009445453
52	0xbd58b6e2	-0.052908786
53	0xbc99e8ef	-0.01878783
54	0xbcfafbdb	-0.030637672
55	0x3c087c5c	0.008330431
56	0x3d49bb37	0.049250808
57	0xbc97501c	-0.018470816
58	0xbc40cbd7	-0.011767349
59	0xbcef1e05	-0.02918912
60	0x3c969a84	0.018384226
61	0x3d1b93ae	0.037982635
62	0x3d026c90	0.031841815
63	0xbb9ba59f	-0.004749968
64	0x3b96409b	0.0045853383
65	0x3cab7b50	0.020932823
66	0x3d1611eb	0.03663818
67	0x3cdb5e44	0.026778348
68	0x3bff44e9	0.007790197
69	0xbd0edcc4	-0.034878507
70	0xb9edded7	-0.0004537019
71	0xbd406f26	-0.046981
72	0x3cfa9ba1	0.030591788
73	0xbd24980a	-0.04018406
74	0x3d013b6a	0.031550802
75	0xbc15b306	-0.009136921
76	0x3ce3a55f	0.027788816
77	0xbd82c2f7	-0.06384843
78	0xbd7bf2b7	-0.061510768
79	0x3cd2d0ec	0.025734387
80	0x3b8c9399	0.004290056
81	0x3ca75ecb	0.020430943
82	0xbd6e48be	-0.05817484
83	0xbd838ef7	-0.06423753
84	0xbbea70d7	-0.007154565
85	0xbd57cc8d	-0.05268531
86	0xbc635695	-0.013875623
87	0x3bb5b3ee	0.005545131
88	0xbd92ff8b	-0.07177647
89	0xbcd91f3c	-0.026504152
90	0xbd532471	-0.051548425
91	0xbd5c16ae	-0.053732567
92	0x3d2d6123	0.042328965
93	0x3ba2eddf	0.004972204
94	0x3d35e08e	0.044403605
95	0x3cac9669	0.021067815
96	0x3c7bdc9f	0.015372424
97	0x3d318ba3	0.04334606
98	0xbd720792	-0.05908925
99	0x3cf7edd1	0.030264767
100	0x3d22ea00	0.03977394
101	0xbcda3de9	-0.02664085
102	0xbd2c79ff	-0.042108532
103	0xbcdb3e00	-0.026762962
104	0x3aed6c69	0.0018113974
105	0xbc625ea0	-0.013816506
106	0x3c568e76	0.013095489
107	0x3d1695f3	0.036764096
108	0xbbfef638	-0.0077808164
109	0xbc5eb47e	-0.013592837
110	0x3c6e82c6	0.014557546
111	0x3c400889	0.011720785
112	0x3c72b26b	0.014813046
113	0xbcf222eb	-0.029557666
114	0xbd675e15	-0.056486208
115	0xbd3ff22a	-0.046861805
116	0x3b972280	0.004612267
117	0xbc75be8c	-0.014999043
118	0xbd8c90dd	-0.06863568
119	0xbd7a0aad	-0.061045337
120	0x3d13a2df	0.036043998
121	0x3cbf625e	0.023362335
122	0xbd7da33a	-0.061923243
123	0xbd62061b	-0.055181604
124	0x3c41bb2c	0.01182441
125	0x3c16473a	0.009172255
126	0x3ccbdd34	0.024885751
127	0x3caf20da	0.02137797
128	0xbc5abc9c	-0.013350632
129	0xbc14dbe9	-0.009085634
130	0x3d0093c4	0.03139092
131	0xbb3fa1e3	-0.002924078
132	0x3cd049f0	0.025425881
133	0x3c953cb8	0.01821743
134	0xbce6abc8	-0.028158084
135	0xbd277fc9	-0.04089335
136	0xbd48fb7b	-0.049067955
137	0xbbe88c92	-0.0070968354
138	0xbc3e5d12	-0.011618869
139	0x3d7dab9c	0.061931238
140	0xba6a9733	-0.0008948922
141	0xbd0f91b5	-0.035051066
142	0x3cd0c724	0.025485583
143	0x3c959481	0.018259289
144	0xbc3749b0	-0.011187002
145	0xbd78f410	-0.06077963
146	0xbc92098e	-0.017826822
147	0x3cd66660	0.026171863
148	0xbb9307c6	-0.0044870107
149	0x3c8b8543	0.017031318
150	0xbc515fde	-0.012779204
151	0x3b085cf2	0.0020807353
152	0xbd674d80	-0.056470394
153	0x3cdd9d40	0.027052522
154	0xbce1129b	-0.027474692
155	0xbd76db00	-0.06026745
156	0xbd794792	-0.06085927
157	0xbd7546b5	-0.059881885
158	0xbc57ac55	-0.013163646
159	0x3c7bd2a1	0.015370042
160	0xbd21d5f1	-0.03951067
161	0xbd1040ea	-0.035218157
162	0x3a88cdc4	0.00104373
163	0xbd1001a1	-0.035157803
164	0x3d3cfcd1	0.046139542
165	0x3c55dc8b	0.01305307
166	0xbd010503	-0.03149892
167	0x3bcd886a	0.0062723653
168	0xbc83f112	-0.016106162
169	0x3d0cf027	0.034408715
170	0x3c366ad1	0.011133865
171	0x3c5a4db9	0.013324195
172	0xbbd00001	-0.0063476567
173	0x3aee2b06	0.0018170781
174	0xbd35cd1a	-0.044385053
175	0xbd31ed76	-0.04343935
176	0xbd6e50d4	-0.058182552
177	0xbce817d1	-0.028331669
178	0xbbbca270	-0.0057566687
179	0xbd182bd8	-0.037151188
180	0x3cf77c52	0.030210648
181	0xbd43c478	-0.04779479
182	0x3b51fc38	0.0032041203
183	0xbd83bae7	-0.06432133
184	0xbcdd1933	-0.026989555
185	0xbd449356	-0.047992073
186	0xbb2bd007	-0.0026216523
187	0x3d1ee283	0.038790237
188	0xbbc1f910	-0.005919583
189	0x3d859500	0.0652256
190	0xbd356487	-0.044285323
191	0x3d2ef5ad	0.042714763
192	0xbd298944	-0.041390672
193	0x3c10ed7d	0.008845684
194	0xbd67739c	-0.056506738
195	0xbcf8cb08	-0.03037025
196	0x3d0578da	0.032585956
197	0xbb974b7a	-0.004617152
198	0xbcf0b534	-0.02938328
199	0x3d288722	0.041144498
200	0xbd044bb6	-0.032298766
201	0xbd3359ce	-0.043786816
202	0x3bb6cf79	0.005578932
203	0xbd49d3af	-0.049274143
204	0xbca2b4b5	-0.019861558
205	0x3d21276d	0.03934424
206	0xbd3b1ccd	-0.045681763
207	0xbce42208	-0.027848259
208	0x3bf9f8b6	0.0076285256
209	0x3d12314f	0.035691556
210	0xbd458fe6	-0.048232935
211	0xbd777d27	-0.06042209
212	0xbd003296	-0.031298243
213	0x3b5d90cc	0.003380823
214	0xbd386bdc	-0.045024738
215	0x3bea4803	0.0071496977
216	0xbd33279e	-0.043738954
217	0x3cb3a7d5	0.021930614
218	0xbce29bd0	-0.027662188
219	0xbd5c47d3	-0.053779434
220	0xbc93d2ce	-0.018044855
221	0x3ca54050	0.020172268
222	0xbd2c10d8	-0.04200825
223	0xbc08363a	-0.00831371
224	0xbd8563af	-0.06513154
225	0xbc82a941	-0.015949847
226	0x3d0e8d28	0.034802586
227	0xbd62e82c	-0.055397198
228	0xbce3a59a	-0.027788926
229	0xbd16027a	-0.036623456
230	0xbd0f2c70	-0.03495449
231	0xbd5bdd3d	-0.053677786
232	0xbc09c926	-0.008409774
233	0xbd470fbf	-0.048599
234	0xbd3ea1ec	-0.04654114
235	0x3d607a23	0.05480398
236	0x3d40b9ed	0.047052313
237	0xbd46ad37	-0.048505034
238	0xbd53d03a	-0.051712252
239	0xbcecf698	-0.028926179
240	0x3cf11ac2	0.029431704
241	0x3cc5e0e3	0.024155086
242	0x3d37f23f	0.04490876
243	0x3d10ac92	0.035320826
244	0xbd6f40bc	-0.058411345
245	0x3bdec37b	0.0067982054
246	0xbd74d07a	-0.05976913
247	0xbc3284d6	-0.010895928
248	0xbb84a9cb	-0.004048561
249	0xbd027fe7	-0.03186026
250	0xbd2ddb4d	-0.04244547
251	0x3b69dc6a	0.0035684356
252	0xbd78acc0	-0.060711622
253	0xbd1a92bb	-0.03773759
254	0x3cd118fa	0.025524605
255	0xbba7fccf	-0.0051265727

res_conv1.2.bias f4 [32]
0	0xbd7b9c39	-0.061428282
1	0x3cb2d114	0.021828212
2	0xbc6120f3	-0.013740766
3	0x3b1311af	0.002244096
4	0x3ae64db4	0.0017570765
5	0x3c9e2d72	0.01930878
6	0x3b54de3d	0.0032481097
7	0x3b3540bc	0.0027656993
8	0xbdc256cd	-0.09489212
9	0x3c162813	0.009164828
10	0xbc8f0b5d	-0.017461473
11	0xbc32b74a	-0.010907957
12	0x3c940054	0.018066563
13	0xbc64517b	-0.013935442
14	0xbda863ae	-0.082221374
15	0xbb4d880f	-0.0031361615
16	0x3cc769d7	0.02434246
17	0xbda86394	-0.08222118
18	0xbcfa4f6e	-0.030555453
19	0xbcd0809b	-0.025451949
20	0x3bb26e18	0.005445253
21	0x3cb7905d	0.022407705
22	0x3ca10857	0.019657297
23	0x3ccf5f27	0.025313927
24	0xbbe61a13	-0.0070221513
25	0x3bc1800b	0.0059051565
26	0x3c28ea09	0.010309705
27	0x3b54b801	0.0032458308
28	0x3c4e9805	0.0126094865
29	0xbd819177	-0.06326573
30	0x3c6dd8e7	0.014517046
31	0x3cbc495f	0.022984205

conv_i.0.weight f4 [32, 64, 3, 3]
0	0x3d3ea476	0.04654356
1	0xbde3166f	-0.11088263
2	0xbd7a2774	-0.06107278
3	0x3d8e8bfb	0.06960293
4	0xbdd1ecd7	-0.10250252
5	0xbdf03c9f	-0.117303126
6	0x3d3466d3	0.044043373
7	0x3b3ec1c4	0.0029107193
8	0xbccbb018	-0.024864241
9	0xbc83f898	-0.01610975
10	0xbd96db66	-0.07366066
11	0xbd3ef1cf	-0.046617325
12	0xbce0abde	-0.027425703
13	0xbd84443f	-0.064583294
14	0xbd9bad0b	-0.07601365
15	0xbca9ed7e	-0.020743128
16	0xbdfa4a74	-0.12221232
17	0xbd96d949	-0.073656626
18	0xbda0f412	-0.07859053
19	0xbd1dddb4	-0.03854151
20	0xbcd20a81	-0.025639774
21	0xbda2a519	-0.07941646
22	0x3df0efcc	0.117644876
23	0xbd09aa39	-0.033609603
24	0xbd35369f	-0.044241544
25	0x3da68b28	0.08132011
26	0xbd695985	-0.056970138
27	0xbb8ee602	-0.004360915
28	0x39148303	0.00014163186
29	0xbda79f71	-0.08184708
30	0x3c684b36	0.014178088
31	0x3d156e9f	0.03648245
32	0xbd0e9e91	-0.03481919
33	0xbd60a3bb	-0.054843646
34	0x3d1450fd	0.03621005
35	0x3d72fb59	0.059321735
36	0xbdde4614	-0.1085321
37	0xbe2fb6c6	-0.17159566
38	0xbd90dbdc	-0.07073185
39	0xbc8f94be	-0.01752698
40	0x3db1cc69	0.08681566
41	0xbd1734e8	-0.03691569
42	0xbd4849fd	-0.048898686
43	0x3d0a41c0	0.03375411
44	0x3dbf2a51	0.09334243
45	0x3e30bc58	0.17259347
46	0xbcb2c8db	-0.021824291
47	0x3d4b183a	0.04958365
48	0x3d6382ca	0.055544652
49	0xbdc24bd5	-0.0948712
50	0x3dab70e5	0.08371142
51	0x3e5a1d91	0.21300341
52	0x3da23474	0.07920161
53	0x3ded9dd5	0.1160237
54	0xbcee23b0	-0.029069752
55	0xbce16ca1	-0.027517619
56	0xbd4b7058	-0.049667686
57	0x3d5ecfe2	0.05439747
58	0x3df47606	0.11936574
59	0xbd5941ad	-0.05304115
60	0x3d2b30dd	0.041794647
61	0x3e1df072	0.15423754
62	0xbd9c8c7f	-0.07643985
63	0xbd9f50a6	-0.07779054
64	0xbd508f6c	-0.050918028
65	0x3dac1da9	0.08404095
66	0xbc15b5f0	-0.009137616
67	0xbe3aa5e8	-0.1822735
68	0x3c9e7c43	0.019346362
69	0x3d736dba	0.059430815
70	0xbd78f7c2	-0.060783155
71	0xbb903cde	-0.004401787
72	0xbdd71524	-0.10502079
73	0xbcce9c41	-0.025220992
74	0x3bbbe1af	0.0057336907
75	0xbd85b565	-0.06528739
76	0xbd9f43d3	-0.07776608
77	0x3d21d15d	0.039506305
78	0x3e33581b	0.17514078
79	0x3e2323e9	0.15931667
80	0x3e20b7bd	0.1569509
81	0xbe60470f	-0.21902107
82	0xbd58138a	-0.05275301
83	0xbd3c2eb5	-0.04594298
84	0xbe4956ab	-0.19661967
85	0xbe0119d2	-0.12607506
86	0xbd4a0400	-0.04932022
87	0xbe683367	-0.22675858
88	0xbe0eb85b	-0.13937514
89	0x3da4ffe7	0.08056622
90	0xbdd7dba1	-0.10539938
91	0x3c6d9419	0.014500641
92	0x3c22d617	0.009938738
93	0xbd052c83	-0.032513153
94	0x3c762b97	0.015025041
95	0xbda37fe0	-0.079833746
96	0xba9cfa9c	-0.0011976543
97	0x3cdd6cf1	0.027029486
98	0xbd21920a	-0.039445914
99	0x3ddba8b3	0.10725536
100	0xbba782c4	-0.005112024
101	0xbce6ee70	-0.028189868
102	0x3df9e75c	0.122023314
103	0xbdb98b4e	-0.090597734
104	0xbd527d4b	-0.05138902
105	0x3da9bdfa	0.08288188
106	0xbd37cbd4	-0.04487212
107	0xbd60a312	-0.054843016
108	0x3cf42ce8	0.02980657
109	0x3d54789a	0.051872827
110	0x3d1eceb0	0.03877133
111	0xbc1c3119	-0.00953319
112	0x3daf7f89	0.08569247
113	0x3dd1909c	0.1023266
114	0x3db06a93	0.086140774
115	0x3d8832dd	0.066503264
116	0x3db98430	0.09058416
117	0x3bf33a62	0.0074227313
118	0x3d62e90c	0.055398032
119	0xbcec0105	-0.02880908
120	0x3c8448f9	0.016148077
121	0x3cf4e278	0.029893145
122	0xbd170320	-0.036868215
123	0x3e2e5ff5	0.17028792
124	0x3db8e488	0.09027964
125	0x3cf541ae	0.029938545
126	0xbb1acc48	-0.0023620296
127	0xbc24315b	-0.010021533
128	0xbcad0de9	-0.021124797
129	0x3d05d6a9	0.03267542
130	0x3d5bd0a9	0.05366579
131	0xbbff9566	-0.007799792
132	0x3ce46a43	0.0278827
133	0x3d1dd714	0.038535193
134	0x3bfac9fe	0.007653474
135	0x3d4f4f4c	0.050612733
136	0x3dafa0f9	0.08575625
137	0xbdb98b75	-0.090598024
138	0xbcd80318	-0.026368663
139	0x3d9a5d4c	0.07537326
140	0xbd6459ca	-0.055749692
141	0x3ca810ad	0.020515764
142	0x3de361bc	0.11102626
143	0xbbb9f727	-0.005675215
144	0x3d6b36e7	0.057425406
145	0x3d2b3c42	0.041805513
146	0xbd0cda83	-0.034388077
147	0x3cc125d6	0.023577612
148	0x3a9b41d0	0.0011845175
149	0xbd95ca80	-0.073140144
150	0x3dd1d3db	0.10245486
151	0x3d91f2fa	0.07126422
152	0xbdd86bfe	-0.10567473
153	0x3b286445	0.002569453
154	0x3d398c78	0.045299977
155	0xbda26bee	-0.07930742
156	0xbd10adff	-0.035322186
157	0x3d13874f	0.036017712
158	0xbd7aa083	-0.061188232
159	0xbcde134d	-0.027108813
160	0x3d1e7f9f	0.038695928
161	0xbd3372ba	-0.043810584
162	0x3dc87c66	0.09789352
163	0xbc5017bc	-0.012700971
164	0xbd8c318d	-0.068453886
165	0x3d89c20a	0.06726463
166	0x3c4b2429	0.012398758
167	0xbd4c4e58	-0.049879402
168	0x3d86bac5	0.06578592
169	0xbd0e22ac	-0.034701034
170	0xbd918daf	-0.07107102
171	0x3cdbb0b0	0.02681765
172	0x3bdff562	0.006834672
173	0x3dfb00d4	0.12256017
174	0xbc33ea7b	-0.0109811975
175	0xbd1c94d3	-0.038227867
176	0x3d47cacc	0.048777387
177	0x3d138a92	0.036020823
178	0xbc5f6ba8	-0.013636507
179	0x3d64e2f9	0.05588052
180	0x3df9aa89	0.1219073
181	0x3cac0589	0.020998733
182	0xbc652f42	-0.013988318
183	0x3e234d8a	0.15947548
184	0x3cc72f80	0.024314642
185	0x3d841bb1	0.06450594
186	0x3d02e833	0.031959724
187	0x3dd2a58a	0.1028548
188	0x3d40e796	0.047095858
189	0xbd70664f	-0.05869132
190	0xbdb28d2a	-0.08718331
191	0xbd55de94	-0.05221422
192	0xbda0b45f	-0.07846903
193	0xbdd05e16	-0.101741955
194	0x3c3c5a7f	0.011496185
195	0xbd35c08a	-0.044373073
196	0xbdde9f5a	-0.10870238
197	0xbdd83aba	-0.10558076
198	0xbdb3671f	-0.08759903
199	0xbd82081c	-0.06349203
200	0xbdde8bcb	-0.10866507
201	0x3bc3620c	0.005962616
202	0xbc7a63b5	-0.015282561
203	0xbe0a5835	-0.13510211
204	0x3ce2947a	0.02765869
205	0x395572af	0.00020355986
206	0xbde72388	-0.11286074
207	0xbd85da10	-0.06535733
208	0xbd8dfe9a	-0.06933327
209	0xbddf6d02	-0.109094635
210	0xbc86e58d	-0.01646688
211	0x3d81e99c	0.063433856
212	0xbd0b3f6b	-0.033996027
213	0x3d10927d	0.035295952
214	0x3e42628c	0.18982905
215	0x3db2cbec	0.08730301
216	0xbd1e7836	-0.03868886
217	0xbd988720	-0.07447648
218	0xbe0fcca6	-0.14042911
219	0xbde1650c	-0.11005601
220	0xbe37fa06	-0.1796647
221	0xbe071a8c	-0.1319372
222	0xbdc3b324	-0.09555653
223	0xbdeb3649	-0.114849634
224	0xbe1f43b0	-0.15553164
225	0xbd88f17e	-0.06686686
226	0xbd94bf2c	-0.07263026
227	0xbd8bb3fc	-0.06821439
228	0xbbb1e89d	-0.005429341
229	0x3d1aec2f	0.0378229
230	0xbc82dd23	-0.015974587
231	0x3d355316	0.04426869
232	0x3d2adb80	0.041713238
233	0xbd7b6b09	-0.061381374
234	0xbd2ce8e6	-0.042214297
235	0x3ce01c8a	0.027357358
236	0x3dcaf7a2	0.099105135
237	0xbdb02d63	-0.08602407
238	0xbe0baea9	-0.13640846
239	0xbc9e5417	-0.019327207
240	0xbdc4116e	-0.09573637
241	0xbdc762b0	-0.0973562
242	0xbdcc10d8	-0.0996415
243	0xbd170736	-0.03687211
244	0x3d2c5cc9	0.042080674
245	0xbdb7b44f	-0.08969938
246	0xbd2172fc	-0.0394163
247	0xbe15fe08	-0.14647686
248	0xbe4969d2	-0.19669273
249	0x3a9dd69d	0.0012042109
250	0xbb8f3b3f	-0.0043710764
251	0xbd0571aa	-0.0325791
252	0xbc27676b	-0.010217528
253	0xbc737ea2	-0.014861735
254	0xbdcbec7a	-0.09957214
255	0x3c856d41	0.016287448

conv_i.0.bias f4 [32]
0	0xbc7a1022	-0.015262635
1	0xbc3218e1	-0.010870189
2	0xbd750d58	-0.05982718
3	0xbc88412d	-0.01663264
4	0xbdeab109	-0.11459548
5	0x3cffe7f1	0.031238528
6	0xbdc026d0	-0.09382403
7	0x3e33d58c	0.1756193
8	0xbd3732d4	-0.044726208
9	0xbdfdb283	-0.12387564
10	0xbe161370	-0.14655852
11	0xbd238248	-0.039919168
12	0x3d623f60	0.05523622
13	0xbd3bdc8f	-0.045864638
14	0xbdc18c92	-0.0945064
15	0xbd28e804	-0.041236892
16	0x3dc9c4e3	0.09852006
17	0x3d8c415a	0.06848402
18	0xbde54775	-0.1119527
19	0xbc8316d3	-0.016002094
20	0xbdfec142	-0.12439205
21	0x3da8b7c6	0.08238177
22	0x3db8a685	0.09016136
23	0xbd86e93e	-0.06587456
24	0xbde0999f	-0.10966801
25	0xbd063949	-0.032769475
26	0xbd510917	-0.05103406
27	0x3d878263	0.06616666
28	0xbda09465	-0.07840804
29	0xbd27da93	-0.040979933
30	0xbd0a871b	-0.033820253
31	0x3def5ffb	0.11688229

conv_f.0.weight f4 [32, 64, 3, 3]
0	0xbdbb4c5e	-0.09145425
1	0xbde2f593	-0.11081996
2	0xbced134d	-0.028939867
3	0xbe211fff	-0.15734862
4	0xbe1573e0	-0.14594984
5	0xbdedfa86	-0.11620049
6	0xbe27b678	-0.163782
7	0xbdc3889e	-0.09547542
8	0xbd017b96	-0.031612
9	0xbcccfb19	-0.025022076
10	0xbdc1c711	-0.09461797
11	0xbdc440bf	-0.09582662
12	0xbcad73bd	-0.021173352
13	0xbdb1a1c4	-0.086734325
14	0xbe2bf6f3	-0.16793422
15	0xbceed29a	-0.029153157
16	0xbe1f015c	-0.15527862
17	0xbdf1e3b9	-0.11811013
18	0x3d10cef6	0.035353623
19	0x3c919c9a	0.017774869
20	0x3d868b24	0.06569508
21	0x3c3aeafa	0.011408562
22	0x3d6e75a2	0.058217652
23	0x3d9731cd	0.073825456
24	0x3d8abfdc	0.067748755
25	0x3d59a0f9	0.05313203
26	0xbc56202f	-0.013069197
27	0x3d4670e3	0.0484475
28	0x3cb65e82	0.022261862
29	0xbd621985	-0.05520012
30	0x3d5873d8	0.052844852
31	0x3dbcd73a	0.09220739
32	0x3d7197bb	0.058982592
33	0xbb150632	-0.0022739288
34	0x3d37e5ad	0.04489677
35	0x3de4d128	0.11172706
36	0xbea9b076	-0.33142442
37	0xbdd531e3	-0.10409906
38	0xbd6b5ec9	-0.05746344
39	0xbe4b9c59	-0.1988386
40	0xbdcb1288	-0.09915644
41	0xbdaf4c21	-0.08559442
42	0xbe163b32	-0.14671019
43	0xbe240d15	-0.16020615
44	0xbe20ea2c	-0.1571433
45	0xbdf9c46f	-0.1219567
46	0xbebc82e3	-0.3681861
47	0xbe75f67f	-0.24019812
48	0xbe46a7ed	-0.19399996
49	0xbe3627a7	-0.17788564
50	0xbbf2977d	-0.0074033127
51	0xbd508283	-0.050905716
52	0xbdcd36b9	-0.10020203
53	0x3c453b69	0.01203809
54	0xbdd4e667	-0.10395508
55	0x3c3d6a10	0.011560932
56	0x3e017ab2	0.12644461
57	0xbd5b76bf	-0.053580042
58	0x3daa2b68	0.0830906
59	0x3d945575	0.07242862
60	0x3cdcf1fe	0.02697086
61	0x3e297c20	0.16551256
62	0xbb4bd065	-0.0031099555
63	0xbe1f633f	-0.15565203
64	0xbd30ab6f	-0.04313224
65	0x3dd89afa	0.105764344
66	0xbdb6643b	-0.08905836
67	0xbe5903f6	-0.21192917
68	0x3be3c595	0.006951044
69	0xbc95dca5	-0.018293688
70	0xbdb00305	-0.08594326
71	0xbd8488fc	-0.0647144
72	0xbea07f52	-0.31347138
73	0xbda70e4e	-0.08157025
74	0x3ce00dc9	0.027350323
75	0xbe84503e	-0.2584247
76	0xbe860e3d	-0.26182738
77	0xbe8bf016	-0.2733161
78	0x3d3bf9e7	0.045892622
79	0xbe29377d	-0.16525073
80	0xbe9eff2f	-0.31054065
81	0xbe308872	-0.1723955
82	0xbd3ffa2e	-0.04686945
83	0xbdc5726e	-0.09640966
84	0xbe255662	-0.16146234
85	0xbe05e7c7	-0.13076697
86	0xbe081743	-0.13290124
87	0xbe85e210	-0.26149035
88	0xbe0d819d	-0.13818975
89	0xbd420e0f	-0.04737669
90	0xbde77dc4	-0.11303285
91	0xbca7a646	-0.020465028
92	0x3bc6930c	0.00606001
93	0xbe1eee1e	-0.15520522
94	0xbcd1603f	-0.025558589
95	0xbccfdca2	-0.02537376
96	0xbda39c31	-0.079887755
97	0xbc6ab01e	-0.014324216
98	0xbd1f32d1	-0.03886682
99	0x3ddcba61	0.107777365
100	0xbde990ab	-0.11404546
101	0xbe40fd10	-0.18846536
102	0xbd41a768	-0.04727879
103	0xbdc706b8	-0.097180784
104	0xbe114c9c	-0.1418938
105	0xbd044d4c	-0.03230028
106	0xbdfb4528	-0.1226905
107	0xbe31b255	-0.17353185
108	0xbd1cd53a	-0.038289286
109	0xbd4f4618	-0.050603956
110	0xba92f38c	-0.0011211499
111	0xbb75da14	-0.0037514018
112	0xbbc48934	-0.005997801
113	0x3c60532a	0.013691703
114	0xbd547db0	-0.051877677
115	0xbb48ed6c	-0.0030659093
116	0xbcc9fd33	-0.024656868
117	0xbdc45180	-0.095858574
118	0xbd1010e6	-0.035172366
119	0xbc20dc46	-0.009818142
120	0xbdd71608	-0.10502249
121	0xbdcd95b9	-0.10038323
122	0xbd56d3a0	-0.052447915
123	0xbd5b4088	-0.05352834
124	0xbdced551	-0.100992806
125	0x3bf4f67d	0.0074756728
126	0xbd2e135b	-0.042498928
127	0x3ce7bd2f	0.028288452
128	0xbc87822b	-0.016541561
129	0xbd3cc966	-0.046090506
130	0x3d035309	0.03206161
131	0x3c6a7ff5	0.014312734
132	0xbd158aa3	-0.036509167
133	0xbbf06449	-0.0073361737
134	0xbcf2168b	-0.029551765
135	0x3d9355c8	0.07194096
136	0x3d7ba96c	0.06144087
137	0xbcc48430	-0.023988813
138	0xbd83b0d0	-0.06430209
139	0xbc9067c1	-0.017627599
140	0xbd89f55b	-0.06736251
141	0xbc608248	-0.0137029365
142	0xbd63b402	-0.05559159
143	0xbd5decfb	-0.05418108
144	0x3b1b669e	0.0023712288
145	0xbd8fc3a5	-0.07019738
146	0xbe07dbcc	-0.1326744
147	0x3c50e772	0.012750493
148	0xbd91b595	-0.07114712
149	0xbe14d09a	-0.145327
150	0x3c95ed52	0.01830164
151	0xbdc951f8	-0.098300874
152	0xbe2304f8	-0.15919864
153	0xbccc82ca	-0.024964709
154	0xbd8ae74a	-0.06782396
155	0xbd88b3dc	-0.066749305
156	0xbd5a781f	-0.053337213
157	0xbd03ddd8	-0.03219399
158	0xbde0a87d	-0.109696366
159	0xbd801565	-0.06254081
160	0xbd9af648	-0.07566506
161	0xbe05dab5	-0.13071711
162	0xbd1627f6	-0.036659203
163	0xbdf0bdb5	-0.11754934
164	0xbdf026aa	-0.117261246
165	0xbba97bb3	-0.005172217
166	0xbe273d47	-0.16331969
167	0xbe166b64	-0.14689404
168	0xbc58e8fb	-0.013239141
169	0xbe2d6813	-0.16934232
170	0xbe749dae	-0.23888275
171	0xbcfbd0d4	-0.030739225
172	0xbdb6a293	-0.08917727
173	0x3df4f7b9	0.11961312
174	0xbce2d0f6	-0.027687531
175	0xbe2a4615	-0.16628297
176	0x3c3718d3	0.011175352
177	0xbbf9fc61	-0.007628963
178	0xbda80a9c	-0.082051486
179	0x3dbf95fd	0.0935478
180	0x3c874ebb	0.016517034
181	0x3c9f94eb	0.01948019
182	0xbd949ed4	-0.072568566
183	0xbcb27f01	-0.021789076
184	0xbd30075e	-0.042975776
185	0xbcf305d1	-0.02966586
186	0xbde1c767	-0.11024361
187	0xbdca8650	-0.09888899
188	0xbda7a7c8	-0.081862986
189	0xbb325d97	-0.0027216428
190	0xbd6573a6	-0.056018494
191	0x3c998e35	0.018744567
192	0xbc2e1e96	-0.010627409
193	0xbba07a95	-0.0048974254
194	0xbbbb9e81	-0.0057256822
195	0x3d7fee8f	0.062483367
196	0xbceb7091	-0.0287402
197	0xbe051c89	-0.12999167
198	0xbddf41de	-0.10901235
199	0xbe0d3786	-0.13790712
200	0xbddff199	-0.10934753
201	0xbcd5deca	-0.02610721
202	0xbddf5343	-0.10904553
203	0xbe146c0a	-0.14494339
204	0xbd1010d1	-0.035172287
205	0xbd4cc353	-0.049990963
206	0xbe3097e4	-0.17245442
207	0xbd60d958	-0.054894775
208	0xbda51fcf	-0.08062708
209	0x3caa8b12	0.020818267
210	0xbd800d54	-0.06252542
211	0xbd2ee8e3	-0.042702567
212	0x3d41efbe	0.047347777
213	0xbda03ddb	-0.07824298
214	0xbd04c819	-0.03241739
215	0x3e3141f5	0.17310317
216	0x3da36a14	0.07979217
217	0xbc14fa41	-0.009092868
218	0xbc88ebf5	-0.016714076
219	0x3ce829fd	0.028340334
220	0xbccdd543	-0.025126105
221	0xbc29e6ce	-0.0103699695
222	0x3d725681	0.059164528
223	0x3d41f6c9	0.047354493
224	0x3cb9022e	0.022584047
225	0xbe1362d9	-0.14393176
226	0xbd921941	-0.07133723
227	0xbd531e5e	-0.051542632
228	0xbc852c6b	-0.016256532
229	0x3cac224b	0.021012446
230	0xbe18cd7b	-0.14922135
231	0x3ca04b7a	0.01956724
232	0xbd1958dc	-0.03743826
233	0xbe2cec71	-0.1688707
234	0xbda962eb	-0.0827082
235	0x3ce58af3	0.028020358
236	0x3e374ba5	0.1789995
237	0xbdc67112	-0.09689535
238	0xbe5107d7	-0.20413147
239	0xbd6a7f2a	-0.05725018
240	0xbdeb95c7	-0.11503177
241	0xbdfc08d7	-0.123063736
242	0xbdfd2f89	-0.12362582
243	0xbe38d0e3	-0.18048434
244	0xbe089e92	-0.1334174
245	0xbe2f7537	-0.17134558
246	0xbe5a109c	-0.21295398
247	0xbef28d7e	-0.47373575
248	0xbea1f8c6	-0.31635112
249	0xbec92852	-0.39288574
250	0xbeca3149	-0.39490727
251	0xbd4db8db	-0.05022512
252	0xbd6d01ad	-0.057862926
253	0x3b9ca3aa	0.0047802525
254	0xbd8816fb	-0.06645008
255	0xbd20becf	-0.03924447

conv_f.0.bias f4 [32]
0	0x3ce1e0e8	0.027573064
1	0x3d95872d	0.07301173
2	0xbc323b78	-0.010878436
3	0x3d9faf11	0.07797063
4	0x3ca81300	0.020516872
5	0xbd4c7299	-0.049913976
6	0xbba12d15	-0.0049187043
7	0x3db0bf40	0.08630228
8	0x3cd489e0	0.02594465
9	0x3c2e45a5	0.010636722
10	0x3d50dc95	0.050991613
11	0x3ddd7e99	0.10815162
12	0x3d2eecad	0.04270618
13	0xbd495a7d	-0.049158562
14	0x3cf97924	0.030453272
15	0xbc834eef	-0.01602885
16	0x3d9aea86	0.07564263
17	0xbc8386a5	-0.016055414
18	0xbd15fafa	-0.036616303
19	0x3d16d1f6	0.036821328
20	0xbd6d86c8	-0.057989866
21	0x3b961e93	0.0045812814
22	0x3c45f08c	0.012081277
23	0x3c1557cf	0.0091151735
24	0x3d056444	0.032566324
25	0xbca5545f	-0.020181833
26	0x3d82dd56	0.06389873
27	0xbdbcd69c	-0.09220621
28	0xbd086e8e	-0.03330856
29	0xbbd893bc	-0.006609408
30	0x3d62f4f4	0.055409387
31	0x3cba02b3	0.022706365

conv_g.0.weight f4 [32, 64, 3, 3]
0	0xbd99e061	-0.075135
1	0x3c372eed	0.011180622
2	0x3b1a3819	0.0023531972
3	0xbdc7870f	-0.09742557
4	0xbd3e6009	-0.046478305
5	0x3b8ebed5	0.004356245
6	0xbcbe7c06	-0.023252498
7	0x3b13fb52	0.0022580219
8	0x3db9f163	0.09079244
9	0xbd547748	-0.051871568
10	0xbca29928	-0.019848421
11	0x3db16fa7	0.08663874
12	0xbd67bcc5	-0.05657651
13	0xbbc8366d	-0.0061100037
14	0x3dde032d	0.108404495
15	0xbdfca3ed	-0.12335954
16	0x3d5ab615	0.053396303
17	0x3da3f056	0.08004825
18	0xbcaaf7ba	-0.020870078
19	0xbc4b8a2c	-0.012423079
20	0x3cb8cc86	0.022558462
21	0xbd8a9918	-0.067674816
22	0x3d3b8046	0.045776628
23	0x3d1e9f8d	0.03872638
24	0xbdb111f7	-0.08646005
25	0xbd290c17	-0.041271295
26	0x3d219480	0.03944826
27	0xbc89cdda	-0.01682179
28	0xba8ab5d9	-0.0010582759
29	0x3d9ad040	0.07559252
30	0xbd5cbc68	-0.053890616
31	0x3d5adffe	0.05343627
32	0x3de2eeb3	0.110806845
33	0xbde4a550	-0.11164343
34	0x3d832531	0.06403578
35	0x3e1bbd5e	0.15208957
36	0xbda06b0b	-0.07832917
37	0xbdac8d91	-0.08425439
38	0xbd024231	-0.031801406
39	0xbd1b74c7	-0.037953164
40	0x3c4c1801	0.012456895
41	0xbd82e225	-0.0639079
42	0xbd4f5976	-0.050622426
43	0x3dad589b	0.08464166
44	0xbcc1e2e1	-0.023667755
45	0x3bf5f296	0.007505725
46	0xbdf6d7ed	-0.12052903
47	0xbd864c0c	-0.065574735
48	0x3d91ba4f	0.07115614
49	0xbcbd692d	-0.02312144
50	0x3e02a6de	0.12758967
51	0x3d142b9c	0.0361744
52	0x3d1cf741	0.038321737
53	0xbd0ff7f5	-0.03514858
54	0xbd269fba	-0.04067967
55	0xbe1ff06e	-0.1561906
56	0xbe4ba5ff	-0.19887541
57	0xbcf696b5	-0.03010116
58	0xbda8cbdd	-0.08242009
59	0xbdcebd9e	-0.1009476
60	0x3ccec904	0.025242336
61	0xbd8a3777	-0.0674886
62	0xbc1b9fc3	-0.009498539
63	0xbd6edf5f	-0.058318492
64	0x3d2654fd	0.040608395
65	0x3c9bfb38	0.019040689
66	0xbd11bb53	-0.035579037
67	0x3ce5a64b	0.028033396
68	0x3d3b1861	0.045677546
69	0xbd869fb1	-0.065734275
70	0x3d9b3786	0.0757895
71	0x3d876917	0.06611841
72	0xbd1dabfd	-0.0384941
73	0xbd34b1b8	-0.0441148
74	0xbd2976c9	-0.041373048
75	0x3ce78518	0.028261706
76	0xbccc82fb	-0.0249648
77	0x3dca0a17	0.09865206
78	0x3c34dce2	0.011038991
79	0x3dc82544	0.09772733
80	0x3e0fc36a	0.14039388
81	0xbcffa3e9	-0.031206088
82	0xbb53fa1f	-0.0032345129
83	0x3b3e7bed	0.0029065565
84	0x3d9d8ca3	0.0769284
85	0x3cf4795f	0.02984303
86	0x3ca12dba	0.019675124
87	0x3daa0e96	0.08303563
88	0x3d3f0739	0.046637747
89	0x3e1500a9	0.14551033
90	0x3e1c9a6a	0.1529328
91	0xbd8a2902	-0.06746103
92	0xbda3d7dc	-0.08000156
93	0x3dc19460	0.094521284
94	0xbda520de	-0.080629095
95	0xbd816319	-0.063177295
96	0x3e5a092f	0.21292566
97	0xbd9e6d87	-0.077357344
98	0xbe183f96	-0.14868006
99	0xbd21527f	-0.039385315
100	0x3ba4dac8	0.0050309636
101	0x3e0d3e6a	0.1379334
102	0x3daf36f0	0.085554
103	0xbd4193f7	-0.04726025
104	0x3b34c053	0.0027580454
105	0xbd82c804	-0.06385806
106	0xbcd6515f	-0.026161848
107	0x3d930c02	0.07180025
108	0x3a3efffb	0.0007286069
109	0xbde6d50d	-0.11271105
110	0x3b223e6d	0.0024756447
111	0xbda2bdbd	-0.07946346
112	0xbd47712f	-0.048691925
113	0x3c463a96	0.012098929
114	0xbcb32748	-0.021869317
115	0xbda53596	-0.08066861
116	0xbd036c1b	-0.03208552
117	0xbdc16fb8	-0.09445137
118	0xbe092240	-0.13391972
119	0xbd113a30	-0.035455883
120	0xbdcc0cb3	-0.0996336
121	0xbe05e333	-0.13074951
122	0xbd4547fb	-0.04816435
123	0x3d28b397	0.041186895
124	0x3d1e02f4	0.038577035
125	0xbdb0f35d	-0.08640168
126	0x3b20ca09	0.0024534485
127	0xbc9ca638	-0.019122228
128	0xbba4f84d	-0.0050344826
129	0xbd8692af	-0.065709464
130	0xbd784495	-0.06061228
131	0xbca2b73b	-0.019862762
132	0xbbe61a1f	-0.007022157
133	0xbb013cad	-0.0019720003
134	0xbb440dd6	-0.0029915473
135	0xbca2d8bc	-0.019878738
136	0xbd596f08	-0.053084403
137	0x3dbf5554	0.09342447
138	0xbdc8bfd6	-0.09802215
139	0x3d0a60af	0.03378361
140	0x3d876ddc	0.06612751
141	0x3cf6826b	0.030091485
142	0xbc886e39	-0.01665412
143	0xbd7fc00f	-0.06243902
144	0x3cae33db	0.021264961
145	0xbd679f35	-0.056548316
146	0xbdc342b5	-0.09534208
147	0xba1f757b	-0.00060828746
148	0x3c4d35dc	0.012525048
149	0xbdfff75a	-0.124983504
150	0xbcf37bcd	-0.029722119
151	0xbd57689c	-0.052589998
152	0xbd3977e2	-0.045280345
153	0xbe1ec3ae	-0.15504333
154	0x3d97fbf0	0.074211
155	0x3d8c9f0b	0.068662725
156	0xbdc2af29	-0.095060654
157	0xbbfa3e79	-0.007636842
158	0x3d836541	0.06415797
159	0xbcb3133c	-0.021859758
160	0x3d553168	0.05204907
161	0x3c559ef1	0.013038383
162	0xbe291811	-0.16513087
163	0xbd4a9f19	-0.049468134
164	0x3e26a7c5	0.16274936
165	0xbe0c06ec	-0.13674515
166	0x3d16acb6	0.036785804
167	0x3defe5ca	0.11713751
168	0xbd8a33b2	-0.06748141
169	0x3b84dffc	0.0040550213
170	0x3e06c215	0.13159974
171	0x3d8830a5	0.06649903
172	0x3cb680d8	0.022278234
173	0xbd13fd45	-0.03613021
174	0x3d9d8b1d	0.076925494
175	0x3c153098	0.009105824
176	0xbc1d8910	-0.009615198
177	0xbc5fc14a	-0.013656924
178	0xbca776b1	-0.020442339
179	0xbc6478b3	-0.013944793
180	0xbd35cbc1	-0.044383768
181	0xbca49c31	-0.02009401
182	0xbc439d86	-0.011939412
183	0xbd8dc0d7	-0.06921547
184	0xbde54bcb	-0.11196097
185	0xbe12f345	-0.14350612
186	0x3debf2e8	0.1152094
187	0xbbd5eaed	-0.0065282495
188	0xbd21eb77	-0.039531197
189	0x3d750aa4	0.0598246
190	0x3d5548e8	0.052071482
191	0xbd7a0f26	-0.061049603
192	0x3d5950b2	0.053055473
193	0xbbef2de3	-0.0072991713
194	0xbe09def8	-0.13463962
195	0x3c4356e4	0.011922572
196	0x3d07a6e5	0.033118147
197	0xbc3c65fb	-0.011498923
198	0x3ca65ef3	0.020308947
199	0x3d84d2dd	0.064855315
200	0xbda06bb1	-0.078330405
201	0x3d993a0a	0.07481773
202	0x3b36086b	0.0027776014
203	0xbe0b7d99	-0.1362213
204	0xbd0eb76a	-0.034842886
205	0xbc90d6af	-0.017680494
206	0xbdf87fec	-0.12133774
207	0x3d7b0ea9	0.061293278
208	0x3d679ced	0.05654614
209	0x3de89d2f	0.113581054
210	0xbda3eb83	-0.08003905
211	0x3d55836c	0.052127287
212	0x3dbeb882	0.09312536
213	0x3b2dd047	0.0026521848
214	0x3df0e1d8	0.11761826
215	0x3ce03f90	0.027374059
216	0x3df489ba	0.11940332
217	0xbc87e580	-0.016588926
218	0xbd37f47d	-0.044910897
219	0x3dbd0484	0.09229377
220	0x3c9ed6c8	0.019389525
221	0xbceda0ec	-0.029007398
222	0x3d8f8552	0.07007851
223	0x3d423988	0.047418147
224	0x3d668b9d	0.05628549
225	0x3c87215b	0.016495397
226	0x3bf6f939	0.007537034
227	0x3d216ea0	0.03941214
228	0xbcd1837c	-0.025575392
229	0xbcd670ba	-0.0261768
230	0x3d852c48	0.065025866
231	0xbdcafd0f	-0.09911548
232	0x3cefffd6	0.029296797
233	0x3d2f8854	0.042854622
234	0xbd6cd232	-0.057817645
235	0xbcd593b9	-0.026071416
236	0xbd7e15f5	-0.06203266
237	0xbc956a48	-0.018239155
238	0xbc427cc4	-0.011870567
239	0x398b1898	0.0002653047
240	0x3d83e32a	0.064398125
241	0xbd100bd0	-0.035167515
242	0x3cd99729	0.026561337
243	0x3aa9d12b	0.0012956014
244	0xbd736f17	-0.059432115
245	0x3da51686	0.08060937
246	0xbd2f31ae	-0.042771988
247	0x3d27ce16	0.040968023
248	0xbb552034	-0.0032520415
249	0xbde6b411	-0.11264814
250	0x3da05a20	0.0782969
251	0xbd8a7a39	-0.06761593
252	0x3c0bcde4	0.008532975
253	0xbe1b0f42	-0.15142539
254	0xbd41eeee	-0.047347
255	0x3e01a0f0	0.12659049

conv_g.0.bias f4 [32]
0	0xbd034601	-0.032049183
1	0xbbf47ab0	-0.0074609146
2	0xbe07376b	-0.13204734
3	0xbd357b8b	-0.044307273
4	0xbb8680d0	-0.004104711
5	0x3d83b00d	0.064300634
6	0x3d33b522	0.043873914
7	0x3d0600ec	0.032715723
8	0xbc4afb92	-0.012389081
9	0xbb56cb01	-0.0032774808
10	0xbb5166e1	-0.003195219
11	0x3c9a8e52	0.018866692
12	0xbd3f2d39	-0.046673987
13	0xbd6e26f4	-0.058142617
14	0x3c284377	0.010269991
15	0x3b7bd634	0.0038427236
16	0xbc4a8d65	-0.012362813
17	0xbd781b93	-0.06057317
18	0x3a8de9f9	0.0010827176
19	0xbc19de87	-0.009391434
20	0xbc99cbc3	-0.018773919
21	0xbc94db9a	-0.01817112
22	0xbd7a96a8	-0.061178833
23	0x3d32f467	0.04369011
24	0x3d679833	0.056541633
25	0x3b0aeef2	0.0021199551
26	0x3d56c64c	0.052435204
27	0x3d83f133	0.064424895
28	0x3c0a09c1	0.008425177
29	0xba803c99	-0.0009783685
30	0x3ce77524	0.0282541
31	0xbc77a5e9	-0.01511524
