logs/Rain1400/PReNet6/net_latest.pth (torch_old, 681694 bytes, 32 tensors)

conv0.0.weight f4 [32, 6, 3, 3]
0	0x3d591f93	0.053008627
1	0xbd34b44a	-0.04411725
2	0xbd8be5fa	-0.06830974
3	0x3db4ddc9	0.08831365
4	0x3e15eeae	0.1464183
5	0x3e1f2493	0.15541296
6	0xbe754f5a	-0.23956051
7	0xbe88610f	-0.2663655
8	0xbe2c7eb1	-0.16845204
9	0xbe2e91e9	-0.17047848
10	0xbe24a619	-0.16078986
11	0xbd8ca2ac	-0.06866965
12	0x3e37c9d9	0.17948093
13	0x3e90b729	0.2826474
14	0x3e63fd9d	0.22264715
15	0x3dd01852	0.10160889
16	0x3e8b42f5	0.27199522
17	0x3e081d7d	0.13292499
18	0x3cb3aeca	0.021933932
19	0x3cff3249	0.031151908
20	0x3c5f483d	0.013628063
21	0xbc5a0364	-0.013306472
22	0xbdfc951a	-0.12333126
23	0xbd5dc3dc	-0.054141864
24	0xbcb17741	-0.02166331
25	0xbe7a68fb	-0.2445411
26	0xbe33d364	-0.17561108
27	0x3c044f34	0.008075524
28	0xbf719810	-0.94372654
29	0xbdd8dd84	-0.10589126
30	0x3d5dc92a	0.054146923
31	0x3f983556	1.1891277
32	0x3dfbac2d	0.12288699
33	0xbcaa20ff	-0.020767687
34	0xbd094d3a	-0.033520915
35	0xbd29409a	-0.041321374
36	0xbe26c629	-0.1628653
37	0xbf95d986	-1.1707008
38	0xbe5a49e6	-0.21317253
39	0xbdedbf3d	-0.116087414
40	0x3f7f95c6	0.9983791
41	0xbcf3a418	-0.029741332
42	0xbceffe76	-0.029296141
43	0x3da373c1	0.07981063
44	0x3c8c94e1	0.017160835
45	0x3e6aa0c4	0.2291289
46	0xbf801e57	-1.0009259
47	0x3e6b74c1	0.22993757
48	0xbe01771c	-0.12643093
49	0x3f8aa9d5	1.0833079
50	0x3d0873d3	0.033313584
51	0x3e1c705d	0.15277238
52	0xbdd42b1e	-0.103597865
53	0xbcf22bf7	-0.02956198
54	0x3d8d88b9	0.069108434
55	0xbd998b70	-0.07497299
56	0x3d617e99	0.055052374
57	0x3c4a2bb8	0.012339525
58	0x3d92e3e2	0.071723714
59	0xbdb32ac8	-0.08748394
60	0xbdcf21e8	-0.10113889
61	0xbd6cba7f	-0.057795044
62	0xbda131ce	-0.078708276
63	0x3df37e7d	0.1188936
64	0x3da085fb	0.07838055
65	0xbda36436	-0.07978098
66	0x3d50f084	0.051010624
67	0x3e2c73ea	0.16841093
68	0x3e377b68	0.1791817
69	0xbd9eb1a4	-0.07748726
70	0xbdd64827	-0.10462981
71	0x3c7ead24	0.01554421
72	0xbe0f3111	-0.13983561
73	0xbdb2f70b	-0.08738526
74	0xbc99c537	-0.018770797
75	0xbde7f488	-0.113259375
76	0xbdac05a3	-0.083995126
77	0xbd4a8c71	-0.04945034
78	0x3e3a57a8	0.181975
79	0x3d0f8632	0.035040088
80	0x3d418206	0.04724314
81	0x3ef9e590	0.48807955
82	0x3f641661	0.8909665
83	0x3db8d908	0.090257704
84	0xb9fee750	-0.00048618997
85	0xbe245eb4	-0.16051751
86	0x3d828213	0.06372466
87	0xbf1f5b8d	-0.6224907
88	0xbeee8b20	-0.4659052
89	0xbdf2c984	-0.11854842
90	0x3f196968	0.5992646
91	0x3f491c3b	0.785587
92	0xbdf392be	-0.11893223
93	0x3d65708d	0.05601554
94	0xbd518a0b	-0.05115704
95	0x3d513e15	0.051084597
96	0xbf4f25fa	-0.8091732
97	0xbf69f4ae	-0.91388977
98	0x3d9e2925	0.077226914
99	0x3f2b3f8e	0.6689385
100	0x3f4b7a0c	0.79483104
101	0x3cecb937	0.028896911
102	0xbe17aad2	-0.14811257
103	0xbe629a59	-0.22129191
104	0x3cdbe3fd	0.026842112
105	0xbeee4d2e	-0.46543258
106	0xbecbd3d5	-0.39810053
107	0xbd7f94ea	-0.062397875
108	0x3e2dea11	0.1698382
109	0x3db39f04	0.08770564
110	0x3d329af4	0.043604806
111	0xbcdd960f	-0.027049093
112	0xbf2f8246	-0.68558156
113	0x3ded24e2	0.115793005
114	0x3e3b6e5f	0.18303822
115	0x3d864a35	0.065571226
116	0x3c952ef5	0.018210867
117	0xbe3b4053	-0.18286256
118	0xbe0af815	-0.13571198
119	0xbd32b039	-0.04362509
120	0xbce95fcd	-0.028488064
121	0x3e11f953	0.14255266
122	0xbe04819f	-0.12940072
123	0xbe846cf0	-0.25864363
124	0xbdeadb01	-0.11467553
125	0x3b8b43cc	0.0042500254
126	0x3cf0561a	0.029337931
127	0x3d86499a	0.06557007
128	0x3b6075ba	0.0034249858
129	0xbc9e494b	-0.019322058
130	0x3f127dc5	0.5722316
131	0xbc3daf8d	-0.011577499
132	0x3e0933a5	0.13398607
133	0x3bd3cc02	0.0064635286
134	0x3c076b94	0.008265395
135	0x3e5b42b2	0.21412161
136	0xbe53f13b	-0.20697491
137	0x3e17d319	0.14826621
138	0xbf324301	-0.6963349
139	0xbfd2f97d	-1.6482388
140	0xbe2a5c08	-0.1663667
141	0x3ea10b8f	0.3145413
142	0x3d7d31bf	0.06181502
143	0x3e62836e	0.22120449
144	0xbde34e51	-0.11098922
145	0x3d09a42f	0.033603843
146	0xbe385c10	-0.18003869
147	0x3eedff54	0.46483862
148	0x3ec4be65	0.3842651
149	0x3d85f239	0.06540341
150	0xbe683a53	-0.22678499
151	0xbd3b3a7f	-0.045710083
152	0xbd44bc72	-0.048031278
153	0xbe31f61a	-0.17379037
154	0x3e076755	0.13223012
155	0xbcfe2bb9	-0.031026708
156	0x3e31a468	0.17347872
157	0x3fc57084	1.5424962
158	0x3e25bc2f	0.16185068
159	0xbd0a430e	-0.033755355
160	0xbc4ae201	-0.012382985
161	0xbe84bcd5	-0.25925317
162	0xbc39cb69	-0.011340001
163	0x3d411587	0.04713967
164	0xbd3e9f14	-0.046538427
165	0xbddc3717	-0.10752695
166	0x3dac9b44	0.08428052
167	0x3bdd9057	0.0067615914
168	0xbcd21d3e	-0.02564871
169	0xbdd4e8ac	-0.10395941
170	0xbd07743c	-0.033069834
171	0xbd880026	-0.06640653
172	0xbef781cc	-0.48341215
173	0xbd306390	-0.0430637
174	0xbcbb0c6c	-0.022833072
175	0x3eb0ccba	0.34531194
176	0x3d42c262	0.04754866
177	0x3e3e6438	0.18592918
178	0x3e225836	0.15853962
179	0xbc9841a8	-0.018585995
180	0x3b71c11a	0.003688878
181	0x3e6076e4	0.21920353
182	0x3db48024	0.088135034
183	0x3d9dd9cd	0.07707558
184	0x3d01df83	0.031707298
185	0xbc287e1d	-0.010283974
186	0xbe7590e9	-0.2398106
187	0xbe053a9c	-0.13010639
188	0x3d5f39a0	0.054498315
189	0x3e28efc2	0.1649771
190	0x3f261b99	0.6488586
191	0x3ece743e	0.4032306
192	0x3dc5854b	0.09644564
193	0xbf79fdae	-0.9765271
194	0x3ec43b8c	0.3832668
195	0xbe8331e9	-0.25624016
196	0xbead024d	-0.33790818
197	0xba512099	-0.0007977575
198	0xbf0cb7d1	-0.5496798
199	0xbf203ce6	-0.62592924
200	0xbe96fef6	-0.29491395
201	0x3f35b7c8	0.7098355
202	0xbf24ed9f	-0.6442508
203	0xbb84012e	-0.004028461
204	0x3ea5fecf	0.32420966
205	0x3f47c344	0.78032327
206	0x3e851dff	0.25999448
207	0x3de8402d	0.113403656
208	0x3f18927b	0.5959851
209	0xbd8b1502	-0.06791116
210	0x3fa2aa2d	1.2708184
211	0xbf8ce1aa	-1.1006367
212	0xbe8b7669	-0.27238777
213	0xbd801d71	-0.062556155
214	0xbe8ab412	-0.27090508
215	0xbe9c42a5	-0.30519596
216	0xbe68fb64	-0.22752148
217	0x3e250ddd	0.1611857
218	0xbe78ef13	-0.2430995
219	0xbcb3b927	-0.021938873
220	0x3db984de	0.090585455
221	0x3e434540	0.19069386
222	0xbe38a377	-0.18031107
223	0x3e155c00	0.14585876
224	0xbe8a31e3	-0.26991186
225	0x3e0214f4	0.12703305
226	0x3dcffe52	0.101559296
227	0x3e4fd9bd	0.20297904
228	0x3e000174	0.12500554
229	0xbe3f7e2b	-0.18700473
230	0xbd19b442	-0.037525423
231	0x3dd4d6ff	0.1039257
232	0x3cb0b4d7	0.021570606
233	0x3df320c8	0.11871487
234	0xbd8b9ba0	-0.068167925
235	0xbd0e2ef9	-0.034712765
236	0xbe1d0426	-0.15333614
237	0x3de4be77	0.11169141
238	0xbe8e8b7d	-0.27840796
239	0x3df4aac5	0.11946634
240	0xbba9b7fa	-0.0051794024
241	0xbd9732ac	-0.07382712
242	0x3d922902	0.07136728
243	0x3e56c902	0.20975116
244	0x3dc804c7	0.09766536
245	0x3e574554	0.2102254
246	0x3d38e4f0	0.045140207
247	0xbf0a6191	-0.54055125
248	0xbd307340	-0.04307866
249	0x3ddcb410	0.10776532
250	0x3e1c7c59	0.1528181
251	0x3e2559ab	0.16147487
252	0x3e1caedd	0.1530108
253	0xbec5e22d	-0.3864912
254	0x3d83b363	0.064307
255	0xbd3bb8f9	-0.0458307

conv0.0.bias f4 [32]
0	0xbcbcf9b5	-0.023068288
1	0x3cf528b1	0.02992663
2	0xbcbe58b9	-0.023235666
3	0x3d9746af	0.07386529
4	0x3e373438	0.17891014
5	0x3ceab83f	0.028652309
6	0x3d85e445	0.065376796
7	0x3d005a0a	0.031335868
8	0xc03bf916	-2.937078
9	0x3e4053fe	0.1878204
10	0xbe033202	-0.12812045
11	0x3dedb773	0.11607256
12	0x3d03d204	0.03218271
13	0x3cab35ec	0.020899735
14	0x3e798a18	0.24369085
15	0x3da901cd	0.082522966
16	0x3ca89012	0.02057651
17	0xbdd87dd6	-0.10570876
18	0x3d267a65	0.04064407
19	0x3d4de3e7	0.050266173
20	0x3c42a539	0.011880212
21	0xbd30f686	-0.043203853
22	0x3e0f9040	0.14019871
23	0x3d223342	0.039599665
24	0xbb998671	-0.004685216
25	0x3dc9006c	0.098145336
26	0x3d622fcb	0.05522136
27	0x3e0e741f	0.13911484
28	0xbe9b5719	-0.30339888
29	0x3dbbffd0	0.09179652
30	0x3e25998f	0.16171859
31	0x3c437a79	0.011931055

res_conv1.0.weight f4 [32, 32, 3, 3]
0	0x3e5253ee	0.20539829
1	0x3e969632	0.29411465
2	0x3ead2426	0.33816642
3	0xbeebfb35	-0.46090093
4	0xbd385501	-0.04500294
5	0xbca2143e	-0.019785043
6	0xbdd81168	-0.10550195
7	0xbc93ac1d	-0.018026406
8	0xbe90ba35	-0.28267065
9	0xbddfce21	-0.10927988
10	0xbe9d7689	-0.30754498
11	0x3ed81096	0.42200154
12	0x3e76c6bc	0.24099249
13	0xbdd2368f	-0.102643125
14	0x3e270f5b	0.16314451
15	0x3e5f38a4	0.2179895
16	0xbd6c923b	-0.057756644
17	0xbe37a499	-0.17933883
18	0x3f4c3913	0.7977459
19	0x3f11e7a6	0.5699409
20	0x3f1ca7cd	0.61193544
21	0x3da20db3	0.07912769
22	0xbdf7518d	-0.120761015
23	0x3e9358ac	0.2877859
24	0xbef33bfc	-0.47506702
25	0xbf47a340	-0.77983475
26	0xbe6dab36	-0.23209843
27	0xbdd99d6a	-0.106257275
28	0xbeab1b35	-0.33419195
29	0xbcc2b06c	-0.023765765
30	0x3eb3af09	0.3509448
31	0x3e520b56	0.20512137
32	0x3d959dda	0.073054984
33	0x3c0cc6e6	0.008592343
34	0xbeaf5f75	-0.34252515
35	0xbe1490d6	-0.14508376
36	0x3ea23fff	0.3168945
37	0x3eb4b470	0.35293913
38	0xbf72e767	-0.9488434
39	0xbf31c500	-0.69441223
40	0x3cd92e6a	0.02651139
41	0xbf1ace6f	-0.6047124
42	0xbe1faa21	-0.15592243
43	0x3f0d7893	0.55262107
44	0x3e4fd98b	0.2029783
45	0x3f0b329c	0.543741
46	0x3e73c81a	0.23806801
47	0x3eb5ce1a	0.35508806
48	0x3e4fe5ad	0.20302458
49	0xbd82e067	-0.063904576
50	0x3eb90c19	0.36142042
51	0x3e97c308	0.29640985
52	0xbeb779a5	-0.35834995
53	0x3eda9186	0.4268915
54	0x3e8fef09	0.28112057
55	0xbfe65688	-1.7995157
56	0x3f5dbdad	0.8661755
57	0x3ec1cbb3	0.37850723
58	0x3ebe9a19	0.37226942
59	0x3dddcc0b	0.10829934
60	0x3ee753f0	0.45181227
61	0x3e6ea4f0	0.23305106
62	0x3ec24e15	0.37950197
63	0x3b5ee7a8	0.003401259
64	0xbead5da5	-0.33860508
65	0x3d12ad4e	0.035809807
66	0xbd8d37be	-0.068953976
67	0xbde612a8	-0.11234027
68	0xbd398eae	-0.045302086
69	0xbde0ffca	-0.10986288
70	0x3e28e15f	0.16492222
71	0xbd77ffa8	-0.060546547
72	0xbed27b39	-0.41109636
73	0x3d1ff879	0.03905532
74	0xbf710b35	-0.94157726
75	0x3e4c12a3	0.19928984
76	0x3ea5b34e	0.3236336
77	0xbe0f625c	-0.14002365
78	0x3e1eb3e8	0.15498316
79	0x3ebb9954	0.36640418
80	0x3d061382	0.032733448
81	0xbec023ee	-0.37527412
82	0xbec4faaa	-0.38472492
83	0xbe1db109	-0.15399565
84	0x3ef4bddb	0.47801098
85	0x3e8e3fd9	0.27783087
86	0x3f31a8af	0.69398016
87	0x3e5ecaaf	0.21757005
88	0xbefbceb6	-0.49181145
89	0xbb23c04a	-0.002498644
90	0x3dc1a05a	0.09454413
91	0x3ebd09a3	0.36921415
92	0x3eb7b2cb	0.35878596
93	0xbdb3bc4a	-0.08776148
94	0xbda0e5f5	-0.07856361
95	0xbcf6b890	-0.030117303
96	0xbef87aec	-0.48531282
97	0xbf6bd7a0	-0.9212589
98	0xbeb10185	-0.34571472
99	0x3e255aae	0.16147873
100	0xbd96edb8	-0.0736956
101	0x3e975550	0.29557276
102	0x3ed46a44	0.41487324
103	0x3e672bb3	0.22575264
104	0x3e002d71	0.12517335
105	0x3cf61e09	0.030043619
106	0xbe95ece4	-0.29282296
107	0xbf109f60	-0.56493187
108	0x3db5d2c6	0.088780925
109	0xbf18369c	-0.5945833
110	0xbecf9f68	-0.40551305
111	0x3d934aae	0.071919784
112	0x3e9b5afa	0.30342847
113	0xbe52eb1e	-0.20597503
114	0xbedb44ab	-0.42825827
115	0x3db4f1f9	0.08835215
116	0xbd0df89b	-0.034660917
117	0xbf0bf038	-0.5466342
118	0x3cf17e85	0.029479275
119	0xbf6d9d98	-0.92818594
120	0xbe81b14f	-0.25330588
121	0x3e41d81c	0.18930095
122	0x3f2b2718	0.6685653
123	0x3f938cd6	1.1527355
124	0x3f2d6578	0.67732954
125	0x3f1e4493	0.61823386
126	0xbe90035b	-0.2812756
127	0xbeb24c73	-0.3482395
128	0xbe7bd2b1	-0.24592091
129	0xbe820b71	-0.25399354
130	0x3e9a802a	0.30175906
131	0xbe2ed895	-0.17074807
132	0x3da8e65d	0.08247063
133	0x3f037893	0.51355857
134	0x3e550523	0.20802741
135	0xbcc4e8ab	-0.024036726
136	0x3dc2bbad	0.095084526
137	0x3e431920	0.19052553
138	0x3c889eca	0.016677279
139	0xbe24b9e4	-0.16086537
140	0xbe733c9f	-0.23753594
141	0x3e813c7a	0.25241452
142	0xbd2f746e	-0.042835645
143	0x3c2543af	0.010086938
144	0x3db5e275	0.08881084
145	0xbf8f1648	-1.1178675
146	0x3eb505b0	0.35355902
147	0xbd3d9206	-0.046281837
148	0x3d3d0e8c	0.04615645
149	0x3f2e7840	0.68152237
150	0x3c9e091b	0.019291451
151	0x3da50fd8	0.080596626
152	0xbf0dae9e	-0.5534457
153	0xbf8e6635	-1.1124941
154	0xbece4e3f	-0.40294072
155	0xbf21db9c	-0.6322572
156	0x3db58c9b	0.08864709
157	0x3ef53612	0.47892815
158	0x3db5bef6	0.088743135
159	0x3f8dc763	1.1076473
160	0x3e38390d	0.17990513
161	0x3f0a8275	0.5410531
162	0x3e81901a	0.25305253
163	0xbf0e0e56	-0.55490625
164	0x3c7186b9	0.014741593
165	0x3ebfa1d2	0.37428147
166	0x3eb68837	0.356508
167	0xbe625918	-0.22104299
168	0xbc4aef21	-0.012386114
169	0x3efae61e	0.4900369
170	0xbea43b43	-0.32076463
171	0xbf07bcf2	-0.5302268
172	0xbe824c25	-0.2544872
173	0xbebf554d	-0.37369767
174	0xbe30c3fc	-0.17262262
175	0xbd698208	-0.057008773
176	0x3e85e574	0.2615162
177	0x3f06a404	0.5259402
178	0x3d62bd74	0.055356458
179	0x3ea93789	0.33050182
180	0xbc30d999	-0.010794067
181	0x3d996004	0.07489017
182	0x3e3722e1	0.17884399
183	0xbeef9937	-0.4679658
184	0xbea14733	-0.31499633
185	0x3d79fab7	0.061030116
186	0x3eff4bee	0.49862617
187	0xbdb44034	-0.08801308
188	0x3eb08bef	0.3448176
189	0xbd790fce	-0.06080609
190	0xbf433c54	-0.7626393
191	0xbdc6b670	-0.09702766
192	0x3e9a03dc	0.3008107
193	0xbe47c26a	-0.19507757
194	0x3e4f7fb3	0.20263557
195	0xbb54fd2f	-0.0032499542
196	0x3e425ac6	0.1897994
197	0x3e19e3b2	0.15028265
198	0x3f0250be	0.5090445
199	0x3f0f3b26	0.5594963
200	0xbe6a8695	-0.22902901
201	0xbf2cc057	-0.6748099
202	0x3c70c4fb	0.014695401
203	0x3d60c65d	0.054876674
204	0x3f114127	0.5674004
205	0xbcac16c9	-0.021006959
206	0x3e77a895	0.24185403
207	0xbe3b55a3	-0.18294387
208	0xbcedae58	-0.029013798
209	0x3de0b3ca	0.10971792
210	0x3df551ab	0.119784676
211	0xbad6889b	-0.0016367616
212	0x3d7455aa	0.059652008
213	0x3d8747f9	0.066055246
214	0x3bc1370c	0.0058964547
215	0x3e7c739e	0.2465348
216	0x3f26c6a3	0.65146846
217	0x3f4d13fe	0.8010863
218	0xbf97fe36	-1.1874454
219	0xbb377727	-0.0027994604
220	0x3ddda6b1	0.108228095
221	0xbed0cef2	-0.40782887
222	0xbedce465	-0.43143
223	0xbec7846e	-0.38968223
224	0x3f5f8aaa	0.8732096
225	0x3ecf884f	0.40533683
226	0xbe6fe6ac	-0.23427838
227	0x3eedc0f6	0.4643628
228	0xbd8ef0f9	-0.06979556
229	0x3e1fac62	0.15593103
230	0xbe4b7264	-0.19867855
231	0xbed57e2b	-0.4169782
232	0x3e1d15c0	0.15340328
233	0xbe48339d	-0.19550939
234	0xbe78424c	-0.2424404
235	0xbdc51931	-0.096239455
236	0xbcbb59b2	-0.022869918
237	0x3d812eff	0.06307792
238	0xbec03fb5	-0.37548605
239	0x3e22fa55	0.15915807
240	0x3d529589	0.05141214
241	0x3e99cfc4	0.30041325
242	0x3df260a5	0.1183484
243	0x3e647f14	0.22314101
244	0x3e742155	0.2384084
245	0xbeafd1f1	-0.3433986
246	0x3bb7d572	0.0056101615
247	0xbe5cd16c	-0.21564263
248	0x3e70916a	0.23492971
249	0xbca50434	-0.020143606
250	0xbe488b87	-0.19584475
251	0x3d87fe61	0.06640316
252	0xbed6a2ca	-0.41921073
253	0x3f181f1d	0.59422475
254	0xbe4d5267	-0.20050965
255	0x3d4e1db1	0.050321285

res_conv1.0.bias f4 [32]
0	0x3b24feab	0.0025176208
1	0x3d70fb7d	0.058833588
2	0x3cca6bb1	0.024709554
3	0xbe046eb1	-0.1293285
4	0x3d9c437e	0.076300606
5	0x3bb0dcf0	0.0053974316
6	0x3b86d224	0.004114406
7	0xbc893a71	-0.0167515
8	0x3d337660	0.043814063
9	0x3be47ed9	0.006973129
10	0x3c7c4e1c	0.015399482
11	0x3caa30d4	0.020775236
12	0x3c9696d8	0.018382475
13	0xbb16431f	-0.002292819
14	0x3cb2e3ff	0.021837233
15	0x3cdc0fa2	0.026862923
16	0xbe1d36d7	-0.15352951
17	0xbc1f882a	-0.009737054
18	0xbe4111c3	-0.18854432
19	0x3d7d41f8	0.06183049
20	0xbcc0b275	-0.023522595
21	0xbe2571e2	-0.16156724
22	0xbd554039	-0.0520632
23	0xbc0c8ba3	-0.008578214
24	0xbdad6301	-0.08466149
25	0xbde87966	-0.1135128
26	0x3d2b0d80	0.04176092
27	0xbc8fc3b3	-0.017549371
28	0x3cd13dee	0.025542226
29	0x3b94be2b	0.0045392714
30	0xbd35b395	-0.044360716
31	0x3ce3dfcf	0.027816681

res_conv1.2.weight f4 [32, 32, 3, 3]
0	0x3e239d7a	0.15978041
1	0xbb878724	-0.004135983
2	0x3deda035	0.11602823
3	0xbd5ae500	-0.053441048
4	0x3db7c945	0.08973936
5	0xbd70a519	-0.0587512
6	0x3d235d5e	0.039883964
7	0x3caa5119	0.020790624
8	0x3da16923	0.07881381
9	0x3df93cc6	0.12169795
10	0xbd0785bf	-0.033086535
11	0x3d3a3450	0.045460045
12	0xbd576b2c	-0.05259244
13	0xbd7474d4	-0.05968173
14	0x3c5b0471	0.013367758
15	0x3b572309	0.003282728
16	0xbbe1d50d	-0.0068918527
17	0xbb3b43f6	-0.0028574443
18	0x3cbe6732	0.023242567
19	0x3d84ffc6	0.064940974
20	0x3dc7f2f9	0.0976314
21	0xbd15eb4f	-0.03660136
22	0xbd9dc41e	-0.07703422
23	0x3d3400df	0.043946143
24	0x3db634f0	0.08896816
25	0xbcf82902	-0.030292992
26	0xbd2abb12	-0.04168231
27	0x3d61e9a6	0.055154465
28	0x3c8ce23b	0.017197719
29	0x3d9ee2c1	0.077580936
30	0xbd034f3e	-0.032057993
31	0xbd55e9be	-0.052224867
32	0xbdc214fb	-0.09476658
33	0xbd89cf16	-0.06728952
34	0xbd18f8b5	-0.03734656
35	0xbd49c603	-0.049261104
36	0x3e635d6b	0.22203605
37	0xbd9a28ae	-0.0752729
38	0xbdd04f91	-0.10171426
39	0x3d1107b8	0.03540775
40	0xbe0e3e30	-0.1389091
41	0xbe19415b	-0.14966337
42	0x3e7793de	0.241775
43	0x3c3be16a	0.011467317
44	0xbdf04cdf	-0.11733412
45	0xbd48eb82	-0.049052723
46	0xbdaa13e9	-0.08304579
47	0xbd750dd1	-0.05982763
48	0x3d6d1163	0.05787791
49	0x3d48c049	0.049011502
50	0xbcc64bd1	-0.024206074
51	0x3e2fcf26	0.17168865
52	0x3de97820	0.11399865
53	0x3d15496f	0.036446985
54	0x3c5817ff	0.013189315
55	0x3d89bff7	0.067260675
56	0xb87af9d6	-5.9837323e-05
57	0xbd7e5398	-0.06209144
58	0xbd8f8084	-0.07006934
59	0xbd4f0fd3	-0.0505522
60	0x3dcded59	0.10055036
61	0xbd3df3e2	-0.046375163
62	0xbd00094e	-0.031258874
63	0x3d2964d1	0.04135591
64	0x3c92fb17	0.017941995
65	0xbd10e737	-0.035376754
66	0x3d2a32e4	0.04155244
67	0xbcda08d7	-0.026615543
68	0x3c19de5e	0.009391395
69	0x3c831fae	0.016006317
70	0x3de00216	0.10937898
71	0xbc7f24c7	-0.015572733
72	0x3b850ae8	0.004060138
73	0xbd36a7b5	-0.04459353
74	0x3aba73c6	0.0014225177
75	0x3d98c38e	0.07459174
76	0x3b0f9ab9	0.002191229
77	0xbd889dd1	-0.06670726
78	0x3bf4d56f	0.0074717323
79	0xbc392550	-0.0113004
80	0xbc5b965f	-0.0134025505
81	0xbe09904c	-0.13433951
82	0xbe8e08ad	-0.27740994
83	0xbe1a3881	-0.15060617
84	0xbcd1813c	-0.025574319
85	0xbe682af4	-0.22672635
86	0xba85d400	-0.0010210276
87	0xbb57db3c	-0.003293707
88	0xbe04922f	-0.1294639
89	0x3debcf8d	0.115141965
90	0x3ebde5a9	0.3708928
91	0x3df96aed	0.121785976
92	0xbe43dd18	-0.1912731
93	0x3e80bbf0	0.25143385
94	0xbd077761	-0.033072833
95	0xbd7fe76f	-0.06247657
96	0x3e423b50	0.18967938
97	0xbe874a23	-0.2642375
98	0xbec6413f	-0.38721654
99	0xbd252b8b	-0.04032473
100	0x3b4a4e77	0.0030869523
101	0x3d543dcf	0.051816758
102	0xbe03bc60	-0.12864828
103	0x3b6cff6f	0.0036162992
104	0x3cae020c	0.02124121
105	0x3e106da5	0.14104326
106	0xbdef74d0	-0.11692202
107	0xbe38e5d9	-0.1805643
108	0xbe067c14	-0.1313327
109	0xbd9a1ee2	-0.07525422
110	0xbd808a54	-0.06276384
111	0x3cd1e317	0.02562098
112	0x3d54490b	0.05182747
113	0xbde1e065	-0.11029128
114	0xbcb94dfd	-0.022620196
115	0x3de310c4	0.11087182
116	0x3d890c99	0.06691856
117	0x3dd71354	0.105017334
118	0x3ee3b48f	0.44473693
119	0x3cd351b1	0.02579579
120	0x3d23e1a9	0.04001013
121	0xbda6d015	-0.08145157
122	0x3df0c22c	0.11755785
123	0xbee49e3f	-0.44651982
124	0xbed83a40	-0.4223194
125	0xbecc3183	-0.39881524
126	0x3ddf69f3	0.1090888
127	0x3d2a1fa0	0.041534066
128	0x3de37142	0.111055866
129	0xbd4c20a7	-0.049835827
130	0xbc854913	-0.016270196
131	0xbd14f37d	-0.03636502
132	0xbd14ad74	-0.03629823
133	0x3ce197a7	0.027538134
134	0xbba4969d	-0.0050228373
135	0x3c820649	0.015872138
136	0x3cf3f11a	0.029778052
137	0xbe2cc4b4	-0.16871911
138	0xbcc3065d	-0.023806745
139	0xbd595ae5	-0.0530652
140	0x3d8089a7	0.06276255
141	0x3d8b8be4	0.068137914
142	0xbd1344d5	-0.035954315
143	0x3d14f31d	0.036364663
144	0x3cbed8d9	0.02329676
145	0x3dbffbf1	0.09374226
146	0x3bb452a1	0.005503014
147	0x3b807661	0.003920362
148	0xbd6d06ac	-0.05786769
149	0x3caac0f7	0.020843966
150	0x3dfbc77f	0.1229391
151	0x3d7ac70a	0.061224975
152	0x3d50ce88	0.050978214
153	0xbe08c4c6	-0.13356313
154	0xbd9118f5	-0.07084838
155	0xbd72f110	-0.059311926
156	0xbb40de4c	-0.0029429374
157	0x3ccb3ea2	0.02481014
158	0xbd8cc354	-0.068731934
159	0xbdaa420b	-0.08313378
160	0x3bca1d78	0.0061680637
161	0xbc0cac9c	-0.008586075
162	0xbe3d7fee	-0.18505833
163	0xbd9bacdc	-0.0760133
164	0xbe59d54a	-0.2127277
165	0xbc75b116	-0.014995834
166	0xbcf33d68	-0.029692367
167	0x3d935374	0.07193652
168	0xbd4933d7	-0.049121704
169	0xbdea9400	-0.1145401
170	0xbdcfd043	-0.10147145
171	0x3d3a5005	0.04548647
172	0xbb81bfb3	-0.00395962
173	0x3e3fa457	0.18715034
174	0xbef88311	-0.48537496
175	0xbdfb9271	-0.12283791
176	0x3d888298	0.06665534
177	0x3e71b584	0.23604399
178	0x3d0d0240	0.034425974
179	0x3db6ba65	0.08922271
180	0xbd2022ef	-0.039095815
181	0x3c8df349	0.017327921
182	0x3d44c421	0.048038606
183	0xb7268ecc	-9.9276185e-06
184	0xbd8286ae	-0.06373344
185	0xbc2cde54	-0.010551054
186	0xbc6f122d	-0.014591736
187	0x3cbdcbc4	0.023168452
188	0xbc9d0d41	-0.019171359
189	0x3d8d6ba7	0.06905299
190	0xbdb95054	-0.090485245
191	0x3d687cba	0.056759574
192	0x3d3e931e	0.04652702
193	0xbd00ac5d	-0.03141438
194	0x3dac4981	0.08412457
195	0x3c05994c	0.008154225
196	0xbcb482fe	-0.022035118
197	0x3de46e72	0.11153878
198	0xbe04a7c9	-0.1295463
199	0xbd37fa2d	-0.04491632
200	0x3d952e42	0.072842136
201	0xbe07d591	-0.13265063
202	0x3d1d303d	0.03837608
203	0x3d890eed	0.066923
204	0xbcb9a232	-0.022660349
205	0xbdb370bb	-0.08761736
206	0x3e12b45f	0.14326619
207	0xbd857566	-0.065165326
208	0xbda0090f	-0.07814228
209	0xbd886d9e	-0.06661533
210	0xbd035434	-0.032062724
211	0x3d9889d2	0.07448162
212	0xbb845318	-0.004038226
213	0x3c118e38	0.008884005
214	0xbcc4e2e2	-0.024033967
215	0x3ca39020	0.019966185
216	0xbe141301	-0.14460374
217	0xbe8060fd	-0.25073996
218	0xbe16402c	-0.14672917
219	0xbddb0d29	-0.106958695
220	0xbd872f81	-0.066008575
221	0xbdfa5880	-0.12223911
222	0x3cb21bc1	0.02174175
223	0xbdbbe5aa	-0.09174664
224	0x3da7f890	0.082017064
225	0xbd01d1db	-0.031694274
226	0x3d7a8bdd	0.06116854
227	0xbdc9b2da	-0.09848566
228	0xbb7f92b1	-0.0038997347
229	0xbd2432d1	-0.040087525
230	0xbd275557	-0.04085287
231	0xbe312f95	-0.17303307
232	0x3d54d7c7	0.051963594
233	0xbc6260de	-0.01381704
234	0x3d0c67df	0.034278747
235	0x3daafda6	0.08349161
236	0x3e348fdd	0.17633004
237	0xbd4a5cf0	-0.04940504
238	0xbd90a411	-0.07062543
239	0xbe200d9f	-0.15630196
240	0xbdb2ccfe	-0.087305054
241	0x3d76ff30	0.06030196
242	0x3d8f248a	0.06989391
243	0x3c1b9d2b	0.009497921
244	0x3d13c64a	0.036077775
245	0xbd0eb2a1	-0.034838323
246	0xbcfd33e2	-0.030908529
247	0x3c4af406	0.012387281
248	0xbba6d443	-0.0050912215
249	0x3d8ddff1	0.06927479
250	0xbcb79d3f	-0.022413848
251	0xbd45e918	-0.048318
252	0x3e39feca	0.181636
253	0x3ccd844f	0.025087504
254	0x3e032501	0.12807085
255	0x3c7cfdd3	0.015441376

res_conv1.2.bias f4 [32]
0	0x3db5a052	0.08868469
1	0xbda01990	-0.07817376
2	0xbe54fa38	-0.20798576
3	0xbd3193f0	-0.043353975
4	0xbe3e7850	-0.18600583
5	0xbd7eab0f	-0.062174853
6	0xbd9469d7	-0.0724675
7	0xbdec00f8	-0.11523622
8	0xbdbb93e9	-0.09159071
9	0xbd5fd209	-0.054643665
10	0xbda0a6b4	-0.07844296
11	0xbeb238d0	-0.3480897
12	0xbd84921d	-0.064731814
13	0x3ca5bb3a	0.020230878
14	0xbd518796	-0.051154695
15	0x3d4dc52d	0.05023687
16	0xbdd3b1dc	-0.10336658
17	0xbc21a4e0	-0.009865969
18	0xbe4b4327	-0.19849835
19	0xbde8cee3	-0.113675855
20	0x3d33254e	0.04373675
21	0xbd4a905d	-0.04945408
22	0x3d65158a	0.055928744
23	0xbe1c864d	-0.15285607
24	0x3d3178a4	0.043327942
25	0xbd937d81	-0.07201672
26	0xbe222d5d	-0.15837617
27	0x3ae9e248	0.0017843926
28	0xbab20567	-0.0013581932
29	0xbddda84c	-0.10823116
30	0x3cda4d54	0.026648201
31	0xbd8479e4	-0.06468561

res_conv2.0.weight f4 [32, 32, 3, 3]
0	0xbeb14c40	-0.34628487
1	0xbebb9bb3	-0.36642227
2	0x3e43a0d8	0.19104326
3	0x3e8651ba	0.26234227
4	0x3def1bbb	0.11675211
5	0xbf617d29	-0.88081604
6	0xbd4dbdf8	-0.050229996
7	0x3e8c47fc	0.2739867
8	0xbe9ec93f	-0.31012914
9	0x3c84d34e	0.01621404
10	0x3e0407c8	0.12893593
11	0x3ed56453	0.41678104
12	0xbea54c9f	-0.3228502
13	0x3ddb975b	0.10722228
14	0x3eb782be	0.35841936
15	0x3da7f70f	0.082014196
16	0x3f490d73	0.78536147
17	0xbec41ef0	-0.38304853
18	0x3dbd9d34	0.092585
19	0xbe5292b3	-0.20563774
20	0x3ee77886	0.4520914
21	0xbc3eba86	-0.01164115
22	0xbe0f2a3b	-0.13980953
23	0xbf166b40	-0.587574
24	0xbea9958a	-0.33121902
25	0x3e88a9ae	0.26691955
26	0xbf16f36b	-0.58965176
27	0x3e19a6a0	0.15004969
28	0x3e582d61	0.2111106
29	0xbedaf4fa	-0.42765027
30	0x3d87a1d5	0.06622664
31	0xbbbd6725	-0.005780118
32	0x3e35b7e8	0.17745936
33	0xbf2a1550	-0.6643877
34	0xbefa65ef	-0.48905894
35	0x3dc7c915	0.0975515
36	0xc01346fa	-2.301207
37	0x3f483288	0.78202105
38	0x3f4c24e0	0.79743767
39	0x3f45a7b9	0.7720905
40	0xbd96bb4a	-0.07359941
41	0x3f8ae959	1.0852462
42	0x3f9b90f1	1.2153608
43	0xbfa0056b	-1.2501653
44	0x3f32de5c	0.69870543
45	0xbf5a5320	-0.8528309
46	0xbf73848e	-0.9512414
47	0x3f4a77e0	0.79089165
48	0xbebd9e06	-0.37034625
49	0xbfa3c5dc	-1.2794757
50	0x3ef384a5	0.47562137
51	0x3e88b5b8	0.2670114
52	0xbf0f8a5b	-0.5607049
53	0xbf152522	-0.58259785
54	0x3e6682fb	0.22510903
55	0x3e662bb8	0.22477615
56	0x3e27410c	0.16333407
57	0xbece7eb3	-0.4033104
58	0xbd466ec0	-0.048445463
59	0xbe23e7e0	-0.16006422
60	0xbea89940	-0.3292942
61	0xbe86fa72	-0.2636295
62	0xbe80eb2b	-0.2517942
63	0xbeca7ff4	-0.39550745
64	0xbedc3267	-0.43007204
65	0xbfd906dc	-1.6955218
66	0xbee4386c	-0.44574296
67	0x3e01495e	0.12625644
68	0xbf1a16c3	-0.6019098
69	0xbf389918	-0.721086
70	0xbe8849f5	-0.26618925
71	0xbf2f9534	-0.6858704
72	0xbef781be	-0.48341173
73	0xbfc6bf2f	-1.5527095
74	0x3f5d3091	0.8640223
75	0x3eb71b00	0.35762787
76	0xc06f54b8	-3.7395458
77	0x3e1eb6a6	0.15499362
78	0x3f08171f	0.5316028
79	0x3e5e7a1e	0.21726272
80	0x3dae2303	0.08502772
81	0xbd2e23e3	-0.042514693
82	0x3c01f1f3	0.00793122
83	0xbeadc563	-0.33939657
84	0x3c92153f	0.017832397
85	0x3e363112	0.17792156
86	0x3d3fa49a	0.046787836
87	0x3e23c935	0.15994723
88	0xbdd11a90	-0.102101445
89	0x3e3f7d54	0.18700153
90	0x3e273c02	0.16331485
91	0xbf0c57b7	-0.5482134
92	0x3da1b452	0.078957215
93	0x3f0c51d4	0.5481236
94	0xbea49317	-0.3214347
95	0x3e9fad9b	0.31187138
96	0x3ed75991	0.4206052
97	0xbe7bd369	-0.24592365
98	0x3ef57672	0.4794193
99	0xbf127895	-0.57215244
100	0x3d63a28a	0.05557493
101	0xbed2647f	-0.41092297
102	0xbf603e44	-0.8759501
103	0x3efc4c44	0.49276936
104	0xbed291cc	-0.4112686
105	0xbf02ee1c	-0.51144576
106	0xbcad8a4a	-0.021184105
107	0xbd0d0355	-0.034427006
108	0xbf2d0371	-0.67583376
109	0x3e429e33	0.1900566
110	0x3e99545e	0.2994718
111	0xbed994b6	-0.4249627
112	0xbe82a2ab	-0.2551473
113	0x3f21d9b4	0.63222814
114	0xbf08c5dd	-0.53426915
115	0xbf43b9b0	-0.7645521
116	0xbe34a80c	-0.1764223
117	0xbdf8da89	-0.12151057
118	0x3ec791ac	0.38978326
119	0x3e40273a	0.18764964
120	0x3e56fac8	0.20994103
121	0xbe66a853	-0.22525148
122	0x3d1a7786	0.037711643
123	0x3e11795d	0.14206453
124	0x3e1f70e7	0.15570413
125	0xbe80642f	-0.25076434
126	0x3c042503	0.008065465
127	0xbf7b9082	-0.98267376
128	0xbf0d4bef	-0.5519399
129	0x3dcd43bd	0.10022686
130	0xbf65c883	-0.8975908
131	0xbf4798b2	-0.7796737
132	0xbe96c70f	-0.29448745
133	0xbf2bad95	-0.6706174
134	0xbf53176b	-0.8245761
135	0xbb7fd332	-0.0039035794
136	0xbea6af59	-0.32555655
137	0x3d47e899	0.048805807
138	0xbd25b5a7	-0.04045644
139	0x3e4f13b0	0.20222354
140	0x3d9f688c	0.077836126
141	0x3e0a9828	0.13534606
142	0x3e23f4e1	0.16011383
143	0xbe64cb24	-0.22343117
144	0xc01b74c5	-2.429002
145	0xbf834078	-1.0254049
146	0xbf059202	-0.52175915
147	0xbf627f5d	-0.8847559
148	0x3fdeceec	1.7406898
149	0x3e86aea7	0.26305124
150	0x3e4d9cf4	0.20079404
151	0x3f0ed240	0.55789566
152	0xbec6282e	-0.3870253
153	0x3e577ec6	0.21044454
154	0xbedf6088	-0.43628335
155	0x3e14ff1b	0.1455044
156	0xbef2db98	-0.47433162
157	0xbe830061	-0.25586227
158	0xbce2c660	-0.027682483
159	0xbfc50845	-1.5393149
160	0xbe569533	-0.20955352
161	0x3ed1112f	0.40833423
162	0x3f0f9ba3	0.5609686
163	0x3d82712b	0.06369241
164	0x3eb31bb0	0.3498206
165	0x3f2d253b	0.67634934
166	0x3ec1b41b	0.37832722
167	0xbb4af34c	-0.003096777
168	0x39f6bb49	0.00047060315
169	0xbc87f983	-0.016598469
170	0x3fb41a6a	1.4070561
171	0x3f31e539	0.6949039
172	0x3c189743	0.009313407
173	0x3e58ed12	0.21184185
174	0xbdad91ae	-0.08475052
175	0xbdb7ff3b	-0.08984228
176	0x3e198b94	0.14994651
177	0x3dea1662	0.114300504
178	0xbf133972	-0.5750953
179	0x3e9003a5	0.2812778
180	0x3daad9df	0.08342337
181	0x3e74c962	0.23904946
182	0xbcb65589	-0.022257583
183	0x3d21caf2	0.039500184
184	0xbb130853	-0.0022435382
185	0x3d8a3ec0	0.0675025
186	0x3f04884b	0.51770467
187	0xbe0bd53b	-0.1365556
188	0xbe66dc59	-0.22544993
189	0x3e7b7c7c	0.24559206
190	0xbf157b27	-0.5839104
191	0x3e0ba1a8	0.13635886
192	0x3e47d5bb	0.19515125
193	0xbedc1cab	-0.42990622
194	0x3e6fcc24	0.23417717
195	0x3e458ae2	0.19291261
196	0xbf3cf790	-0.7381525
197	0x3de319d5	0.110889114
198	0x3f1e26e4	0.6177809
199	0xbf4fa856	-0.81116235
200	0x3d9f4ef1	0.07778729
201	0x3dad07aa	0.084487274
202	0x3d8bac79	0.06820006
203	0xbe370971	-0.17874695
204	0xbf079363	-0.5295927
205	0xbc6e954a	-0.0145619605
206	0x3e55aa81	0.20865823
207	0xbf8151c7	-1.0103081
208	0xbeb9429d	-0.36183634
209	0x3ef1d46f	0.47232386
210	0x3e74af6c	0.23895043
211	0x3e7a9f7f	0.24474905
212	0x3dff24ef	0.124582164
213	0x3ef7773c	0.48333156
214	0x3ea1f6f0	0.3163371
215	0xbe03133b	-0.12800305
216	0xbedf3f18	-0.43602824
217	0xbe1a5a22	-0.15073445
218	0xbee691a0	-0.45032978
219	0xbe91d888	-0.28485513
220	0xbd9196af	-0.07108819
221	0x3ea2b59f	0.3177919
222	0xbe075146	-0.13214597
223	0x3ebb6ab6	0.3660485
224	0xbf03d111	-0.51490885
225	0xbe54a16d	-0.20764704
226	0xbe99cc66	-0.30038756
227	0xbea6eedd	-0.32604113
228	0x3ea8bdf9	0.32957438
229	0xbe4c291d	-0.19937558
230	0xbe03f636	-0.12886891
231	0x3f0fce35	0.5617402
232	0x3e34ad3e	0.17644212
233	0x3f072dd2	0.5280429
234	0xbe303f3a	-0.17211619
235	0xbe5a4fd3	-0.21319513
236	0xbfb91cb7	-1.4461888
237	0x3dc81a2b	0.09770616
238	0x3d8c02f6	0.06836502
239	0x3e6dcef0	0.23223472
240	0x3cfd795b	0.030941656
241	0x3e03c22c	0.1286704
242	0xbed12086	-0.40845126
243	0x3e0b2311	0.13587596
244	0x3e13e681	0.14443399
245	0xbf3ddea3	-0.7416784
246	0xbc7d1147	-0.015446014
247	0x3e9f4882	0.31110007
248	0xbe914f77	-0.2838094
249	0xbe0ce2c2	-0.13758376
250	0xbe054752	-0.13015488
251	0xbc0e9ebf	-0.00870484
252	0x3dea1475	0.11429683
253	0x3e03f33e	0.12885758
254	0x3d49a378	0.04922816
255	0x3d21b2c9	0.039477143

res_conv2.0.bias f4 [32]
0	0x3d8456c7	0.06461864
1	0xbc9d21bb	-0.019181123
2	0x3df9571a	0.121748164
3	0xbe995cea	-0.299537
4	0xbdd2580c	-0.102707
5	0x3d859eb4	0.06524411
6	0x3d15f313	0.036608767
7	0x3d8c9ffe	0.068664536
8	0xbc8b647d	-0.01701569
9	0xbdbdd4eb	-0.092691265
10	0xbdb0ebd1	-0.086387284
11	0x3cab14fe	0.020884033
12	0x3bb95920	0.0056563765
13	0xbda57f78	-0.08080953
14	0xbc9d1ffe	-0.019180294
15	0x3db56149	0.08856446
16	0xbd826d7d	-0.063685395
17	0x3b1764be	0.0023100819
18	0xbd6e53a8	-0.05818525
19	0xbcaeb5da	-0.021326948
20	0xbe9ab724	-0.3021785
21	0xbb0762b3	-0.0020658195
22	0xbc85539d	-0.016275221
23	0xbd1621be	-0.036653273
24	0xbdd7ea1b	-0.10542699
25	0xbdee820b	-0.116458975
26	0x3dcda45e	0.10041116
27	0xbe07804f	-0.1323254
28	0xbde5ace9	-0.112146206
29	0xbce5009d	-0.027954394
30	0x3ddbccf1	0.10732449
31	0xbae17114	-0.0017199838

res_conv2.2.weight f4 [32, 32, 3, 3]
0	0x3e4bccce	0.19902346
1	0xbe132cb4	-0.14372522
2	0xbe56a72b	-0.20962207
3	0x3da37aea	0.07982428
4	0xbda99af7	-0.0828151
5	0xbd958a8f	-0.073018186
6	0xbd502570	-0.050816953
7	0x3ea48f76	0.32140702
8	0xbc8e9fc3	-0.017410165
9	0x3cf91d5d	0.03040951
10	0x3e09818d	0.13428326
11	0xbc607332	-0.01369934
12	0x3e07e6f9	0.13271703
13	0xbdc4a627	-0.096020035
14	0xbdb406bf	-0.08790349
15	0xbe496c74	-0.19670278
16	0x3d5f5500	0.05452442
17	0x3d8ca3a7	0.06867152
18	0x3e223a4a	0.15842548
19	0xbd8036fc	-0.062604874
20	0xbce5fea9	-0.028075533
21	0xbdcc1702	-0.09965326
22	0x3d592590	0.053014338
23	0x3d10a623	0.03531469
24	0x3cd046c2	0.025424365
25	0xbd2d738a	-0.042346515
26	0xbcfe6238	-0.031052694
27	0xbec528c8	-0.38507676
28	0xbd5cc6ba	-0.053900458
29	0xbee06ebe	-0.4383449
30	0xbdfac60c	-0.12244806
31	0xbe879ba4	-0.26485932
32	0xbe815057	-0.25256607
33	0xbe528dc4	-0.20561892
34	0xbf010bfd	-0.5040892
35	0xbe68a275	-0.22718222
36	0x3b408e4d	0.0029381693
37	0x3d9acafb	0.07558247
38	0x3b9042c8	0.004402492
39	0xbc5f80a8	-0.013641514
40	0x3d51875f	0.05115449
41	0x3d3239e0	0.043512225
42	0xbd5463bd	-0.05185293
43	0x3d344207	0.04400828
44	0x3d4a8abf	0.049448725
45	0x3d9f1df6	0.077693865
46	0x3cd9c9ae	0.026585426
47	0xbdbc5cc8	-0.09197384
48	0xbdbc3765	-0.09190253
49	0xbe333ab6	-0.17502865
50	0x3dac51fc	0.08414075
51	0x3cc355d5	0.023844639
52	0x3d36e96b	0.0446562
53	0x3b3fda67	0.0029274465
54	0x3cbaac7f	0.02278733
55	0x3c99c848	0.01877226
56	0xbdb77a1c	-0.089588374
57	0x3df0decf	0.11761247
58	0xbe11be01	-0.14232637
59	0xbda992ef	-0.082799785
60	0xbe03fa5b	-0.12888472
61	0x3dc67411	0.09690107
62	0x3e08e73f	0.13369463
63	0x3db55a9c	0.08855173
64	0xbb43c68f	-0.0029872989
65	0xbd0e66a2	-0.034765847
66	0xbc4015ea	-0.011723975
67	0xbd44423d	-0.047914732
68	0x3d687253	0.056749653
69	0x3c9da64e	0.01924434
70	0xbcbf3cfe	-0.023344513
71	0xbd1363c4	-0.035983816
72	0x3c5074c0	0.012723148
73	0x3c163faf	0.009170457
74	0xbd5cdbce	-0.05392056
75	0x3d0f4433	0.03497715
76	0xbd39d7d8	-0.04537186
77	0xbbdd7567	-0.00675838
78	0x3c3e06a6	0.011598265
79	0x3cd275c9	0.02569093
80	0xbc482d19	-0.012217783
81	0x3cfb497a	0.030674685
82	0xbbcd8613	-0.0062720864
83	0xbd02023f	-0.031740423
84	0xbd03c4f9	-0.03217027
85	0x3d6d5ca8	0.057949692
86	0xbd2d61b8	-0.04232952
87	0xbcbfd920	-0.023418963
88	0xbc8624c5	-0.016374955
89	0x3b35c845	0.0027737778
90	0xbcc98c61	-0.02460307
91	0x3b4a0795	0.0030827273
92	0xbcf43f7a	-0.029815424
93	0xbb2f18f9	-0.0026717766
94	0x3cca26a2	0.024676625
95	0xbd585a75	-0.05282064
96	0xbd0df451	-0.034656826
97	0xbc474461	-0.012162299
98	0xbc282b3d	-0.010264215
99	0x3dbf5058	0.09341496
100	0xbd74a571	-0.05972809
101	0xbd8deceb	-0.06929954
102	0x3e309364	0.17243725
103	0x3ad56e5d	0.0016283501
104	0xbe00cefd	-0.1257896
105	0xbe43c1a1	-0.19116832
106	0x3da8dfb2	0.082457915
107	0x3e2d426c	0.16919869
108	0xbe9e1135	-0.30872503
109	0xbe2373fa	-0.1596221
110	0x3e299390	0.16560197
111	0x3db92d8f	0.09041893
112	0x3dc2c008	0.09509283
113	0xbe1a1506	-0.15047082
114	0x3e376fcb	0.1791374
115	0xbccc4c1d	-0.024938637
116	0xbe4e6f63	-0.20159678
117	0xbc9c7284	-0.019097574
118	0x3c6d8e4c	0.014499258
119	0x3d14dbd2	0.03634245
120	0xbc8a78fe	-0.016903397
121	0x3d84cf77	0.06484883
122	0x3cd1d389	0.025613563
123	0xbc76ebee	-0.015070898
124	0x3d1ae679	0.037817452
125	0x3d804cfd	0.06264684
126	0x3df026e0	0.11726165
127	0xbd7ecaea	-0.062205233
128	0xbc4f7ed7	-0.012664518
129	0x3e69ba46	0.22824964
130	0x3e47d4f4	0.19514829
131	0xbe11dc11	-0.14244105
132	0xbe168ab2	-0.14701346
133	0x3e4a1166	0.197332
134	0x3ea12582	0.3147393
135	0xbde0c664	-0.1097534
136	0x3b033cb5	0.0020025198
137	0xbd5dee1b	-0.054182153
138	0x3db9a335	0.090643324
139	0x3cd39a56	0.025830429
140	0xbe41c331	-0.18922116
141	0xbec94f34	-0.3931824
142	0xbd0c64c8	-0.0342758
143	0xbbf3abd8	-0.007436257
144	0x3b946a23	0.004529254
145	0x3e3c49c2	0.18387511
146	0x3dcd83d2	0.10034908
147	0xb9ca18c4	-0.00038546894
148	0xbdb2997e	-0.087206826
149	0xbd283bfc	-0.04107283
150	0xbda627e7	-0.081130795
151	0xbd07cb2c	-0.033152744
152	0xbd03a31f	-0.032137986
153	0x3a71194a	0.0009197189
154	0xbd80d3ad	-0.06290374
155	0xbdc4dd23	-0.09612491
156	0x3d8d815d	0.0690944
157	0x3d85711c	0.065157145
158	0x3ca26961	0.01982564
159	0x3d0c5900	0.034264565
160	0x3ca59a67	0.020215226
161	0x3d41a7dc	0.047279224
162	0x3a01621e	0.000493558
163	0x3c8f0621	0.017458977
164	0xbd0cd7a6	-0.034385346
165	0xbc788c94	-0.015170235
166	0x3cc66b53	0.024221098
167	0x3d84f7f5	0.064926066
168	0xbd464f8a	-0.048415698
169	0x3ca75f2b	0.020431122
170	0x3b0b1c84	0.0021226713
171	0x3e80ae5e	0.25133032
172	0xbe4cd820	-0.2000432
173	0xbc90819f	-0.017639933
174	0x3d8e70e3	0.06955125
175	0x3e693f1c	0.2277798
176	0xbe65d4d5	-0.2244447
177	0xbe2a7e0c	-0.16649646
178	0xbe08cde6	-0.13359794
179	0x3e3bcaa4	0.1833902
180	0xbd4199a0	-0.04726565
181	0xbdc59380	-0.09647274
182	0x3decd0f0	0.11563289
183	0xbe4ccb1d	-0.19999357
184	0x3e22dae5	0.15903814
185	0x3e3e9429	0.18611206
186	0x3d8cd3e0	0.068763494
187	0x3d0972a0	0.03355658
188	0xbbc3e67f	-0.005978405
189	0x3ce8f7bb	0.02843844
190	0xbd68d382	-0.056842335
191	0xbdc1a0e2	-0.09454514
192	0x3cf0141d	0.029306466
193	0xbd1cd0b5	-0.038284976
194	0xbce0bd9e	-0.027434167
195	0xbdc0fe2d	-0.0942348
196	0xbe12a706	-0.14321527
197	0xbe1c5096	-0.15265116
198	0xbcbff891	-0.023433955
199	0xbd4d34b1	-0.05009908
200	0x3d3a37f2	0.04546351
201	0xbc4b85e4	-0.012422059
202	0xbd53df6d	-0.051726747
203	0xbd7538c8	-0.059868604
204	0xbe1f94cb	-0.15584104
205	0x3d4e8d6c	0.05042784
206	0xbd1a922f	-0.037737068
207	0x3d1a20dd	0.037628997
208	0xbd7c766e	-0.06163638
209	0xbdaec832	-0.08534278
210	0xbd0fcc57	-0.035106983
211	0xbd4b534f	-0.049639996
212	0x3cc12f74	0.023582198
213	0x3d9ae6c2	0.07563545
214	0x3bccf794	0.0062550995
215	0xbdd2d1f3	-0.10293951
216	0x3d573e8e	0.05254989
217	0x3bc05647	0.00586966
218	0x3c80fa27	0.015744282
219	0x3d007724	0.03136362
220	0xbd738e26	-0.059461735
221	0xbd217ff0	-0.03942865
222	0xbc47311d	-0.012157706
223	0xbbff9954	-0.0078002606
224	0x3d42505d	0.04743992
225	0xbd43259b	-0.047643285
226	0x3c8f2875	0.017475346
227	0xbbc2c485	-0.005943837
228	0xbd7c151a	-0.06154356
229	0xbc8587b2	-0.016300056
230	0xbd2283fa	-0.039676644
231	0xbca95082	-0.020668272
232	0x39d87c6a	0.00041291426
233	0x3cd242ae	0.025666561
234	0xbea6c8e0	-0.3257513
235	0x3ea2baf7	0.31783268
236	0xbdcd343f	-0.10019731
237	0x3cacde7a	0.021102179
238	0x3e53ff61	0.20702888
239	0x3c394d9f	0.01131001
240	0x3e463dd3	0.19359522
241	0xbee1873f	-0.44048497
242	0x3bed2dbd	0.0072381184
243	0xbcc75946	-0.024334561
244	0x3c95c9b5	0.018284658
245	0x3bdf29a9	0.006810386
246	0x3db57bec	0.08861527
247	0xbd899a65	-0.067189015
248	0x3da9e689	0.08295924
249	0xbedc2010	-0.42993212
250	0x3e83a4ce	0.25711673
251	0x3d88cec6	0.06680064
252	0x3adb9d20	0.0016755201
253	0xbd5438f8	-0.051812142
254	0xbc1796ff	-0.009252309
255	0xbd5a3da8	-0.053281456

res_conv2.2.bias f4 [32]
0	0xbd15c628	-0.03656593
1	0xbe9f946a	-0.31167918
2	0x3ca65674	0.020304896
3	0xbd997035	-0.07492105
4	0x3d4fdfbf	0.05075049
5	0xbc0b3d16	-0.008498451
6	0xbe31be2a	-0.17357698
7	0xbb32f70c	-0.0027307896
8	0x3d26ce54	0.040724114
9	0xbe0b44fa	-0.13600531
10	0xbe4874fb	-0.19575875
11	0xbf225ac1	-0.6341973
12	0xbd4aea9a	-0.04954014
13	0x3cf48524	0.029848643
14	0x3cbe854c	0.02325692
15	0xbec3acf6	-0.38217896
16	0x3b169c1d	0.0022981234
17	0xbe087369	-0.13325275
18	0xbdf4080b	-0.119155966
19	0xbdf417de	-0.11918615
20	0x3d6323f1	0.0554542
21	0xbe2a5e30	-0.16637492
22	0x3c1e1871	0.009649382
23	0x3cd5c1fa	0.026093472
24	0xbc0a35e8	-0.008435704
25	0x3d5b1975	0.053491075
26	0xbd3d207d	-0.04617356
27	0xbe076091	-0.13220431
28	0xbe428e56	-0.1899961
29	0x3c98a164	0.018631645
30	0xbdeb0c7f	-0.11476993
31	0xbe25d37e	-0.16193959

res_conv3.0.weight f4 [32, 32, 3, 3]
0	0x3e111fd1	0.14172293
1	0x3de5c8b1	0.112199195
2	0x3c3e4fa5	0.011615668
3	0x3dfa8e7e	0.122342095
4	0xbd9f9d8f	-0.07793724
5	0xbc3902c0	-0.01129216
6	0xbd94fb1b	-0.07274457
7	0xbb580a38	-0.0032965075
8	0xbdf94886	-0.12172036
9	0x3d4722cc	0.04861717
10	0x3d4f74d5	0.05064853
11	0xbe4b1037	-0.19830404
12	0x3d414209	0.047182117
13	0x3e813738	0.2523744
14	0xbe6a2575	-0.22865851
15	0x3d211208	0.039323837
16	0x3ec25d32	0.37961727
17	0x3e0be2ba	0.13660708
18	0xbe0a4f17	-0.13506733
19	0xbddb3231	-0.107029326
20	0xbecc52d9	-0.39906958
21	0x3c44d6d2	0.012014108
22	0x3e3fb4e1	0.18721344
23	0xbf07cf42	-0.53050625
24	0x3cba13f8	0.0227146
25	0xbcd75b2c	-0.026288591
26	0x3ce86881	0.028370144
27	0x3d973687	0.07383447
28	0x3a8f6055	0.0010938743
29	0x3d9bddad	0.07610641
30	0x3d6a561c	0.057211027
31	0x3e2624fa	0.16225043
32	0xbce81210	-0.028328925
33	0x3e1a1142	0.15045646
34	0x3ca47af6	0.020078164
35	0xbd1663a3	-0.036716115
36	0x3e58ff02	0.21191028
37	0xbe4e9965	-0.20175703
38	0x3d86e36e	0.065863475
39	0xbdb87bc4	-0.090079814
40	0xbe5ed9a7	-0.21762715
41	0x3dfbd35c	0.12296173
42	0xbd84a1d9	-0.064761825
43	0xbceb4ade	-0.028722223
44	0x3ea320a8	0.31860852
45	0xbe7434ce	-0.23848268
46	0xbea1938b	-0.3155788
47	0xbe362736	-0.17788395
48	0x3e82b94c	0.25531995
49	0xbd9146c3	-0.07093575
50	0x3d20c157	0.039246883
51	0xbdd8f1d3	-0.10592999
52	0x3d200d12	0.039074965
53	0x3eb7c6b6	0.35893792
54	0xbfb7a25a	-1.4346421
55	0xbeee6891	-0.46564153
56	0x3f83bb09	1.0291454
57	0xbef2cdd3	-0.47422656
58	0xbc70473e	-0.014665423
59	0x3f9c91d0	1.2231998
60	0xbf1ca320	-0.6118641
61	0xbec4ef4e	-0.38463825
62	0x3f428eae	0.7599896
63	0xbda0dd5b	-0.0785472
64	0xbdd30782	-0.103041664
65	0x3d8902dc	0.066899985
66	0xbcfb016d	-0.030640328
67	0x3d871d84	0.065974265
68	0x3ce7df7a	0.028304804
69	0x3d9f9f79	0.07794089
70	0x3d5d1685	0.053976554
71	0xbddca2cb	-0.10773238
72	0xbdbeb0ac	-0.09311041
73	0xbd971c46	-0.073784396
74	0xbe1bd761	-0.1521888
75	0x3da5dfda	0.08099337
76	0xbe8b0188	-0.27149606
77	0x3e15b1af	0.14618562
78	0x3e68343e	0.22676179
79	0xbea19350	-0.31557703
80	0x3f3c9e14	0.7367871
81	0x3d903b05	0.07042507
82	0xbd9dac6a	-0.07698901
83	0xbd22a0e4	-0.03970422
84	0x3c9ad44f	0.018900065
85	0xbe19a515	-0.1500438
86	0xbd90d305	-0.07071499
87	0x3e4f307f	0.20233344
88	0xbe08b11f	-0.13348816
89	0x3ddb3e72	0.1070527
90	0x3ed97e13	0.42479
91	0xbc2b0cdd	-0.010440079
92	0x3cd803ac	0.026368938
93	0x3ea7fac9	0.3280852
94	0xbdf770aa	-0.12082036
95	0xbecc1af0	-0.39864302
96	0x3f1e4713	0.618272
97	0x3dc7536e	0.0973271
98	0xbed72c5c	-0.4202603
99	0x3ecc49cc	0.39900053
100	0xbf35aa4c	-0.7096298
101	0xbdd40d68	-0.103541195
102	0x3e1adc25	0.15123041
103	0xbefe1b69	-0.49630287
104	0xbe7f8a0b	-0.24955003
105	0xbecf6329	-0.4050534
106	0xbea994f9	-0.3312147
107	0x3a6da71c	0.0009065734
108	0x3e406232	0.18787459
109	0x3e593ff2	0.212158
110	0x3df7ee42	0.12105991
111	0x3e23709d	0.15960927
112	0xbe0c7d77	-0.13719736
113	0x3c90e822	0.017688815
114	0xbdbfb8d7	-0.09361427
115	0x3e584a6f	0.21122144
116	0x3de56cfc	0.11202428
117	0x3d30bc01	0.043148044
118	0x3ebff7f8	0.37493873
119	0xbf84a9af	-1.0364283
120	0x3d94cc68	0.0726555
121	0xbe9d9459	-0.30777243
122	0xbdc8fe9e	-0.098141894
123	0x3fa7e110	1.3115559
124	0xbe792381	-0.2432995
125	0xbe75b2d3	-0.23993997
126	0xbd91fc7a	-0.07128234
127	0x3eb98eee	0.3624186
128	0xbe1cef80	-0.15325737
129	0xbe278a66	-0.16361389
130	0xbbb87499	-0.005629134
131	0x3d55cfd9	0.052200172
132	0x3ecdcb27	0.40194055
133	0xbdad1dc8	-0.08452946
134	0xbe4bda19	-0.19907416
135	0x3e158c37	0.14604269
136	0xbd2b43e7	-0.041812804
137	0x3e943b2e	0.289514
138	0xbdf13cd6	-0.11779182
139	0xbe0d8eb6	-0.13823971
140	0x3ddf5f4b	0.109068476
141	0x3ee12c92	0.43979317
142	0xbde1028f	-0.10986816
143	0xbcae2a98	-0.021260545
144	0x3f05b20c	0.522248
145	0xbe6673c8	-0.22505105
146	0xbf5c5fe6	-0.8608383
147	0x3e779db7	0.24181257
148	0xbe131fb2	-0.1436756
149	0xbeab7428	-0.33487058
150	0x3f99b753	1.2009071
151	0xbdda5bc1	-0.10662032
152	0xbead5d54	-0.33860266
153	0x3e8ba3c3	0.27273378
154	0x3c164594	0.009171862
155	0x3f88e165	1.0693785
156	0xbcbd501b	-0.023109486
157	0xbf203a43	-0.625889
158	0x3ed2d502	0.41178137
159	0x3e56732a	0.20942369
160	0xbf007e5d	-0.50192815
161	0x3f02fd36	0.5116762
162	0x3d96663a	0.07343717
163	0x3eb43e7c	0.35203922
164	0x3da02662	0.07819821
165	0xbe10128d	-0.14069577
166	0x3e8e80e8	0.27832723
167	0xbdea5c37	-0.1144337
168	0x3ead9c8c	0.33908498
169	0x3f732291	0.9497462
170	0xbf007e03	-0.5019228
171	0x3e848746	0.25884455
172	0xbd769555	-0.060201008
173	0xbd1a70a1	-0.037705068
174	0x3e908cef	0.28232524
175	0x3b2cf9ff	0.0026394126
176	0xbdc65628	-0.09684402
177	0x3ee07866	0.43841857
178	0x3e16eebb	0.14739506
179	0x3e0e24d8	0.13881242
180	0x3d8550c8	0.065095484
181	0x3ca46013	0.020065343
182	0xbd896a5b	-0.06709739
183	0x3d7abce2	0.06121529
184	0x3e744afb	0.23856728
185	0xb9992369	-0.00029208817
186	0xbe30e2e3	-0.1727405
187	0x3c52f5f1	0.01287602
188	0xbd51239d	-0.051059354
189	0xbe16c11d	-0.14722104
190	0xbeb56c26	-0.35434073
191	0x3e807fd7	0.25097534
192	0xbe4479ae	-0.19187042
193	0xbeab9f86	-0.33520144
194	0x3d07d7f0	0.03316492
195	0x3ed22aed	0.41048375
196	0x3dd75c7d	0.105156876
197	0xbd02f870	-0.03197521
198	0xba827251	-0.0009952282
199	0xbd9f367c	-0.07774064
200	0x3d99dcc0	0.07512808
201	0x3dee3da7	0.11632853
202	0xbcf4f899	-0.029903697
203	0x3ce9864c	0.02850642
204	0x3d0de0b2	0.034638114
205	0x3d0dcc42	0.034618624
206	0xbc9b3045	-0.018943915
207	0x3d2a0769	0.041510973
208	0xbd86cc2e	-0.06581913
209	0x3db8340c	0.08994302
210	0xbd86eb23	-0.065878175
211	0xbc7273e5	-0.014798139
212	0x3d47f6a3	0.048819195
213	0xbe84ebef	-0.25961253
214	0x3d5676bc	0.052359328
215	0x3da92670	0.082592845
216	0x3d8a0ff4	0.06741324
217	0xbd1375ec	-0.03600113
218	0x3b30850a	0.0026934766
219	0xbdef1ad9	-0.11675043
220	0x3dbf7928	0.093492806
221	0x3da44740	0.08021402
222	0xbe587f47	-0.21142302
223	0xbe44dab8	-0.1922406
224	0x3d9300d3	0.071778916
225	0x3daea130	0.08526838
226	0x3e31814b	0.17334478
227	0x3d8f122c	0.06985888
228	0x3c93f43a	0.018060792
229	0x3ee17029	0.44030884
230	0xbdd3229b	-0.10309335
231	0xbe896a43	-0.26838884
232	0x3d6eb432	0.058277316
233	0xbe6d9aca	-0.23203579
234	0x3e1e8f59	0.1548437
235	0x3e07fa3e	0.13279054
236	0xbe414a24	-0.18875939
237	0x3e43c246	0.19117078
238	0xbe075ab8	-0.132182
239	0xbdf8e48b	-0.12152966
240	0x3d1878c6	0.037224554
241	0xbdb62d3b	-0.08895346
242	0xbe3b823c	-0.18311399
243	0x3d9dca6f	0.07704627
244	0xbdfdb71f	-0.12388443
245	0xbc108bd8	-0.008822404
246	0x3c5cb118	0.013469957
247	0xbe176040	-0.1478281
248	0x3d3fbc19	0.046810243
249	0xbdf9e642	-0.12202121
250	0x3e7673e5	0.24067648
251	0x3e006040	0.12536716
252	0xbe17091e	-0.14749572
253	0xbc0a84c5	-0.008454506
254	0x3e14d302	0.14533618
255	0xbc3cbe0a	-0.011519918

res_conv3.0.bias f4 [32]
0	0x3ca84bd4	0.02054397
1	0xbc21c499	-0.009873533
2	0xbdfa87f1	-0.1223296
3	0xbe57ce52	-0.21074799
4	0xbd96fa95	-0.073720135
5	0xbec70843	-0.3887349
6	0x3cf2b522	0.029627386
7	0xbf070057	-0.52734894
8	0xbd8fe7fa	-0.07026668
9	0xbda5e299	-0.08099861
10	0xbdfc8578	-0.12330145
11	0x3c7e2a69	0.015513041
12	0x3e56a83f	0.20962618
13	0xbe6d0d11	-0.23149516
14	0xbed66e86	-0.41881198
15	0x3dc5e2e3	0.09662416
16	0x3ca18b09	0.019719617
17	0xbd95c253	-0.07312455
18	0xbcf86619	-0.030322121
19	0xbc72ec8b	-0.014826904
20	0xbea1d52b	-0.31607947
21	0x3d61fd3d	0.055173147
22	0x3d8833c0	0.066504955
23	0x3d65761c	0.05602084
24	0x3d966e11	0.07345212
25	0x3d7aef71	0.061263505
26	0x3e21133d	0.15729995
27	0x3e0c4fe9	0.13702358
28	0x3e5da3b8	0.21644485
29	0x3c32581c	0.010885265
30	0x3e073677	0.1320437
31	0x3cbdccea	0.023169
