logs/Rain100L/PReNet6/net_latest.pth (torch_old, 681694 bytes, 32 tensors)

conv0.0.weight f4 [32, 6, 3, 3]
00000000: d64a a13c fd9e bebd 95ec 803c 29e7 883d
00000010: ef58 953c d285 03be 0808 c3bd 322c dabd
00000020: fce2 54bd cf2c 153d 5b55 8abd 802a d53d
00000030: 7f60 a03d cda6 97bb 39b7 123c e161 2cbd
00000040: 837f ccbd a4f3 98bd 7ea5 173e d112 093c
00000050: 2bec 073d 2ba9 75bd 5b70 2ebd 2bf2 85bd
00000060: a4d0 c2bd a6d1 43bd 8076 86bd d12d 5f3e
00000070: 5692 383e 394b bc3d a6fa cb3d 050d 52bd
00000080: 4521 26be 89e7 1e3e 8c4d b7bc 9aa1 30be
00000090: 115c 1b3e 9167 fbbc 8334 f63d 498b 1d3d
000000a0: 55ad 94bd a7c4 dfbd dfd5 173e dd58 e7bd
000000b0: a42a 9abb 89ad 393e 3867 ea3d c665 d03d
000000c0: f23b 10be f284 dbbd 31a7 333d 1d97 a2bd
000000d0: 8122 b03d 9aea 9c3c 0e41 0fbd 4aac 773d
000000e0: 294d c8bb be3b 893d b506 c0bc 8198 c63c
000000f0: 4daf 94bd d2e0 1cbc 1cd3 3bbd 322d d2bd
00000100: 2746 d13d 3812 ea3d 8c59 8e3b b1a6 edbd
00000110: 880b 353c 059c fd3d 7797 89bc 1466 433d
00000120: d4c8 9abd 33d1 7cbc 8889 83bc 0a87 143e
00000130: ab47 1fbb ca30 22be d0b3 ad3d e050 c03d
00000140: f033 e0bd 58df 533d a1b9 9b3d db43 113d
00000150: 4ff8 75be 0060 ae3d 72d9 043e 4a60 3abe
00000160: 4153 4d3e e1e8 dbbd fb01 1abc 865e 93bd
00000170: ebf7 f2bd 8f65 32bd 4d34 1c3d 81e1 a63c
00000180: 8330 aebd e7c2 283e ab17 30bd e8ca 1d3e
00000190: 2040 32bd 4a0f 0cbe 641f 073e 0912 4b3e
000001a0: 2e5e 15be df7f febb d733 5a3e d03f 54be
000001b0: 808d aa3d 09f8 4b3c b91c 18be de6c ad3d
000001c0: cd45 513d 8af9 3b3c b060 19bd c72a 5d3d
000001d0: d8a9 153c cf46 bf3d b272 df3b 1661 38bd
000001e0: 4885 9ebc 1e9c 8a3d 921b 12be 70b4 a6bc
000001f0: e0ba 243d 2732 913c 304b 073d ac59 e5bd
00000200: c0da 283d af6a 7abd 56b4 083e 946c f8bb
00000210: b080 633d f9ec e7bd 43a9 e5bb bb77 293e
00000220: c525 c1bd c4e8 12bd 30ee 383e 193d 36be
00000230: 396b 58be 13da 813d ba3c 3ebd da5f a73d
00000240: 1f39 603d 0dfc 583d 1c49 83bd ce7e 463e
00000250: ad8f c6bd bab1 34be 5b04 56bc c75b babd
00000260: 42c1 c03d 7230 063e fe84 d7bc dc77 17be
00000270: 1448 383e 6cce 123d bd4c 13bd 93ae aebd
00000280: 517b b83d 4ed2 91bd 2aad 163a 9fff d6bd
00000290: 5698 973d 7a63 233d 3616 7e3d 21dc 353d
000002a0: fedf c63c faeb 6dbd 76a4 31bd e5cc d9bd
000002b0: 0791 173c 55d6 febd ff25 d2bd 6598 edbd
000002c0: 103a a33d 6992 b4bd 919f 0abe a55a 053e
000002d0: cd0b 2bbe 2de4 c3bd ce59 69bc 4226 ccbd
000002e0: bf77 e8ba 4eb4 df3d 0b65 f9bd 22d0 7d3d
000002f0: 3370 0f3e 4b26 02be 9d16 533d 22d8 0e3e
00000300: f828 fa3a 8e5e 85bd a436 b03c 1c22 52bd
00000310: c60a 3e3d 294d 0b3e 30b8 10bd 484f ae3c
00000320: f7b8 dabc 26c3 b0bd 4a77 d53d 15ca 393e
00000330: 0041 ab3d c1cb 243e b701 cc3d 42e4 d83d
00000340: edda 25bc 4132 bcbc 7915 0c3e 3325 01be
00000350: 83fe 023d 487c 263d 0a36 06bc bc1e bc3d
00000360: f249 aaba 69f7 eb3d d27f ffbc fd58 b4bd
00000370: 17eb 96bd 42f2 b3bd b96b 29bd 64aa 243d
00000380: f94f bc3d 7ef1 9a3d 524d 2c3e 39ad 113e
00000390: dc69 24be 9067 07be afad 86bd d35a c33d
000003a0: f126 dd3c ee49 dabd 661b 273c b0d2 a6bc
000003b0: f387 0b3e 2b6a 2bbd 1a30 41bb 8a52 45bd
000003c0: 816e ec3d 82c0 29be 139e db3c 9f46 1bbc
000003d0: 4968 443e b675 5d3e 1b82 fbbd 02cd 1f3d
000003e0: 571f 43bd a0ed c83c 53ab 65be 5ae8 30bc
000003f0: bc4c f1bd 63bd a53e 73f6 a63d 4553 a4bd
0.019689005 -0.09307668 0.015737811 0.06684715 0.018230883 -0.12844017 -0.09523016 -0.10652961
-0.05197428 0.036419686 -0.067545615 0.10408497 0.07830905 -0.0046280385 0.0089548165 -0.042085532
-0.099852584 -0.07468346 0.14809224 0.008366303 0.03318421 -0.059975784 -0.04258762 -0.065403305
-0.09512451 -0.04780736 -0.06565571 0.21794821 0.18024573 0.09194035 0.09959917 -0.051281948
-0.16223629 0.15518011 -0.022375844 -0.17249146 0.1517184 -0.030689033 0.120217346 0.03846291
-0.07259623 -0.1092618 0.14827679 -0.11296246 -0.00470479 0.18132605 0.11445469 0.10175662
-0.14085367 -0.10718717 0.043860618 -0.07938979 0.08600331 0.019154835 -0.03497415 0.060467042
-0.006112714 0.06700848 -0.023440698 0.024242641 -0.072599985 -0.009575086 -0.045855626 -0.102625266
0.102184586 0.11429256 0.004344171 -0.116040595 0.011050113 0.12383274 -0.016795857 0.04770477
-0.07557836 -0.015430736 -0.016056791 0.14504638 -0.0024304192 -0.15838924 0.08481562 0.09390426
-0.10947406 0.05172667 0.07603765 0.035465103 -0.24020503 0.08514404 0.12973574 -0.18200794
0.2005129 -0.107377775 -0.009399886 -0.07195763 -0.11863693 -0.043553885 0.038135815 0.0203712
-0.085053466 0.164806 -0.04299132 0.15409434 -0.043518186 -0.13677707 0.13195568 0.19831099
-0.14586708 -0.0077667083 0.21308838 -0.20727468 0.0832777 0.012449273 -0.14854707 0.084680304
0.051091958 0.011473069 -0.037445724 0.053995874 0.009134732 0.093396775 0.0068190927 -0.045014463
-0.019350663 0.06768058 -0.1426833 -0.020349711 0.04021728 0.01772411 0.03303069 -0.11198744
0.04122424 -0.061136898 0.13350043 -0.007581303 0.055542648 -0.11324496 -0.007008703 0.1654958
-0.09431032 -0.035866514 0.18059611 -0.17796744 -0.21134652 0.063404225 -0.046444632 0.08172579
0.054741975 0.05297475 -0.06410429 0.1938431 -0.09695373 -0.17645922 -0.013062562 -0.090995364
0.09411861 0.13104418 -0.026308533 -0.14791816 0.17996246 0.03584139 -0.035961855 -0.08529391
0.09007896 -0.071201906 0.00057478494 -0.104979746 0.07402103 0.03988979 0.0620329 0.044399384
0.02427673 -0.058086373 -0.043369733 -0.10634784 0.009250886 -0.12443224 -0.102611534 -0.116013326
0.07970059 -0.08816988 -0.13537432 0.1302286 -0.1670372 -0.095650055 -0.0142426025 -0.099682346
-0.0017735882 0.10923062 -0.121774755 0.06196607 0.14007644 -0.1270992 0.051535238 0.13949636
0.0019085696 -0.065121755 0.02151043 -0.05130206 0.046396993 0.13603653 -0.035331905 0.021278039
-0.026699526 -0.086309716 0.10423143 0.18143494 0.08362007 0.16093351 0.099612646 0.10590412
-0.010122997 -0.022973182 0.13680066 -0.12611847 0.031981003 0.040645868 -0.008191595 0.091855496
-0.0012992008 0.11521799 -0.03118888 -0.08806036 -0.073690586 -0.087864414 -0.041362498 0.04020156
0.09194941 0.07565592 0.1682637 0.14226235 -0.16056007 -0.132231 -0.06576096 0.09538808
0.026996108 -0.10658632 0.010199403 -0.020364136 0.1362608 -0.041849297 -0.0029478134 -0.04817442
0.115445144 -0.16577342 0.026808774 -0.009477287 0.19180407 0.21626934 -0.12280675 0.03901387
-0.04763731 0.02452737 -0.22428636 -0.010797584 -0.11782214 0.32371053 0.08152475 -0.08023695

conv0.0.bias f4 [32]
00000000: c6b3 bf3c 455b 343d 9e88 2e3c 632b 0ebe
00000010: 3ff4 463c 3fcf fa3b 7cef fa3c 3058 bf3c
00000020: a952 a03c 76ff ac3c 0d0a 423d 0dc9 283e
00000030: d79e e63d 2429 4c3d bb82 393d d7c1 8b3d
00000040: e4a4 a43c 1463 db3c 1abf 0d3d 844c adbd
00000050: 0c11 443d b113 b0be e1ff 8bbe 49e0 0a3d
00000060: 8526 5c3d 0199 7a3d aa8e 8c3d ddb4 ec3b
00000070: a6d3 1b3e 1ef2 043e 462f b53c a202 fdbc
0.023401152 0.044032354 0.010652689 -0.13883738 0.012143194 0.0076541 0.030631773 0.02335748
0.019570665 0.021117907 0.047372866 0.16482945 0.11260765 0.049843922 0.04529069 0.068240814
0.020098157 0.026780643 0.034606077 -0.0846186 0.04786782 -0.34390023 -0.27343658 0.0339053
0.053747673 0.061181072 0.068631485 0.007223709 0.15217456 0.12982985 0.022117268 -0.030885044

res_conv1.0.weight f4 [32, 32, 3, 3]
00000000: e27a 8c3d 1ad9 393e 2064 ba3d 8296 b43d
00000010: a4e6 883d 3b85 a83c e765 debd dc8d 6e3d
00000020: 386d 44bd 44f0 d2bb 1b5e ee3c 0a1a fd3c
00000030: 7b5c a1bd 3fbb f73c aeb1 acbd 19ee 47bd
00000040: 6b3c 753e 562f 50bc 4565 a5bd c102 7f3a
00000050: be77 b43d 620c 90bd 503d fbbd d8d8 d43d
00000060: 9812 0fbc 6913 503c 7bd7 9c3d 204d 52bd
00000070: 43b7 213c b73f 223d f001 183d 21d0 bfbc
00000080: 087b 913d 4b3a 153c a86b 613b 3113 a43d
00000090: 664b 683d 0237 a23d 4eac b03d d976 3f3d
000000a0: 2d90 0cbc b1c5 493d 9f1d d13c 1416 fc3d
000000b0: 7f41 b23c 60ca 213d db90 53be ab7c 44be
000000c0: ab12 b33d 27bd e93b e8b5 1bbe 54b5 023e
000000d0: 740f 653d 77f7 dbbc c14f b3bc 5e8d 07bd
000000e0: c5ad b0bd bd00 f9bc 3d32 f23c 5544 a1bd
000000f0: 7096 58bd 19ef e93c 82d6 963c b0e3 c0bd
00000100: 8731 1cbc 3a1f 3dbd f045 f1bd 864a 893d
00000110: 7dc7 973d 0d8d 773d cc15 2f3d 1933 2c3e
00000120: e7b5 e03d a736 9fbc 7a94 a9ba 43f1 c23d
00000130: 8edf 9b3d 415f 93bc 77e3 1f3b ab25 09bd
00000140: 11b0 03be 01a8 2cbc 6a25 083c b3c8 743d
00000150: 4381 1d3d 2a09 e7bb 540c 1dbe 623e 103e
00000160: d222 033e 3efd 4ebd 1778 963d ca77 1dbd
00000170: fab0 37bc ed42 4cbc 0b41 183d ed17 ac3d
00000180: e31b acbc 0dae 9d3d deec 513e 9927 d0bd
00000190: 68ae 2bbd 888c b23d 2d38 e13c 0cec f33c
000001a0: 30f1 4a3e 9642 d63d aebf acbc bb44 243e
000001b0: d324 993d e23c a0bd 539e 55bd c953 a03d
000001c0: 6f33 623c c1cb 163c ef94 473e a74e fc3d
000001d0: 3503 98bc 2c67 f83c 1f9a ed3d 7e33 383e
000001e0: d4ae d0bc 0aea 853d 0014 223e 2f78 8cbc
000001f0: b414 99bd 92d8 503d 1ca0 0a3e bddd 0cbc
00000200: 637e c4bc ad87 1c3e 20b2 a8ba 917e 7e3b
00000210: a604 e93c 13f1 7cbc e2f1 04be 8fed b9bc
00000220: 999b a3bd 29cd 63bd 746b d73d 4db5 d5bc
00000230: 26de 37bd 309a e23d 7a4b d33d a3b5 bbbd
00000240: db81 a53c 74f8 cebc 89b8 14be e2fe 113c
00000250: cfce 743d b6dc 77bd 5b0d 84bd 578b 003b
00000260: c410 4e3d d19c 9a3d 49cf bd3d 9996 f63c
00000270: 383d 9e3d 6681 b23d a240 8e3c e8ca bc3d
00000280: b878 853d 9042 47bc 55c4 b0bd ea9e b1bd
00000290: e855 06be 7b80 edbd c049 cd3d d03f b3bd
000002a0: ff04 a03c a78c 533d 2170 2dbd e453 57bd
000002b0: 545f 85b9 f7a8 19bd 2120 183d 5a9c 263d
000002c0: 5d9b bb3c b154 4e3d ae4f 8e3d 935c 1a3d
000002d0: 2cb2 bebd be9d 17bc a365 013d 63f8 d63b
000002e0: 5287 3bbd 27f6 06bd e364 883d 17a6 5cbd
000002f0: d788 82bb e19f ccbc 8124 493d 2d69 893d
00000300: fa2a 093c b194 053d 81f5 713d ef56 893d
00000310: 3559 d73d 48e3 e03b be72 95bc 7ff6 82bd
00000320: bf2e 133e d8e4 4a3d f891 3b3d 5b14 853d
00000330: 3576 0e3e 95fe 4d3d 8533 363e f4e2 783d
00000340: 70b3 debd efa1 a2bd 368c 793d 328a ee3d
00000350: 9386 98bd 07b2 d53d c3aa 333d d355 1b3e
00000360: 05f5 dc3d fa2b 20bc b144 5cb9 a1cd cf3d
00000370: 1fcf c83c d1ce c63d e119 283e 62b1 2f3e
00000380: adce 463d ad15 dbbd fbdd e3bc 613d 293e
00000390: 03f1 26bc dc48 b3bd 630e 2b3d ef88 b7bd
000003a0: 3b11 adbd dac3 8f3d d1e5 3c3e 8402 66bd
000003b0: b205 46bd e2a6 8c3d 2479 043d 710c bbbc
000003c0: 6fe8 123d 03e1 c23c 949b 81bd d24a f7bd
000003d0: 3041 c63c fcb5 113e a539 b13d 2907 4abd
000003e0: fdcf 9ebc 7193 6abe b319 bcbc e95c 33bd
000003f0: 47ec 5e3d 8ca7 d43d 32fc 643d c825 24bd
0.068593755 0.18149224 0.091011286 0.088177696 0.06684616 0.020571342 -0.1085928 0.058240756
-0.04795572 -0.0064373333 0.029097607 0.030896205 -0.078789674 0.030240653 -0.08432327 -0.048811052
0.23948829 -0.012706598 -0.08075956 0.00097278884 0.088119015 -0.07033612 -0.12267554 0.10392922
-0.00873246 0.01269994 0.07658287 -0.051343083 0.009870353 0.039611544 0.037111223 -0.023414673
0.071035445 0.009108136 0.0034396444 0.08011473 0.05671253 0.07920648 0.086266145 0.0467442
-0.008579296 0.0492608 0.02552682 0.123088986 0.021759747 0.03949964 -0.20660727 -0.19188182
0.08743795 0.0071331444 -0.1520611 0.12764484 0.05592294 -0.026851399 -0.021888616 -0.033093803
-0.08626894 -0.03039586 0.029564971 -0.078743614 -0.052877843 0.028556393 0.018412832 -0.09418428
-0.009533293 -0.046172358 -0.11780918 0.06703667 0.07411096 0.06043725 0.042745396 0.16816367
0.10972195 -0.01943524 -0.0012937926 0.09518673 0.07610999 -0.017989757 0.0024397054 -0.03348319
-0.12860133 -0.010538102 0.008309701 0.059761714 0.03845335 -0.007050653 -0.15336734 0.14086297
0.12806252 -0.05053448 0.07347124 -0.038444318 -0.011211628 -0.012467128 0.037171405 0.08403001
-0.021009391 0.07699213 0.20500514 -0.10163803 -0.041914374 0.087182105 0.027492607 0.029775642
0.19818568 0.10461919 -0.021087494 0.16041844 0.07477727 -0.078241125 -0.052152943 0.07828481
0.013806208 0.009203852 0.19490407 0.12319689 -0.018556217 0.030322634 0.11601662 0.17988393
-0.02547399 0.0653878 0.15827942 -0.017147152 -0.07474652 0.050987788 0.1353764 -0.008597788
-0.023986047 0.15286131 -0.0012870468 0.0038832764 0.0284446 -0.015438336 -0.12982896 -0.022696285
-0.07988662 -0.055615578 0.10518542 -0.026087428 -0.04488959 0.11064565 0.103171304 -0.09165504
0.020203521 -0.025264956 -0.1452352 0.008910866 0.05976754 -0.06051322 -0.0644786 0.0019614303
0.050308958 0.075494416 0.09268052 0.030101107 0.0772652 0.08716087 0.017364804 0.09218389
0.06517166 -0.012161866 -0.08631197 -0.086728886 -0.13118708 -0.11596771 0.10023832 -0.08752406
0.019533632 0.05164781 -0.042343263 -0.05257024 -0.00025438762 -0.037514653 0.037140016 0.040676452
0.022901231 0.050373737 0.069487914 0.037685942 -0.09311327 -0.009253917 0.03159107 0.0065603717
-0.04578335 -0.032949593 0.066598676 -0.053869333 -0.0039835977 -0.02497858 0.04910708 0.06709514
0.008372063 0.032612506 0.05907202 0.067060344 0.10515062 0.0068630315 -0.01824319 -0.06394672
0.14373301 0.04953465 0.045793504 0.06498023 0.1391228 0.050291616 0.1779309 0.060763314
-0.10874069 -0.07941043 0.06092473 0.116474524 -0.07447543 0.10434347 0.043864023 0.15169458
0.10788921 -0.00977611 -0.00021006425 0.101466425 0.024512826 0.09707416 0.16416122 0.1715751
0.048536945 -0.10697494 -0.02781581 0.1652732 -0.010189298 -0.08754131 0.041761767 -0.08961665
-0.08450552 0.070197776 0.18447043 -0.056154743 -0.048345275 0.06867768 0.03234209 -0.022833081
0.035866197 0.023788935 -0.06328502 -0.12074818 0.024201006 0.14229578 0.08653573 -0.049323235
-0.019386286 -0.22907807 -0.022961473 -0.043789778 0.05442455 0.103835195 0.055904575 -0.040075094

res_conv1.0.bias f4 [32]
00000000: 90a6 1b3d 6361 993c 0029 79bd fb2c 1d3b
00000010: 2bad d63c f00a 953c e460 ab3c f3ac a8bd
00000020: 64d7 a7b8 a8d2 87bc 7f69 203c 9000 7c3c
00000030: aef0 ffbb 2ce6 07bc e813 0abd 415e 6c3b
00000040: e765 4e3d a872 69bc 7833 76bd f9f5 423d
00000050: 4316 8cbc e69a 233b e3cd 9dbd b071 153c
00000060: a6c0 62bb 0bba 4e3c b623 07bd 24cb fabc
00000070: 2308 16bd effa 8abd 7338 59bd 25c0 773c
0.038000643 0.018723195 -0.060830116 0.002398311 0.02620562 0.018193692 0.020920224 -0.082361124
-8.0033e-05 -0.01657994 0.009790777 0.0153809935 -0.0078106737 -0.008294623 -0.03371039 0.0036066922
0.05039015 -0.014248528 -0.06010768 0.04759786 -0.017100459 0.0024964153 -0.077052854 0.0091213435
-0.003459969 0.012617598 -0.03299304 -0.030614443 -0.036628854 -0.06786143 -0.05303235 0.015121494

res_conv1.2.weight f4 [32, 32, 3, 3]
00000000: 81df 18be 9e05 fcbb 98a1 883d c823 0ebe
00000010: 1892 a93d 9c0b 9dbd 97cf 98bd 4689 1cbd
00000020: 31d5 8f3d b888 4ebe e055 93bd 4ea9 213d
00000030: 5cb9 af3c fcad 54bd ef0e 603c e82e 463d
00000040: 3898 ae3d 687f 863c 9ab0 763b f440 c1bd
00000050: 72d8 d9ba 807c 40bd 54e5 553d 8ab7 cfbd
00000060: 9c0b 203e 4fa4 31bd a3dc f4bd 30d1 a53c
00000070: d693 7a3d a08e 073e f2d5 f5bb c1b9 59bd
00000080: 48da ad3d 69cb f5bc a8b5 8abc 9f2a a8bd
00000090: a67d 5abe b2ec 68bc 5869 6bbd 7d45 49be
000000a0: 3518 b8be 23de ba3d 7db7 1dbe 574a b73d
000000b0: 1534 e4bc 948b 183b df73 88bd aec2 14bd
000000c0: b062 083d ce61 b0bc f3c9 673d 3763 9b3d
000000d0: 57cf b63d d6d2 683d f400 e9bd 0061 92bd
000000e0: 45ec 67bc cb79 02bd 78ae 9ebd c5dc 893d
000000f0: 3e1f fabd d191 823d 3796 b5bd 33cc 2cbe
00000100: 4f5a e0bc 7d43 c9bc 54b4 91bd ea59 2a3d
00000110: a020 f83d 7162 3abc 3711 a13d 8104 fc3c
00000120: e949 663d 107e 22bd 6d8d 683e 6d7e 353c
00000130: 787d 6dbd f8cf 083d b232 523d 12e4 243d
00000140: 5141 753d 3ba3 c0bd 62e0 c33d 92dd ca3d
00000150: d9ab eabd 08a2 24be ffdd 253d 5829 7c3d
00000160: c3f9 64be 70d2 633d 1670 943d 860e 6b3d
00000170: 0cac 233e 19ea 3abd 2800 603e a6e8 c73d
00000180: 9ef1 cb3b 9ee9 393d 1b3e 153d 8730 8c3d
00000190: 71cb 8fbd f711 04be 8e60 803d ab13 a9bc
000001a0: 0cfa 41bd df2e 9a3d b68a 673d 6847 acbd
000001b0: 94bf 7abd e3d0 8d3b 222b dd3a aa01 e1bd
000001c0: 66b6 26bc a53e 56bd df7d d3bd b175 b43d
000001d0: 1065 a53d 4d18 143e 7807 b63d 362e 5c3d
000001e0: f978 0dbd 1d15 7c3a 4e5d c53d e0f9 87bd
000001f0: 0f63 96bc 7c11 4f3c e81c a3bd 4d7d 243e
00000200: 695b 09be 011b 9cbc fda3 1e3e 7c7b 0fbe
00000210: 035e f03b 4272 bbbd 1d1d 8c3d 8114 8dbd
00000220: d410 36be 7eb4 2cbd 3e8a 74bd 00ac 8dbe
00000230: b713 5d3c eec5 69bd e26b 4cbe fbd2 c4bd
00000240: a1d5 8abd 3a6a 4ebe 2599 393d 8944 5cbd
00000250: b811 8dbc 8dda 953e da9f b3bd 1a42 25be
00000260: 2a18 053e 3b5e d53c 053a 0b3d 20f0 0c3e
00000270: b0bc e13c b5ad 7c3d 9f76 80bc 6986 afbc
00000280: 3afe f53c 062e 6abd 01ad 08be 97d6 89be
00000290: d241 ad3c bf18 93bd 1662 15be e471 ccba
000002a0: 02ca d9bd 06a8 b43d f22d cd3d 1b3d 28bc
000002b0: 062a 82bd fcc7 dcbd bb47 dd3d 31f6 3bbd
000002c0: 7c5f a33b 70a6 833d dce2 56bd cc08 e83d
000002d0: be73 d9bc 88c4 933d 65bc e93d fbef 313d
000002e0: dd36 0dbe fe3a 8c3d 814e d0bd 655e 64bd
000002f0: c0cd b2bd 6c0b 75be 8d0e 77bd 8fb0 00be
00000300: db22 08be 7efe 27bd 90a9 0a3d 41e0 c8bd
00000310: 4eb4 a9bd d273 193e a425 f4bd 3fff 4d3d
00000320: e551 993d ac1e d6bc 61fa e9bd ab9c 083e
00000330: 569d 52bd 989a f53c 43b4 80be bfd9 2fbe
00000340: 0961 ac3d 67d4 5fbe 6edb 4bbd b473 fa3d
00000350: 1a02 95be 1221 14be a07d 8fbe 5eae f6bd
00000360: 1110 09be f2ad 25be b789 b73d 078b 35be
00000370: 1787 c5bc a81b c63d 6d9d 5abe 2671 39bd
00000380: 853b a73a ea52 873c d335 08bd 71b1 443b
00000390: 4eb4 ff3d 2a41 17be ab34 22be 9be4 0dbd
000003a0: 9824 93bc 74f7 44be 577b 19be 8076 0f3e
000003b0: 6e18 c23c 0c55 a3be 47fa 9c3d e780 a8bc
000003c0: 44bc 99be f607 083e abd4 423d f8e9 1a3e
000003d0: 8968 10be 3d73 b1bc 9fdd 10be 4a64 09be
000003e0: 6174 583c e546 44bd 622c 48be be88 58be
000003f0: 702c bebd 1d5d a73d 5ecc 36bd 00fd 3bbe
-0.1492901 -0.0076910993 0.066714466 -0.13880837 0.08279818 -0.0766823 -0.074614696 -0.03821685
0.07023085 -0.20169342 -0.07194114 0.039468102 0.02145069 -0.051923737 0.013675435 0.048384577
0.08525127 0.016418174 0.0037641884 -0.09436217 -0.0016620292 -0.046993732 0.052220657 -0.10142429
0.15629429 -0.043369588 -0.119561456 0.02024135 0.061176144 0.13238001 -0.007502311 -0.053155664
0.084888995 -0.03000422 -0.016932324 -0.08211254 -0.21336994 -0.014216589 -0.05747351 -0.19655414
-0.35955968 0.091244005 -0.15402026 0.08949726 -0.027856866 0.0023276554 -0.06662726 -0.036318474
0.03329724 -0.021531012 0.05658908 0.07587283 0.08926266 0.056841694 -0.11377135 -0.071474075
-0.014155452 -0.031854432 -0.07748121 0.067315616 -0.1221299 0.063754685 -0.08866542 -0.16874771
-0.027386812 -0.024568314 -0.07114473 0.041589655 0.12115598 -0.011376009 0.078646116 0.030763866
0.05622283 -0.039671004 0.227102 0.011077506 -0.057980984 0.03340146 0.051317878 0.040256567
0.059876744 -0.09406134 0.09564282 0.099055424 -0.114585586 -0.16077435 0.040494915 0.061562866
-0.22360902 0.05562061 0.07247941 0.057386898 0.159836 -0.04563341 0.2187506 0.09761171
0.0062238714 0.04538881 0.03643618 0.06845193 -0.07021225 -0.12897478 0.06268416 -0.020639261
-0.047357604 0.07528471 0.05652877 -0.08412057 -0.06121786 0.0043278798 0.0016873816 -0.109866455
-0.010175323 -0.052305836 -0.103267424 0.0881151 0.08075917 0.14462395 0.08888143 0.053755008
-0.034539197 0.0009616183 0.09636937 -0.06639457 -0.018357782 0.012638446 -0.07964498 0.16063423
-0.13413776 -0.019055845 0.15492244 -0.1401195 0.007335426 -0.09152652 0.068414904 -0.068886764
-0.17779857 -0.04216432 -0.05970215 -0.27670288 0.01349347 -0.057073526 -0.19963029 -0.09610554
-0.06779028 -0.2015771 0.045312066 -0.053776298 -0.017220363 0.29268304 -0.08770724 -0.16138497
0.12997499 0.02604591 0.03399088 0.13763475 0.027555794 0.061689097 -0.015681563 -0.021426396
0.030028451 -0.057172798 -0.13347246 -0.26921532 0.02114955 -0.07182454 -0.14588198 -0.0015597907
-0.10634233 0.088211104 0.10018529 -0.010268475 -0.063556716 -0.107803315 0.10804697 -0.045889083
0.004985748 0.0642823 -0.052462444 0.11329803 -0.026544448 0.0721522 0.114128865 0.043441754
-0.1379046 0.06847189 -0.101712234 -0.055754084 -0.0873065 -0.23930138 -0.06031661 -0.12567352
-0.13294546 -0.041014187 0.033853114 -0.09808398 -0.082863435 0.14985588 -0.11921242 0.05029225
0.07486323 -0.026137672 -0.11424709 0.13341014 -0.05141958 0.029980943 -0.2513753 -0.17172907
0.084169455 -0.21858369 -0.04976981 0.122291 -0.29103166 -0.1446574 -0.28025532 -0.12044977
-0.13385035 -0.16179636 0.08961814 -0.17728816 -0.024112267 0.09673244 -0.21349116 -0.045273922
0.0012758827 0.016519029 -0.033254456 0.003001299 0.12485562 -0.14770952 -0.15840404 -0.034641843
-0.017961785 -0.19235021 -0.14988457 0.14010048 0.02369329 -0.31900823 0.07664924 -0.020569278
-0.30026448 0.13284287 0.047566097 0.15128314 -0.14102377 -0.021661395 -0.14147042 -0.13417163
0.013211341 -0.047919173 -0.1954818 -0.21145913 -0.092858195 0.08172057 -0.044628493 -0.1835823

res_conv1.2.bias f4 [32]
00000000: 8c51 4cbc 9881 2bbd ead0 233d d597 d13c
00000010: c462 a6bb 7c6b c43a 6ceb 243d fd1e a2bd
00000020: a20e 4dbc 5db7 9bbd 9f9a ae3c a778 77bd
00000030: e858 0b3d 75aa 7abc 1a00 363b 8c77 36bd
00000040: 1bae 8f3c 3caf 033d 1eaf 0cbd 71b7 e63c
00000050: 7c93 283b 74b9 963c cbf2 cf3b 4f44 2f3c
00000060: 9548 dbbc 82ea 96bd 9fd3 5abc c9a8 443c
00000070: 0082 88bd a2ae 93bd adc3 debc 6c78 023d
-0.012470614 -0.041871637 0.039994158 0.025585094 -0.0050776917 0.0014985646 0.04026358 -0.07916067
-0.012515696 -0.07603333 0.021313963 -0.060417797 0.034020334 -0.015299429 0.0027771057 -0.044547603
0.017539075 0.03214954 -0.034346692 0.028163644 0.0025722673 0.018398978 0.006346082 0.010697438
-0.026768008 -0.073689476 -0.013356118 0.012003132 -0.066654205 -0.07211043 -0.027192915 0.031853124

res_conv2.0.weight f4 [32, 32, 3, 3]
00000000: f611 31bd 45a4 43bd 2767 18be d7f5 493c
00000010: a5b6 133d 9c9f de3c 7c85 003e 3796 7abd
00000020: b73a f6bd 5d61 e93c 0347 5dbd d70d cb3d
00000030: e339 313d 924d 6d3d 2b8c 89be 8a3a e4bd
00000040: 6e7d 543e 1cea b3bd 333c 973d d1b8 853c
00000050: f911 333d f135 7b3d 7b4b 723c 9f35 ab3d
00000060: dc62 4f3d 83cd 1b3c bb12 d73b 66c5 f4bc
00000070: 2f62 493c 9610 1c3d 173e 8f3d d8f1 f73d
00000080: e184 af3d f69e 3d3e 9922 b93c 08eb be3d
00000090: 7bea 29be 2b91 cfbd fb87 95be 3150 d6bd
000000a0: 46f3 43bd 552b 02be 7709 94bd df8b fdbd
000000b0: 7600 65be 0b24 4abe e3d1 f8bd 0455 fabd
000000c0: bbab 81bc 1375 91bc 3908 17be ea46 d1bd
000000d0: 2422 cfbd 8c1a 03be cd46 21ba ac66 a6bd
000000e0: d8b4 223b 4f3e 3c3d 0b14 ecbc 3062 e13b
000000f0: 7d06 06be ea51 2e3b cb3f 0ebd e8b2 d73c
00000100: 7b1b 20bd fa1b 8b3d 818a 9dbb 9a6b 34bd
00000110: 978e cb3d e6ad 68bd f51c 50bd 9c68 91bb
00000120: 832a 6ebe 5372 ad3c 6959 09be 1815 06be
00000130: 8461 49be ac85 0cbb e9d3 eabd adc4 92bd
00000140: eccb 1fbe 3b00 16bd dec4 35be 8210 27be
00000150: 734b b33c 34e1 95bb 46ae bc3b 8623 bebd
00000160: 3226 123e 74e5 ccbc 39c3 a13c f963 043d
00000170: 97dc b23d 75ec 333d 0681 2c3d 7dab cc3c
00000180: 441e 993d 7e1c a8bc 5aea 65bd 38ae 7abe
00000190: 5373 413d 01d9 66bc 8d12 353e 5935 363d
000001a0: 2b49 bfbc 1949 9d3c e30c b23c e917 65be
000001b0: bc6b 4e3d d0c5 7c3c c9f0 c83c 8bf3 5b3d
000001c0: edfa 023e af8a e6bd e897 463d 8110 2e3e
000001d0: 3e47 d43b 20fe 8bbd fa5b 48be 86d1 5cbd
000001e0: 292b ddbd a2c8 fbbd a38c abbd eea8 05bc
000001f0: ddf7 3dbe ad58 48be a38d 46be 3c14 0f3b
00000200: 7a86 9bbe be62 29be 4c21 77bd 9edd 82be
00000210: d371 b83b 76fd 38bd 7e5c 0abe 38b7 02be
00000220: 71b9 9c3c 4e08 6a3d 2a56 acbd a726 e7bd
00000230: b895 193b 64ac c3bd e006 053d 9567 293e
00000240: 21a3 8c3d 8f7b cc3d 867d 8dbe 7b1a 67bd
00000250: 8f73 ad3d faff d03c d818 08bc 54fa 43be
00000260: f373 14be b168 6ebc a00f 2dbc e402 b0be
00000270: aa3a b73d 4ee5 203d 885a 85be dc40 f2bb
00000280: 6054 18bd 3935 9bbe 20ec bbbc 53eb 3e3d
00000290: 2ed7 e83c 082f 78bd 4216 f93d a354 7ebd
000002a0: 480d a3bd 3864 9a3d 007f b1bd c571 673e
000002b0: 3773 313e b25f 2a3e 2f8d 503d a22f c33d
000002c0: 856d 4b3d eefa 023e fbcb 2a3e 5991 333e
000002d0: 5e9b f73d 4572 063e d8c7 efbd b334 783e
000002e0: bc27 5b3d e2f1 18bb da7a 983d 0922 84bd
000002f0: 6577 a1bd 6a7a ab3d 632b 323d 4312 e93c
00000300: 73fd 053d 9508 f43c 49e4 c3bc 8556 23ba
00000310: 452c 13bd 587d 81bd dd97 4d3d 463c 0c3d
00000320: 86e1 48bd aab1 09be aec7 4a3d 15d1 133c
00000330: ccb9 e9bd 7cb7 8dba 5497 dcbc 8300 22bc
00000340: 8514 ab3d eb81 0e3e 8299 fc3d c82d d73c
00000350: d45f 0d3d d977 9fbc 257b 1d3c 553e 983c
00000360: 773e 093c d480 2abe 4031 6ebd ad2c e33d
00000370: 2ba8 08be 3fd6 03be 4f1c babc dee5 3bbe
00000380: 1fbe f0bd eb60 223d 3a7a 263d accd 2a3d
00000390: 8038 673d 3485 b3bc 5c71 2a3d 30b5 853c
000003a0: c35e 28bd fa60 38bc 95bc a23d 86ea 8f3c
000003b0: 0fc6 013e a3b1 edbc e10e c8bb 3c2e 453e
000003c0: 2ad2 78bd fbf1 8f3d 981d 1a3e 83f9 2d3e
000003d0: e541 91bd c6e9 9dbb 501b 633e daa9 fb3c
000003e0: f314 3e3d 1947 103e c300 583d 5d99 b43c
000003f0: f3e0 cd3c 67d7 a9bd af8e 52bc d86f d3bb
-0.04323002 -0.04776408 -0.148831 0.012326679 0.036062855 0.027175717 0.1255092 -0.061178412
-0.12022918 0.02848881 -0.0540228 0.09914749 0.043268096 0.057935305 -0.26864752 -0.11143978
0.20750973 -0.08784887 0.07384529 0.016323479 0.043718312 0.06133074 0.014788504 0.08359837
0.05063139 0.009509447 0.006563512 -0.029879283 0.012291475 0.038101755 0.069942646 0.12106675
0.085702665 0.1851767 0.022599505 0.093221724 -0.16593353 -0.101351105 -0.29205307 -0.10464514
-0.047839426 -0.12711842 -0.07228368 -0.12380194 -0.22363457 -0.19740312 -0.12149408 -0.12223247
-0.015828958 -0.01775602 -0.1474923 -0.10218604 -0.10113934 -0.12803096 -0.0006152213 -0.08125052
0.002482703 0.04595786 -0.028818151 0.00687816 -0.13088413 0.0026599118 -0.034728806 0.026330426
-0.039088707 0.067924455 -0.0048077707 -0.04404793 0.09939306 -0.056806467 -0.050808866 -0.0044375192
-0.23258404 0.021172678 -0.13413014 -0.13093984 -0.19666106 -0.002144198 -0.114662 -0.07166419
-0.15605134 -0.036621314 -0.1775088 -0.16314891 0.021886563 -0.0045739654 0.0057580797 -0.09284119
0.14272383 -0.025011756 0.01974641 0.032321904 0.087334804 0.043926675 0.042115234 0.024984116
0.07476476 -0.020521399 -0.0561317 -0.24480522 0.047229122 -0.014089824 0.17682858 0.04448447
-0.023350319 0.019199895 0.02173466 -0.22372402 0.050395712 0.015428022 0.024528878 0.053699058
0.12791033 -0.112569205 0.048484713 0.16998483 0.0064782193 -0.0683558 -0.19566336 -0.053910755
-0.10799248 -0.12294127 -0.08376434 -0.008157952 -0.18551584 -0.19565077 -0.19389968 0.002183213
-0.30376035 -0.16541573 -0.06033449 -0.25559705 0.0056288033 -0.045163594 -0.13511845 -0.12765205
0.019131394 0.057136826 -0.08414872 -0.11286669 0.0023435187 -0.09554365 0.03247726 0.1654342
0.06867052 0.099845044 -0.2763483 -0.056421738 0.08469307 0.025512684 -0.008306704 -0.19138461
-0.14497356 -0.014551328 -0.010562807 -0.34377205 0.08946736 0.039281182 -0.26045632 -0.0073929857
-0.03718984 -0.30314043 -0.022939742 0.04661114 0.028422918 -0.060591727 0.121624485 -0.062092435
-0.079615176 0.075386465 -0.086668015 0.22601993 0.17329107 0.16638067 0.050915893 0.095305696
0.049664993 0.12791035 0.16679375 0.17535914 0.12090181 0.13129528 -0.11708039 0.24238853
0.05350469 -0.0023337533 0.07445307 -0.06451804 -0.07884101 0.08372958 0.043498408 0.02845109
0.03271241 0.029789248 -0.023912566 -0.0006230849 -0.03593089 -0.063227355 0.050193656 0.03423717
-0.0490432 -0.1344668 0.049506836 0.009022017 -0.11412391 -0.0010812129 -0.026927628 -0.009887817
0.08353523 0.13916747 0.12333967 0.026266947 0.034515217 -0.019466328 0.0096118795 0.01858441
0.008376709 -0.16650707 -0.058152437 0.110925056 -0.13345401 -0.12874697 -0.022718577 -0.18349406
-0.11755013 0.03964321 0.040643908 0.04170005 0.056450367 -0.021914102 0.041612014 0.016321748
-0.041105997 -0.01125359 0.079461254 0.017567884 0.1267321 -0.029015368 -0.0061052893 0.19255918
-0.060747303 0.07028576 0.15050352 0.16989712 -0.070926465 -0.0048191277 0.22178388 0.03072064
0.046406697 0.14089622 0.0527351 0.022045786 0.025131678 -0.08293038 -0.012851401 -0.006452542

res_conv2.0.bias f4 [32]
00000000: 194d e33b 75a2 f5bc 639b cfbc 7d89 af3c
00000010: 5d61 93bc 65b2 853c 6d52 c33b 3358 313a
00000020: 9cb7 eeba e52d 933b e921 283b a10f 96bc
00000030: ab91 553c 12e9 7abd 108a cd3c 7975 163b
00000040: 507b 96bb 69de 003d b162 0d3d 583d 193d
00000050: b7bc 8a3c a2f5 0cbc a28b fabc 29b1 113d
00000060: 6852 553c 76f0 063c fde8 123c 2f69 113d
00000070: 8245 7c3c 754f 533c 15a4 31bc 3fa8 333c
0.006936681 -0.029984692 -0.025342649 0.021427864 -0.017990762 0.016320417 0.0059607537 0.0006765157
-0.0018212679 0.004491555 0.0025654978 -0.018318 0.013035218 -0.06125743 0.025090247 0.0022958203
-0.0045923367 0.031462107 0.034517948 0.037412018 0.01693569 -0.008603485 -0.03058416 0.035569344
0.013020135 0.008236041 0.008966682 0.0355007 0.015397431 0.012897362 -0.010842343 0.010965406

res_conv2.2.weight f4 [32, 32, 3, 3]
00000000: 1f0b 15be 51d2 15be a968 2abe ef2b 273d
00000010: 577f e9bd 9ea6 c2bd 68a5 c3bc c703 d2bd
00000020: 5147 c63d 4e99 f1bd a997 123c 49eb 773c
00000030: 64bd fc3b 4450 463d 1db4 9c3d c716 b73c
00000040: d8a5 063d b0be aa3d 6cae 103b 3d99 03be
00000050: 0702 ad3d 90ca 863d e9ed 173d 0044 c43d
00000060: faad 40bd d14c 013e 4862 8cbc cdea a43c
00000070: 57b0 893d 4293 623d 5cdb 4b3d d6c8 fe3c
00000080: 3c31 1c3d f207 933d 4013 963c a21f 003e
00000090: 73a9 0ebe 0ee4 903b 74d5 9c3d b305 d5bc
000000a0: 6609 303c c7d9 96bc a7a9 b03c 7b9c aabd
000000b0: 94ab 3fbd 5236 6abc 812a adbc 0864 0fbd
000000c0: 4120 d93c 2b64 4dbc 9211 0e3b 446a d63c
000000d0: 96ac acbd e204 25bd 4f14 49bd fa47 06bc
000000e0: b0f9 8a3d 4d04 893d 0c22 213d 76ba 6a3d
000000f0: df05 1d3c da6b ac3b b2e9 eabb a63c 723c
00000100: 26b2 28be d097 34be 6989 22bc a11d 573d
00000110: 8ce5 f3bd 786c 05be 0893 e1bc a1d1 8cbe
00000120: f312 59bd 4909 ec3c 6801 09bc 32bb 293c
00000130: 831d 99bd 9691 acbd 4691 3abd 5827 f3bd
00000140: 3da1 8dbc 7b2f 673e db47 bb3d 8332 af3b
00000150: 016c 893d c09c d83c 4ec7 b3bc 9e55 a6bd
00000160: e776 a93d 6d1f b2bb b147 103d 75c9 a43d
00000170: d215 8e3c e5a1 613d 765b 263d 67c1 c8bc
00000180: 6a88 28bd 0adf ddbd be29 5ebd d85c 63be
00000190: 04e9 eabd a343 acbd e735 cdbd d106 6b3d
000001a0: f0fd ec3d d11a 0fbe 9526 afbd 5ad4 593b
000001b0: 39a1 cabd 1aee 6ebe 6488 3dbe ad7f 553d
000001c0: 8a96 943d 0c1c 3f3d 3f8e 373d 63eb 083e
000001d0: 78b5 563e 7c4d 1f3d af25 01bd 5d3e 2f3d
000001e0: e4c9 d43c 8c7b 5d3c 6aee fc3c c812 d33c
000001f0: 7231 debc 3df7 aabb f694 e83d 2598 8d3d
00000200: 4b33 c9bb f7ad 02bd 0539 c83c 7ad7 cb3c
00000210: de95 02be 034d 58bd 420d 20bd 3129 983d
00000220: d5a7 0c3d ce27 c83b 1d18 be3b 2c3a 2b3c
00000230: 1402 0e3d 90bf b63c f5e8 ae3d 543b c3bc
00000240: aa3d bbbb 598c 51ba 65c1 ae3a c133 acbc
00000250: 27e6 b8bb 85bd e6bc 1799 9abc e93e 1ebd
00000260: e9fa 783d 7ca4 2a3c 1095 b8bd 9e86 53bd
00000270: da99 39bd f53d a43d 4979 273d 1f52 c63d
00000280: 9c57 c93c c742 a2bd e207 febc fd1b 22bd
00000290: 8715 b8bc 44d6 c9bd 2d31 42bd 051e 843d
000002a0: f0d2 f03c b606 8b3d a031 55bd a8b5 ddbc
000002b0: ed4c 8bbd d4ab 6dbd 7cf1 75bb 30ee 81bd
000002c0: c351 5bbd 51b6 0b3e 4b4b 2fbd 24fc 413c
000002d0: 67ff 2cbe dc23 9abd d2a3 4ebc 0019 633c
000002e0: e721 6f3d 7c81 92bc f8e0 c83c b11d 153d
000002f0: d1ba 18be 0375 69bd 87ed ca3c 5669 7fbd
00000300: ef10 073c 8834 643d 346d 0c3d 8f48 fd3c
00000310: f697 e83d 01f1 5f3d 86e2 083d 2e06 523d
00000320: 2886 a53b 221b 9a3d 1158 573d 7b46 08bd
00000330: a244 983d 70e2 a83d 6ecd b93d 72c2 b53d
00000340: 4468 133d 8b6d 1cbc f7a3 4d3d 6196 73bd
00000350: e1fb 02be daa9 a73d ed87 683d a8bf 01be
00000360: 43bf 273d 06df 973d ac6d cdbc 2275 ddbd
00000370: 9fbb 913a 707c 1f3d 1989 56bc fe37 57bd
00000380: 4ff4 65bc 9082 b3bd 2fa9 49bd 41d7 c43c
00000390: 97e1 c3bc b8e7 e0bd 0299 a7bc a8d9 893d
000003a0: 96a3 93bb 6f3e 513c 8215 b2bc 47fd 313d
000003b0: e7f1 3a3e 02c1 da3c 154a eebc b210 983d
000003c0: 0377 a93d 2efa e83d 9d7e 04be d1ff 09bd
000003d0: 87fe 62bd 990c 073e 6998 2dbd 96ca abbd
000003e0: 4526 3c3c 8d09 0bbc 0fbb ff3b a6a1 a5bc
000003f0: 7007 68be 4633 aabd 4218 7e3d 49ca 02be
-0.14555024 -0.1463101 -0.16641487 0.040813383 -0.11401241 -0.09504436 -0.023882583 -0.10254627
0.09681571 -0.11796819 0.008947291 0.01513178 0.007713007 0.04841639 0.076515414 0.022349728
0.032873005 0.08337152 0.002207662 -0.12851425 0.08447652 0.065816045 0.037092123 0.095832825
-0.047040917 0.1262696 -0.017136708 0.020131493 0.06723087 0.055316217 0.049769744 0.031101625
0.03813289 0.0717925 0.018319726 0.12512067 -0.13931827 0.0044217175 0.076579005 -0.026003694
0.010744428 -0.018414391 0.021565272 -0.083306275 -0.04679449 -0.0142951775 -0.021138432 -0.035007507
0.026504638 -0.012536089 0.0021677953 0.026173718 -0.08431356 -0.04028786 -0.049091633 -0.0081958715
0.06785905 0.066902734 0.03933911 0.05730673 0.009583919 0.0052618803 -0.007168972 0.0147849675
-0.16474208 -0.17636037 -0.009920456 0.05251849 -0.11909017 -0.13029659 -0.02753593 -0.27503684
-0.052996587 0.028813021 -0.008362152 0.010359572 -0.07476332 -0.08426206 -0.0455487 -0.118727386
-0.017288798 0.22576706 0.09144565 0.0053465976 0.06710053 0.026441932 -0.021945622 -0.08121799
0.08274632 -0.005435875 0.03522462 0.080462374 0.01734439 0.055086035 0.040614568 -0.024506284
-0.04114572 -0.10833557 -0.054239027 -0.22203386 -0.114702255 -0.08411338 -0.10020047 0.057379548
0.11571872 -0.13975073 -0.08552281 0.0033238144 -0.09894032 -0.23333016 -0.1850906 0.052123714
0.072552755 0.046657607 0.04481339 0.13371043 0.20967662 0.038892254 -0.03153008 0.042784084
0.025975175 0.013518225 0.030875403 0.025765792 -0.027123187 -0.0052174614 0.11356537 0.06913785
-0.006140148 -0.031904187 0.024441252 0.02488302 -0.12752482 -0.05280782 -0.039075144 0.07429732
0.034339745 0.0061082607 0.0058012144 0.010450881 0.03466995 0.022308141 0.08540527 -0.023832
-0.005714138 -0.0007993631 0.0013332783 -0.021020772 -0.0056426707 -0.028166542 -0.018871827 -0.038634215
0.06078616 0.010415193 -0.090128064 -0.051642053 -0.04531274 0.0801963 0.04088715 0.09683632
0.024577908 -0.07922893 -0.031009618 -0.039577473 -0.022471203 -0.09855321 -0.04741018 0.06451038
0.029397458 0.067883894 -0.05204928 -0.02706416 -0.06801782 -0.058025196 -0.003752797 -0.06344259
-0.05354477 0.13643767 -0.042796414 0.0118399 -0.16894303 -0.07526371 -0.0126123 0.013860941
0.05838194 -0.017884009 0.024521336 0.03640527 -0.14915015 -0.056996357 0.024771465 -0.062356316
0.008243783 0.05571416 0.03428383 0.030918388 0.11357109 0.0546732 0.033419155 0.051275425
0.005051393 0.075247064 0.05257422 -0.03327034 0.07434966 0.082463145 0.09072386 0.08874978
0.035988107 -0.009547601 0.050205197 -0.059469584 -0.12791397 0.081866935 0.056770254 -0.12670767
0.040953886 0.07415585 -0.02507671 -0.10813357 0.0011118538 0.038937032 -0.01309421 -0.052543633
-0.0140352985 -0.08765137 -0.04923361 0.024028422 -0.02391128 -0.10981697 -0.020458702 0.06730968
-0.004505585 0.012771233 -0.021738771 0.043454435 0.18256341 0.026703361 -0.02908806 0.074250594
0.08274653 0.11375843 -0.12938924 -0.03369123 -0.055418517 0.131884 -0.042381678 -0.083882496
0.011483734 -0.008486164 0.0078042815 -0.020218682 -0.22659087 -0.08310561 0.062034853 -0.12772478

res_conv2.2.bias f4 [32]
00000000: e154 b33c 4ad1 78bd 462a c5bb f1e4 9e3c
00000010: b2d0 efbc ad96 5a3b dfef d53b c4b6 4a3c
00000020: 4319 93bc ed84 b2bc a7b2 83bc 0020 f73c
00000030: 426c 82bd db59 6abc 15d2 033d 13d2 e03c
00000040: 1165 0abc ef03 c1bd 42ca 49bd 1681 b2bd
00000050: ac3c d03c 1d01 ba3b 3c64 14bc 1a2b 52bd
00000060: bf0b b83c 5ab5 fdbc cfe9 38bc b531 dd3b
00000070: 746c 393d cd87 3f3c 7c15 f8bc 5de1 e4bb
0.02189106 -0.06074647 -0.0060170023 0.019396277 -0.029274318 0.003335397 0.006528839 0.012372676
-0.017956382 -0.0217919 -0.016076399 0.030166626 -0.06368305 -0.01430365 0.03218277 0.027443921
-0.008446948 -0.094245784 -0.049265154 -0.087160274 0.025419556 0.0056764022 -0.009057101 -0.051310636
0.022466538 -0.030970264 -0.011286213 0.0067503103 0.045269445 0.011690092 -0.030283682 -0.006984873

res_conv3.0.weight f4 [32, 32, 3, 3]
00000000: cbb8 6dbd 8134 16be ea9b cbbc c18d 52bd
00000010: 2725 ef3a 1163 04bd 804a 233d d154 783d
00000020: 017b 643d bf3b 0ebd 0956 82bd 92ac a3bd
00000030: 379f 40bb 39a9 d73b a049 c1bd 7699 2ebd
00000040: d157 4abc 1223 fcbc ba5e 8ebd 7db3 b3ba
00000050: 02a7 a23d e7f7 1bbd 5436 8c3d 8652 483d
00000060: 65e2 bf3c e00a 233c 8e86 e23d 5609 36bd
00000070: 0b77 93bb a3ba eebb aafc 333d 4c65 51bd
00000080: 3ed6 6c3c d17b c93d fea4 65be 3e1a 61bd
00000090: 48f0 983d 242d b0bc b7a9 bcbd f6a1 003d
000000a0: 4365 ccbd 980e d9bd 0d78 9a3c f01e b9bd
000000b0: 765b f2bc 185c 403d 474d 35bd 956f 10be
000000c0: d201 fabc 7416 0bbd 7e8f 0bbe e3b6 1fbd
000000d0: b7be bfbd bb62 3cbd 5713 e9bc d800 cd3a
000000e0: 6212 05be 95dd 44bc b168 1bbd 55af dabd
000000f0: af8e 053c dc27 94bb 2ce7 e7bd a071 7cbc
00000100: fdf4 ee3d 8ff5 d0bc 9157 763d e686 b63d
00000110: 1f7f 9ebd f449 443d 4ef1 403d 6f13 803b
00000120: f77f e33c dbf6 6f3d 021d 6b3d 862d 7b3d
00000130: 9209 6a3c 2a5d 4b3d 9b28 4c3d 00d6 0d3d
00000140: ddb2 1c3e e21d f23d faff f9bd 4d1a 44bd
00000150: 42eb 3c3d b212 2cbe 42a8 33bc 6f14 5a3d
00000160: b4c9 3bbd 221d 7dbd ad66 71bc 793d 033d
00000170: 821d 2d3d fc7a 69bd dde0 ad3d ac9f 713d
00000180: 7667 1dbd 9e48 0b3d f9be 623d 47de 98bb
00000190: 45b6 263d d8bc c0bd 477c 7cbd e956 3ebd
000001a0: a3f7 79bd 3ef3 00be 6587 7abd 15d8 cbbd
000001b0: a000 113b afcf fdbc 2c63 19bd 282d 313d
000001c0: 6e32 9ebc 0856 79bc 1ea6 53bc 58b2 e83b
000001d0: 0dc0 163d 0a6a 69bd 51aa 31bc 804a c0bc
000001e0: f7ab 91bc bae7 69bd d5cd bc3d 6b04 c63d
000001f0: c37d b73d e751 103e 82bf 3cbd 88fe d4bc
00000200: 677f 00bc 1d28 163d b2cc 16bd c5b4 853c
00000210: 432b bb3d 50f2 1c3c dd72 513c a293 683d
00000220: 869b 343e 10b2 333e 8da5 fabc 66ea 983d
00000230: f085 ec3b d4a1 9b3b d456 ddbc 3f84 fabc
00000240: c1ee bc3c 00b6 363d 7670 323d aadc 343d
00000250: 7b78 05bc cf2d 733c b6b5 00bd b564 d53b
00000260: f322 19ba 8960 8cb9 22d1 7f3d d9c8 df3c
00000270: b09e 0a3e 598d 093d 83c6 ae3d cac1 b93d
00000280: 61a0 ef3d 74de d4bb 48f2 e83d a755 993c
00000290: 9113 f8bd f651 2a3c a77d ae3d 61df 07be
000002a0: c0d2 693c 2ab2 8f3d 60ef f0bd 5856 383e
000002b0: 0271 ca3c 31ff 873c a989 143e 1cd5 e23d
000002c0: 7b39 6b3d c0b2 3e3e 145b 293e 49ac ef3d
000002d0: 1548 b33c 934d c23c 32c5 ff3d f273 d9bc
000002e0: c768 dcbb a6fc b63d e593 2b3c 3720 683c
000002f0: ce4b 623d baaf c83d 1f21 263e 504b 053e
00000300: a4ba 3e3e cd9c 5f3e 2af0 d13d e0db 0b3e
00000310: 6093 c63c fdf1 bebc 56b8 9cbd a355 75bd
00000320: 9e8f 8b3c 678c adbc 3e75 00bd 1961 933d
00000330: 3331 f83a 3d71 49bc 05d5 713d c458 453d
00000340: 2c38 123d 53d9 203d 2674 363d be86 633d
00000350: ac51 e53c a572 3c3d 0b21 d03d d941 a8bc
00000360: 0440 773d 8506 35bd 4971 96bd 4dc2 693d
00000370: 154a eebc c27d 7fbd 02fa a93d 5672 913d
00000380: 4e9b aa3c e88d 89bd 78e1 a03c 505d 9c3d
00000390: bec6 4d3c 7d60 b73b 9b81 673c 8476 a8bd
000003a0: 84e5 4ebd 1448 0b3d d86c 5a3d 9cc1 b43d
000003b0: d631 493e 9c1e bcbc b013 123d 31f6 463e
000003c0: ef03 16bd c12a 843d 31b9 3a3e 74ab 09bd
000003d0: 5ada b1bc d37f 7aba fac3 30bd 78d0 053d
000003e0: a39e 3b3c 2d3e 99bd 7b7a 2a3d dbfd 1a3d
000003f0: 44b7 123b 5e91 cc3b 06dd c8bd c220 f63c
-0.05803756 -0.14668466 -0.024854619 -0.05140472 0.0018245325 -0.03232104 0.03986597 0.060627762
0.05578137 -0.034724947 -0.06364066 -0.079918995 -0.0029391774 0.006581452 -0.09437871 -0.04262682
-0.012350039 -0.030778442 -0.069516614 -0.0013710108 0.079420105 -0.038078215 0.068463 0.048906825
0.023423383 0.009951323 0.110608205 -0.044442497 -0.004500275 -0.0072854324 0.04394213 -0.051121995
0.014455376 0.09838069 -0.22426221 -0.054956667 0.07467705 -0.0215059 -0.09212058 0.031404458
-0.09980252 -0.10598487 0.018856073 -0.09039104 -0.029584628 0.046962827 -0.04426315 -0.14105065
-0.030518446 -0.03395696 -0.13628957 -0.038992774 -0.09362548 -0.045992594 -0.028451605 0.001564051
-0.12995294 -0.01201572 -0.03794164 -0.10677973 0.008151694 -0.004521353 -0.113233894 -0.01540795
0.116678216 -0.025507716 0.060142104 0.089124486 -0.0773909 0.04792209 0.047105126 0.0039085667
0.02777098 0.05858503 0.05740071 0.06132271 0.014284508 0.049649395 0.049843412 0.034627914
0.15302606 0.11822106 -0.12207027 -0.047876645 0.046122797 -0.16804007 -0.010965409 0.053242143
-0.045846656 -0.06179536 -0.0147339525 0.032041047 0.04226447 -0.057002053 0.08490155 0.058990166
-0.038428746 0.0340048 0.055357907 -0.0046651694 0.04070117 -0.09411019 -0.061641958 -0.046469603
-0.06102718 -0.1259279 -0.06116428 -0.09953324 0.0022125617 -0.03098282 -0.037448093 0.043255955
-0.019311156 -0.015218265 -0.012918023 0.0071013384 0.036804248 -0.056985892 -0.010843829 -0.023473024
-0.017782195 -0.057105757 0.09218947 0.096688114 0.08959534 0.14093743 -0.046081074 -0.026000276
-0.007842875 0.03665935 -0.036816306 0.01632155 0.09139111 0.009579256 0.012783733 0.05678142
0.17637452 0.17548394 -0.030596519 0.07466583 0.007218115 0.004749516 -0.027018942 -0.030580638
0.023063065 0.044607162 0.043564282 0.044155754 -0.008146401 0.014842465 -0.031423293 0.0065122494
-0.00058416947 -0.00026774805 0.062455304 0.027317451 0.13537097 0.033582065 0.08533957 0.090701655
0.11700512 -0.006496245 0.113743365 0.0187176 -0.12113107 0.010395518 0.0852006 -0.13268806
0.014271438 0.07016404 -0.11764407 0.18001688 0.02471209 0.016601177 0.14505638 0.11075804
0.057427865 0.18622875 0.1653865 0.11702783 0.021884957 0.02371863 0.12488784 -0.026544545
-0.0067263576 0.089349076 0.0104722725 0.014167837 0.055248074 0.09799142 0.16223572 0.1301701
0.18625885 0.21837159 0.10250886 0.13658094 0.024240196 -0.023308748 -0.07652347 -0.059896123
0.017036255 -0.021185113 -0.03136181 0.07196254 0.0018935561 -0.0122950645 0.059041042 0.048180357
0.0356981 0.039269757 0.04454436 0.055548422 0.027993046 0.04600777 0.101625524 -0.020539211
0.060363784 -0.04419567 -0.07345826 0.057070065 -0.02908806 -0.06237579 0.08299638 0.07101886
0.020826008 -0.067165196 0.019638762 0.076349854 0.012559591 0.005596219 0.014130021 -0.0822573
-0.050511852 0.034004286 0.053326458 0.088259906 0.19647917 -0.022963814 0.035663307 0.19429852
-0.036624845 0.06453467 0.18234707 -0.033610776 -0.021710563 -0.00095557905 -0.043155648 0.032669514
0.011451396 -0.07482562 0.041620713 0.03783975 0.0022387067 0.006242915 -0.09807782 0.030044917

res_conv3.0.bias f4 [32]
00000000: 91a7 acbc 8e0c 8bbd 295e 08bd aab0 a03c
00000010: d5e7 a93c 138e 163c 5e37 84bd 5d23 17bd
00000020: 1c07 36ba a5a1 f8bb 7fd8 5ebd ddfb 153d
00000030: 0662 213d 581e eabc 7b0e 37bc 3e53 4f3d
00000040: 7cfb 243d c15f 453c 2793 71bb 263d b83c
00000050: 376e bc3c c332 62bd b985 72bb cc99 a8ba
00000060: 822b 583c 8c0c 55bd 2887 8ebd 54e5 f13c
00000070: 0f97 1b3d 01ce 1139 e2a0 db3b 192f 083d
-0.021075996 -0.06789504 -0.033292923 0.01961549 0.020740429 0.009189147 -0.06455873 -0.03689896
-0.00069438084 -0.007587629 -0.054405686 0.03661715 0.039400123 -0.028578922 -0.011172886 0.050616495
0.040278897 0.012046755 -0.0036861391 0.022490095 0.023001773 -0.05522419 -0.0037005974 -0.0012863218
0.013193967 -0.05201392 -0.06959373 0.029528297 0.037985858 0.0001390502 0.0067025283 0.03324804

res_conv3.2.weight f4 [32, 32, 3, 3]
00000000: b784 94bd c907 2c3d 29bc ffbc 930b b93b
00000010: 53d6 533c e395 d13b 3db5 2fbd f714 d9bc
00000020: 46df f6bc 5674 d13c e426 f7bc 14a8 0a3c
00000030: 5898 a3bc 7f39 1e3d ec60 3ebd 02e3 ddbc
00000040: 23c6 71bd 08da 4e3a 5206 d23c 6435 733c
00000050: 0a01 04bd 84aa 733c 4073 47bb 2475 8bbc
00000060: 3133 3c3d 030c 6c3d 2b78 d73c 8b1d 62bd
00000070: 1db2 983c 0c01 3dbc 6aa8 2bbd b317 08bd
00000080: 2db4 04bb 588f c13c e34c bfbd d55e 243c
00000090: ad0a a2bb 8695 a93c 0a4e c53b 3bc1 423d
000000a0: a2cb e4bc fd77 bfbc 3f26 f43c e092 1b3d
000000b0: d33e 49bd 9903 b13c f8a0 33bd 688c 3d39
000000c0: 64f5 9b3b 3375 36bd db90 00bb 0371 53bd
000000d0: a00b 073c 8ae7 77bc 50b0 0abd 8e81 f23c
000000e0: 344e 54bc d5ec 10bd 7a9e 33bd 9271 4abd
000000f0: 39a0 493d d642 fabc 14cc 67bc cdfe eabc
00000100: e8f4 623b 1e64 2fbd 85f8 d5bc 47a1 7abd
00000110: cf21 6b3b 8b59 e439 c1c2 b8bc 5b2c 263b
00000120: d4ec ffbb 5bf2 a5bc 8316 6a3d 655f c9bb
00000130: 71fd d6bb 4077 0dbd eb74 2b3c c536 763c
00000140: 5d35 093d d97a 10bd 9f5e 7dbd e656 8b3b
00000150: 4d20 063d 5813 37bd 5fb4 283d 841b 243d
00000160: 85ee 6ebc 5865 62bd 00c5 16bd 713c 97bc
00000170: 4ae3 5a3d 9f79 243d 7336 4ebd e67b 403d
00000180: fd3d 2c3d af5d 4bbd bf65 053b 3628 48bd
00000190: 5033 2bbd e615 d6bb faf8 6cbd 0990 aebc
000001a0: b43a b4bc 529c b53b 1f11 c73c ff7e 84bd
000001b0: ad58 903c c1cb 2fbb fa00 ef3b cf26 c03b
000001c0: e841 c33b 7a54 04bd b572 6abd ef34 85bc
000001d0: 326e ea3b ae57 5bbd cc0d 28bd 25fa 023d
000001e0: b3a3 68bd 933a f4bc d7ad 0d3d 5a31 dd3c
000001f0: aeaa b7bc 4ca0 563c 385e 1ebd 00a3 49bd
00000200: 36d0 9abc 8e72 8d3c aa73 41bc 7413 3bbd
00000210: cfe0 6c3d 884f 65bc 5ea0 2d3d 5109 86bc
00000220: fc80 663c 8c80 5fbd 174b c0bc 0f81 2f3d
00000230: 2150 1cbd 9499 453d aa41 8e3c 407a b1bc
00000240: 2d2e 18bc d1c2 e03b 719e 49bd dff3 1abd
00000250: 242f 38bd 653e babc e939 013d 5727 7abb
00000260: 6ab3 003d 9a35 4c3d e809 bfbc 2ecf 8cbd
00000270: de1c adbc f622 493c f050 103c 3664 483c
00000280: ad2d 9b3c 468d 77bd 4342 4cbc cef4 4bbd
00000290: 1cfd 0bbd 5904 de3c 1bca 2c3c 274d dabc
000002a0: 43da bcbc 14b0 80bd 193f 41bd 168e b3bc
000002b0: 5c9f 703c 0c95 36bc 8d04 393b 6645 d7bc
000002c0: 2575 f93c 1ebe 48bd f46c d7bc c008 1abd
000002d0: d80b 19bc 2e3d 48bd e231 25bd 8cce 1fbc
000002e0: 0d86 1d3d 72c1 87bd 9946 563b 89c2 263d
000002f0: aa39 71bd c66f 08bd 6d10 9a3c 3cfa 103d
00000300: cd53 dd3c 2a10 083d b0a1 4fbd fd15 323d
00000310: c1b0 693d ec4b ca3b dffd 04bd c175 e2bc
00000320: 49ac 87bc 5cb8 783c a6d2 08bc 5b36 6dbd
00000330: b39c 6bbd 05bd 0ebd 0bc6 69bd 666b d9bb
00000340: 8fd1 7ebd d102 5e3c 8816 20bd c0c9 29bb
00000350: dbb7 93bd 241a 24bd c884 cdbc 6da4 5cbd
00000360: 0ac8 81bd 0b64 133d 5d21 2dbd 67b5 ef3b
00000370: ee34 84bd 9367 c53c 2c0d d7bc f25d 463d
00000380: 090e 08bc 94b2 babb ed54 3b3c 12df 1fbd
00000390: fa39 a13c e7b6 85bb 2c97 ea3c dfd0 4fbd
000003a0: 3ad0 9cbd 229b a4bc 4e58 c53c 64e2 85bc
000003b0: cf75 2fbd 0e6a 5dbd 3f71 313d 3886 b63b
000003c0: 9f57 6fbd 985a 5bbc 93f5 0c3d f363 ea3c
000003d0: 7c85 13bc 46f5 f93c c3d7 11bd 1c8b 233c
000003e0: 05b7 4bbd 3c6d 2d3d 23f3 00bd 0a59 13bc
000003f0: 810f 763c a806 173c 4d93 4e3b 4875 80bc
-0.07251876 0.041999612 -0.031217651 0.0056471317 0.012929517 0.0063960417 -0.04289745 -0.026499255
-0.030135762 0.025568169 -0.030169912 0.0084629245 -0.019970104 0.03862905 -0.04647915 -0.027085785
-0.05902685 0.00078907656 0.02563778 0.014844272 -0.032227553 0.014872197 -0.0030433685 -0.01702363
0.045947257 0.057628643 0.026302418 -0.055203956 0.018639619 -0.011535894 -0.04190866 -0.033225726
-0.0020248995 0.023627922 -0.09340837 0.010032375 -0.0049451203 0.020701181 0.006021266 0.04754756
-0.027929131 -0.023372645 0.029803393 0.037981868 -0.04913218 0.02160816 -0.043854684 0.0001807675
0.0047594775 -0.044545364 -0.001961759 -0.05162145 0.008242518 -0.015130887 -0.03385955 0.029602792
-0.012958098 -0.03538211 -0.043852307 -0.049424715 0.049225066 -0.030549448 -0.014147777 -0.028685952
0.0034630839 -0.04282009 -0.02611948 -0.061188962 0.0035878306 0.00043554264 -0.022553803 0.0025356028
-0.0078102145 -0.020257166 0.057150375 -0.006145405 -0.0065609743 -0.034537554 0.010464887 0.0150277065
0.033498157 -0.035273407 -0.061857816 0.0042523025 0.03274565 -0.044696182 0.04118764 0.040065303
-0.014583235 -0.05527243 -0.036808968 -0.018461438 0.053439416 0.04015505 -0.050344896 0.04699316
0.042051304 -0.04964989 0.0020354835 -0.048866473 -0.041796982 -0.006533372 -0.05785463 -0.021308916
-0.022000648 0.0055423165 0.024300156 -0.06469535 0.017620409 -0.0026824328 0.0072938176 0.0058640013
0.0059587844 -0.032307126 -0.0572383 -0.016260592 0.0071542496 -0.053550415 -0.041028783 0.031976838
-0.05679674 -0.029813087 0.034589615 0.027001072 -0.022420254 0.013099741 -0.038664073 -0.049227715
-0.01889811 0.017266538 -0.011807362 -0.04567285 0.05783158 -0.0139960125 0.042389266 -0.016361864
0.014068838 -0.05456595 -0.023473306 0.04284769 -0.038162354 0.048242167 0.017365295 -0.021664739
-0.009288353 0.0068591614 -0.049223367 -0.03783023 -0.04496683 -0.02273483 0.031549368 -0.003817042
0.031421103 0.049855806 -0.023320153 -0.06875454 -0.021131929 0.012276402 0.0088083595 0.012230923
0.018942678 -0.060437463 -0.01246697 -0.04979401 -0.03417693 0.027101682 0.010546233 -0.026648117
-0.023053294 -0.06283584 -0.047179315 -0.021918338 0.014686432 -0.011143934 0.0028231472 -0.026278209
0.030451367 -0.049009435 -0.02629707 -0.037606 -0.009341203 -0.04888647 -0.040330775 -0.009753834
0.03845792 -0.06628694 0.0032695888 0.040712867 -0.058892883 -0.03330972 0.01880666 0.035394892
0.027017498 0.03321854 -0.050691307 0.043478 0.05705333 0.0061736014 -0.032468673 -0.02764404
-0.016561644 0.015180673 -0.008351004 -0.057913166 -0.057522487 -0.03484823 -0.057073634 -0.0066351173
-0.06221157 0.013550476 -0.039083987 -0.0025907606 -0.07212802 -0.040063992 -0.02508773 -0.053867746
-0.063369825 0.03598408 -0.042268146 0.007315326 -0.06455408 0.02409724 -0.026251398 0.048429437
-0.0083041275 -0.0056975577 0.011433822 -0.039031096 0.019680966 -0.0040806415 0.028636537 -0.050736304
-0.076569036 -0.020093504 0.024089959 -0.016343303 -0.04283696 -0.05405622 0.04332089 0.0055701993
-0.05843317 -0.013388298 0.034413885 0.028612113 -0.009003993 0.030512463 -0.035606157 0.009981897
-0.049735088 0.042340502 -0.031481873 -0.008993397 0.015018345 0.009217896 0.0031520904 -0.015680924

res_conv3.2.bias f4 [32]
00000000: 935a 5fbd 3e4c dabd 636a b43c 9f9e 6abd
00000010: 52a8 da3c f541 343c bf80 60bd 44da 093c
00000020: 025c 69bc e38a 4f3c 97c0 9f3c 7a10 4a3d
00000030: 463b 46bd e8b5 8cbb 888b a8bd bb64 6a3d
00000040: 7904 023d 1e52 31bd a7b6 743c c10a 9dba
00000050: 68c9 cd3c cd6b 53bd dd19 863c 6a0f 83bc
00000060: 4f0c 5abd 4363 3d3d e488 44bd f8fc 8b3b
00000070: 841b 8eba 99d6 4ebe e499 31bd c979 71bd
-0.054529738 -0.10659073 0.022023385 -0.05728018 0.02669159 0.0110020535 -0.05481028 0.008413855
-0.014243128 0.0126673905 0.019501014 0.04933212 -0.04839637 -0.004294146 -0.082297385 0.05722497
0.031742547 -0.043291204 0.014936126 -0.0011981354 0.025120452 -0.05161648 0.016369754 -0.015998561
-0.053234395 0.04623724 -0.04798211 0.0042720996 -0.001084194 -0.2019905 -0.043359652 -0.058954034
