logs/Rain1400/PRN6_r/net_latest.pth (torch_old, 86047 bytes, 8 tensors)

conv0.0.weight f4 [32, 6, 3, 3]
000000 de b5 67 3e df f9 2b 3e 2b 2c 7c bd 26 63 e6 3c
       0.2262797 0.16794537 -0.06156556 0.02812345
000010 ad 24 88 be ae ce 32 be 98 18 6e bd 4f 7f a1 3d
       -0.2659048 -0.17461655 -0.058128923 0.0788561
000020 3a e9 b0 3e 65 3f a5 bd 91 85 26 3d 86 36 7e 3e
       0.34552938 -0.08068732 0.040654723 0.24825487
000030 ba 9a 3f be b3 7f 0f be 3f 55 2a be 3d 31 51 bd
       -0.18711367 -0.14013557 -0.16634081 -0.051072348
000040 31 78 86 3d 01 40 4c be 44 3c 21 bd a5 40 02 3c
       0.065658934 -0.1994629 -0.039364114 0.007949983
000050 5d 9e 3a 3d 28 f1 e6 3d 5a b1 06 bc 3c 84 55 3e
       0.045561183 0.11276466 -0.008220995 0.20851225
000060 70 c6 c2 3d c9 42 24 3d ef ad 2f 3d e7 05 1d be
       0.09510505 0.040102754 0.042890485 -0.15334283
000070 8c d4 8e 3e e1 b2 aa 3e 6b 6c 1f bc 84 d9 85 bc
       0.27896535 0.333396 -0.009730439 -0.016339071
000080 2c f5 bc be 6e f9 bd 3d 84 38 05 be 90 30 92 be
       -0.369058 0.092760906 -0.1300984 -0.28552675
000090 1d ff a2 3e 63 ed 9b 3e a4 83 8e 3e f3 0d 05 bc
       0.3183526 0.3045455 0.2783481 -0.0081210015
0000a0 7b 60 94 3e 2d 5c a5 be 8a 3e 46 be 1e 33 03 3e
       0.2897986 -0.32296887 -0.19359794 0.12812468
0000b0 43 5f 73 be 15 6b 6a be 4f 86 de bd 2a 8e c9 3d
       -0.23766808 -0.22892411 -0.10865461 0.09841569
0000c0 9b a2 c0 bc 4b 98 3d 3d b0 68 24 be e8 b8 a5 3c
       -0.023515036 0.046287816 -0.1605556 0.020229772
0000d0 41 93 8d bd b2 e5 de bd 6b 98 63 be 24 59 d5 bc
       -0.06912852 -0.10883655 -0.22226112 -0.026043482
0000e0 29 9f 39 bc f0 64 99 be 76 9f 27 be 06 c7 b9 bc
       -0.011329451 -0.29959822 -0.16369423 -0.02267791
0000f0 36 71 8c be 32 76 4a be fd 66 99 bd b8 11 2b be
       -0.27430123 -0.1977165 -0.074903466 -0.16705978
000100 0d 59 1f be 69 41 af bd 25 71 95 be d4 06 06 3b
       -0.15561314 -0.08557398 -0.29187885 0.0020450847
000110 fd 46 91 bd 88 da 8a be 7f ea fd bd d5 9b 91 3c
       -0.07093618 -0.2711985 -0.12398242 0.017774502
000120 21 cc 3b be ae c1 a9 3d 3f 2d ed bd 73 19 b2 be
       -0.18339588 0.082888946 -0.11580896 -0.3478504
000130 a1 d1 17 bd 2b 55 06 be 0f 2b f6 bd 28 33 b9 bd
       -0.037065152 -0.13118427 -0.120199315 -0.090429604
000140 aa 53 ba 3c f8 56 7f 3d 4f 6a d2 bd b9 3d b9 bd
       0.022744972 0.0623388 -0.10274183 -0.09044976
000150 f6 e4 16 bd 3a 54 54 bb b9 1c 2e be f0 35 d5 bd
       -0.036839448 -0.0032398836 -0.17003144 -0.104106784
000160 4a 93 1b 3d 35 ef f3 bd ee 1a 7c 3c 35 8e 5c be
       0.037982263 -0.119108595 0.01538728 -0.21538623
000170 a4 f5 47 be 8c 10 26 bd 4e 83 2f be 7f 05 ee bd
       -0.19527298 -0.040543124 -0.17139933 -0.11622142
000180 b9 33 87 3c 61 8c 50 3d 82 56 d5 bd 0e 35 44 3e
       0.016504155 0.050915126 -0.10416891 0.19160864
000190 0e 73 e0 3b 85 5d 93 3d a8 d3 36 bb be 6d 38 3d
       0.006849653 0.07195572 -0.0027897153 0.045026533
0001a0 df 1b f3 bc 82 bd c1 3d 50 7a c3 3d 46 e2 d2 bd
       -0.029676376 0.09459974 0.09544814 -0.102970645
0001b0 5c 18 87 be aa 02 5f be 5c 06 ad 3e 9b 0f 2b bf
       -0.26385772 -0.2177836 0.33793914 -0.6682069
0001c0 84 59 80 be 8e c7 e2 3e 52 9e 05 bf 41 a1 eb bd
       -0.25068295 0.44292873 -0.521947 -0.11505366
0001d0 df ef 2c 3f dd 5a 59 be 3e 2d 2b bd c8 bd b3 b9
       0.67553514 -0.21226068 -0.041791193 -0.0003428294
0001e0 01 88 9d bd d8 fe 83 bd 71 09 c0 3e 33 44 9e bd
       -0.07691956 -0.06445092 0.37507203 -0.07727852
0001f0 be c2 21 be 14 27 02 bc 00 4e 01 3f 30 b5 0a 3e
       -0.15796944 -0.007943887 0.50509644 0.1354568
000200 6a 49 00 bf 6c d0 33 3f 83 ba e1 3e 82 9b da be
       -0.5011202 0.702399 0.4408761 -0.42696768
000210 60 fa 1c 3f 56 18 64 3e 5f 8a 44 bf a1 e7 b0 3d
       0.6131954 0.22274908 -0.7677364 0.0863793
000220 71 0c 81 bd 23 e0 bf 3e 92 b2 bb be d9 e8 2a be
       -0.06301201 0.3747569 -0.36659676 -0.16690387
000230 63 be 1d 3f 2b b9 13 be f8 3b 7e be e3 22 f7 3e
       0.6161863 -0.14426105 -0.24827564 0.48268804
000240 da dc 03 be 4c 28 a7 3d 13 18 97 3b bb cd 10 3c
       -0.12877217 0.08161983 0.004611024 0.0088381125
000250 96 d7 a2 bd 5d 36 a4 3e e2 50 17 3e b5 7c 30 be
       -0.07951276 0.32072726 0.14776948 -0.17235072
000260 07 48 99 3d 29 86 07 bd 3d 70 a6 bd 6c 43 17 bf
       0.07484441 -0.03308693 -0.081268765 -0.5908725
000270 02 f7 c3 3e 67 d9 98 3e 01 c0 05 bf 88 8d 09 3f
       0.3827439 0.29853365 -0.522461 0.53731585
000280 b3 e8 0e be 11 c4 40 bf 79 b0 66 3d c2 76 9a 3d
       -0.13955955 -0.75299174 0.05632064 0.075421825
000290 da e1 4d 3a 79 db 03 3d 01 f4 fd 3d c4 8a b9 bd
       0.0007853784 0.032191727 0.12400056 -0.090596706
0002a0 52 4a 7f bd a3 eb c5 3c e9 8b 78 3d e9 04 91 bd
       -0.062326737 0.024160212 0.060680304 -0.07081015
0002b0 fe 35 4e be 9b 85 1c 3d 11 8a b1 3b 97 b7 c2 3d
       -0.20137784 0.038213354 0.00541807 0.09507673
0002c0 67 d3 22 be bf 8b 42 be 2b 9f 61 be 20 6f 85 3d
       -0.15900956 -0.18998621 -0.22033374 0.06515336
0002d0 3d c5 28 be 3f a1 5d bd 6b f0 02 3e 04 f9 11 be
       -0.1648149 -0.054108854 0.12787025 -0.14255148
0002e0 f1 b0 09 3e a1 31 a8 3d 89 c9 36 bd 16 f2 79 bd
       0.13446404 0.08212591 -0.044625793 -0.061021887
0002f0 08 c6 11 3e 4d ca 7f 3d e0 11 b7 3d 7e 6f fd bd
       0.14235699 0.06244879 0.08938956 -0.12374781
000300 a0 aa bf 3e ce bc c3 3e ac 9f 3c bf 2b 22 1d bd
       0.37434864 0.38229984 -0.7368114 -0.038362663
000310 5a 0e 39 3e 30 48 ac be 61 f3 c3 3d 5a 8d 90 3e
       0.18071881 -0.33648825 0.09567905 0.28232843
000320 94 cc c0 bc 84 0a 4a 3e 3b 6c a6 3e 55 78 16 bf
       -0.02353505 0.19730574 0.32504448 -0.5877736
000330 e7 eb 9b 3d 86 a9 2b 3e e7 aa ae bd 97 9f a5 bd
       0.07613354 0.16763887 -0.08528691 -0.0808708
000340 e8 0a e4 3c b9 ae 26 3c cf ef 1c 3e 5e 9d a2 3e
       0.027837232 0.010173493 0.15325855 0.31760687
000350 e2 e0 de be 5f 66 f1 3d 84 96 c2 3c a8 50 f2 bc
       -0.43530947 0.11787104 0.023753412 -0.029579476
000360 79 a6 3b 3e dd b1 99 3d 8a de 94 bd 98 b2 e2 3e
       0.18325223 0.07504628 -0.072690085 0.4427688
000370 34 c9 52 3d fb 1e cd 3e aa a1 9f bd a2 0c 67 3e
       0.051461414 0.400627 -0.07794507 0.22563413
000380 ab c1 5e 3e 3e 74 87 be 83 e7 9a bd 15 fb 53 be
       0.21753566 -0.26455873 -0.075636886 -0.20701249
000390 26 1e ff bd 65 4a e6 bd 86 3a af 3d c8 84 38 be
       -0.12456922 -0.112446584 0.08556084 -0.18019402
0003a0 36 39 80 3e 65 6b aa 3d d3 a3 54 3c 63 37 ff 3d
       0.25043648 0.08321265 0.012978512 0.12461736
0003b0 f6 59 d3 3d c0 6b 9c 3d 74 fe e3 bd a3 0f 2f 3d
       0.10319893 0.07637739 -0.111325175 0.04273952
0003c0 ff 0d 23 3e 4a ea 3e 3e 0b de d8 3d 80 25 c5 bd
       0.15923308 0.18644062 0.10589226 -0.09626293
0003d0 18 0e 86 be 1d f7 78 bd 36 e5 21 be 03 b1 77 be
       -0.26182628 -0.06078254 -0.15810093 -0.24188618
0003e0 89 b6 c5 bd da 49 00 be 56 5f c3 be e9 e7 3a be
       -0.096539564 -0.12528172 -0.38158673 -0.18252529
0003f0 b4 97 2d 3e 7e 22 d8 3e fd 55 e1 3d e8 20 c5 bd
       0.16952401 0.42213815 0.11002729 -0.09625417

conv0.0.bias f4 [32]
000000 30 50 f5 3c 6b 3e de be 8c 9e 8c 3d c2 84 25 be
       0.029945463 -0.43406996 0.06866178 -0.16163924
000010 a2 0d bf bd 67 6d f3 bd a4 39 ad 3d 13 a6 f3 3d
       -0.09328772 -0.11886101 0.0845826 0.118969105
000020 40 73 fd be 77 7e cf 3c 0e 4d d8 bd 15 4b 49 3e
       -0.4950199 0.025328858 -0.10561572 0.19657548
000030 aa 15 32 be 65 39 75 be ca 39 98 3d 1a c2 d0 be
       -0.17391077 -0.23947676 0.074328974 -0.40773088
000040 6d ab 3b bd 7e df ae 3d 05 9c 8c bd 5a 50 87 bf
       -0.04581778 0.085387215 -0.06865696 -1.0571396
000050 43 50 21 3d 47 fa b4 be 14 7b 4f 3d 10 f7 d8 be
       0.039383184 -0.35347196 0.050654486 -0.42375994
000060 34 9d 1a bc 99 e6 36 be 84 5c cd bd f3 a1 97 3b
       -0.009436894 -0.17861404 -0.100274116 0.00462746
000070 c8 8f c0 3d 26 14 44 3c 35 a6 6f bc 66 a6 34 3c
       0.09402424 0.011967694 -0.014627029 0.011026001

res_conv1.0.weight f4 [32, 32, 3, 3]
000000 7f 05 77 ba 23 98 18 3e 50 43 90 bd d6 f4 f4 3e
       -0.0009423121 0.14901786 -0.07044089 0.47843045
000010 3d cd 92 bd 8b dd 99 bd c3 8c 00 bf 13 70 57 be
       -0.07168052 -0.07512959 -0.50214785 -0.21038847
000020 56 e0 bc bd 9c 83 9d bf 5d fe e2 be da 6b e4 3e
       -0.09222476 -1.2305789 -0.4433469 0.44613534
000030 6f 6c db bd 35 6c 08 bf 82 72 9e 3e 55 68 84 3e
       -0.107140414 -0.5329011 0.30946738 0.2586085
000040 b8 ed 7e be 91 40 37 bf f3 4d f4 3d 7a 53 57 3e
       -0.2489537 -0.71582896 0.1192893 0.21027938
000050 42 fc 44 bd bf 5e ae be d1 ec e1 be c0 c9 ce bc
       -0.048092134 -0.3405666 -0.4412599 -0.025242686
000060 6d 39 41 3e 75 c5 28 3e 55 17 72 3e e3 d5 e7 bc
       0.18869562 0.16481574 0.23641713 -0.028300231
000070 8f 9a cf 3d ba 61 b0 3d c5 1e 0b be 4e f0 11 bd
       0.101369016 0.0861239 -0.13585956 -0.035629563
000080 3e 72 16 bc 64 18 95 3d 21 bf 06 bb bd 8b b0 ba
       -0.009182511 0.07280043 -0.00205607 -0.001346938
000090 aa 3a 95 3e e2 a0 b7 3c 6d 28 b7 3d 8f 2c 25 bd
       0.2914632 0.022415582 0.089432575 -0.040325698
0000a0 9d 94 94 3e 69 61 8a be 75 b8 6c be 13 be 2e be
       0.29019633 -0.27027443 -0.2311724 -0.17064695
0000b0 1f 58 ee 3b 39 fa d6 3d 7f 47 bd 3d 7d 04 f9 be
       0.0072736884 0.10496945 0.092421524 -0.48636237
0000c0 4a 32 b5 3d 69 ca b8 3d d6 ed 61 3e 68 63 d3 be
       0.088474825 0.09022982 0.22063383 -0.41286778
0000d0 b2 33 28 be 2e 97 63 3d d9 97 e7 3e 93 b1 b6 be
       -0.1642597 0.055564098 0.45233038 -0.35682353
0000e0 05 cd 22 bf ea 2b c9 bd 72 e7 a6 3d 9d 2e bc 3d
       -0.63594085 -0.09822829 0.081496134 0.09188578
0000f0 94 b1 9c 3e 51 f8 0f 3d d7 a5 90 bd fe 9d 07 3e
       0.3060423 0.035148922 -0.070628814 0.13243863
000100 07 53 8b 3e 1d 20 3b be 3d 8a b5 3e da 4b fb bd
       0.27211782 -0.18273969 0.3545703 -0.12270327
000110 6d 03 8c be 50 fc 79 be 82 c4 00 be 4a b0 c6 3e
       -0.27346364 -0.24412656 -0.12574962 0.38806373
000120 84 1e c7 be 5d 55 69 3d 3b a4 8e be 2a 1b 1b 3e
       -0.3889047 0.056966174 -0.27859673 0.15147081
000130 56 49 71 be 63 82 30 3e 3f 65 49 3c 13 af f9 be
       -0.23563132 0.17237239 0.012292205 -0.48766384
000140 68 d0 2b bd ec 5d b7 3e 74 1e 1c bf a1 41 05 3f
       -0.0419468 0.35813844 -0.6098397 0.52053267
000150 0b 6c a6 3d fb c2 4b bf fe a6 b9 bf 85 6f 87 be
       0.08126076 -0.7959439 -1.4504087 -0.2645227
000160 e7 5b 43 bf 00 87 5f be 06 a9 95 be 9d da f5 be
       -0.76312107 -0.21828842 -0.29230517 -0.4801835
000170 91 f0 12 be 05 06 94 3e 80 4b 14 be 3b 64 cf bd
       -0.14349581 0.28910843 -0.14481926 -0.10126539
000180 9a 51 c2 bc 3d b3 5b 3f 80 73 90 3e 20 b1 7f bd
       -0.023720551 0.8582037 0.2821312 -0.06242478
000190 2f 31 d4 3d 9d 99 c2 bd 36 51 b2 3d d7 a6 e7 3c
       0.103609435 -0.09501956 0.08706896 0.028277798
0001a0 82 7b ca 3d 2f 61 af bd 3b 86 12 be 2b 36 32 3e
       0.098868385 -0.08563458 -0.14309017 0.17403476
0001b0 70 07 e7 3d 30 55 c3 bc c4 3d 13 3d cf ca e5 bd
       0.112807155 -0.023844332 0.035947576 -0.11220323
0001c0 a5 46 55 3e 8a 31 22 be c8 9a 04 be cb 54 4f be
       0.2082773 -0.1583921 -0.1294967 -0.2024719
0001d0 28 2f 89 3e 14 c4 11 3f ff bf 7a 3e 9a 5a 1f 3f
       0.2679379 0.56939816 0.24487303 0.6224762
0001e0 c4 57 f1 be 8f f0 b6 bd 1b 7b 8d be 20 40 e5 3e
       -0.47137272 -0.08932602 -0.27632985 0.44775486
0001f0 54 6d 3c bd 2b 10 c1 bf 5b 5d d2 3d 25 1d c9 3d
       -0.0460027 -1.5083059 0.102717124 0.09820012
000200 4d ef 1b be 11 c1 22 3d 97 a0 12 3e 43 33 3a 3d
       -0.15228005 0.039734904 0.14319073 0.045459043
000210 4c 90 cc bd 10 f8 11 bd 55 16 c2 bc cf 9b 2e be
       -0.0998846 -0.03563696 -0.02369229 -0.17051624
000220 7c 57 2b 3b 20 fc c2 3d 55 cc e3 bd e6 e3 2f be
       0.0026144674 0.09520745 -0.111229576 -0.1717678
000230 17 5f a8 3c 4e 28 33 be 5d 7a 1d be eb 59 4c be
       0.020553155 -0.17495844 -0.15378709 -0.19956176
000240 26 c5 13 3e ce 58 d3 3c 19 e1 04 be be 1b 63 3d
       0.14430675 0.025799181 -0.12976493 0.05544638
000250 b1 16 c3 bc c1 73 08 bd ab 5d 94 be 69 7b 0e 3e
       -0.023814531 -0.033313517 -0.28977713 0.13914265
000260 3d ac 50 3e df 02 f9 bd da 16 78 bd c0 3b 90 bc
       0.20378204 -0.12158751 -0.060568668 -0.017606616
000270 6c d2 44 3e a5 47 ce 3d 86 03 85 be 37 e8 3d 3d
       0.19220895 0.10072259 -0.2597925 0.046364035
000280 d1 a4 d5 bd 7c eb 92 3e 59 47 3d bf a4 9f dc 3c
       -0.10431827 0.28695285 -0.7393699 0.026931591
000290 1f 11 0a bf 3a 18 4e 3e 3d a4 18 bf 5a c7 d9 be
       -0.53932375 0.20126429 -0.5962561 -0.42534906
0002a0 1a 7f 1a 3f 4c c5 06 3f 20 76 64 3d 19 1b 79 be
       0.6035019 0.526448 0.055776715 -0.24326743
0002b0 ec 82 a9 bd b0 9b c6 bd c7 18 0b 3e 5d 29 86 be
       -0.082769245 -0.09697664 0.1358367 -0.26203433
0002c0 a1 96 cc bd 8a 8f a9 3d 44 84 52 3e 87 ac 58 3e
       -0.09989668 0.08279331 0.20558268 0.21159564
0002d0 6a 89 a6 3d 7b 57 1c 3e 9b 71 76 3c 7b b1 94 be
       0.081316784 0.15267746 0.015041734 -0.29041657
0002e0 3c 82 a5 be 51 52 38 be d9 86 10 3e c5 be ff 3d
       -0.32325923 -0.18000151 0.1411394 0.12487558
0002f0 d0 21 5a 3e 89 10 2f be cc fe f4 be 78 9b ce 3e
       0.21301961 -0.17096151 -0.47850645 0.40352988
000300 e8 9c 60 3e 2b c7 e7 be 0c e9 b2 3d 56 dc ad 3e
       0.21934855 -0.4526914 0.087358564 0.33957165
000310 4a 65 21 be f7 f7 48 3a 50 7e 0c 3e a7 1f ad be
       -0.15761295 0.0007666344 0.1372006 -0.3381321
000320 60 86 8e 3d b9 d0 36 3e c8 2c e5 3e 3e 05 8f 3b
       0.06959224 0.17853059 0.44760728 0.0043646386
000330 d9 3a 30 be 46 15 57 3f 33 f4 b5 bd e0 d8 cc bf
       -0.17209949 0.84016836 -0.08884468 -1.6003685
000340 5c 38 42 3d f0 73 ce 3e da a5 0e be e0 09 24 3e
       0.04741703 0.40322828 -0.13930455 0.16019392
000350 84 d9 17 3f ec bc 47 3d ce c3 d8 be 64 b0 44 be
       0.5931628 0.048764154 -0.42336887 -0.19207913
000360 6a 02 58 be 45 d0 04 3e a6 b9 82 be a1 b3 31 3e
       -0.21094671 0.12970074 -0.25532264 0.17353679
000370 1a 43 8c 3e 43 8d e2 bd e1 82 9c 3d 3c 62 11 be
       0.27394944 -0.110621 0.07642151 -0.1419763
000380 f6 9e a6 3d 75 5b da 3c 86 2c 22 be 8d 9c 7f 3e
       0.08135788 0.026654938 -0.15837297 0.24962063
000390 ef af b2 be 80 07 e9 be 43 c1 8c be d9 e9 31 bf
       -0.34899852 -0.45513535 -0.27491197 -0.6949745
0003a0 ed 72 62 3f cb 96 67 3e 8f ee d8 3d 2e 6c 32 3d
       0.8845661 0.22616117 0.105923764 0.0435602
0003b0 86 54 cc bd fe d6 b9 3d 3f 45 cc 3d 24 54 4d 3d
       -0.09977059 0.0907421 0.09974145 0.05012907
0003c0 07 e1 b9 be 60 f4 c3 bd 18 89 93 3d 02 5e fe bc
       -0.36304495 -0.09568095 0.07203883 -0.031050686
0003d0 7f 04 98 be ee c8 03 3e b0 9f a6 3b c5 a6 0f bd
       -0.2969093 0.12869617 0.005084954 -0.035071153
0003e0 f8 80 99 3a 1c db 21 3d 5e 4e 91 3e 17 fd 4f be
       0.0011711409 0.0395156 0.28380102 -0.2031139
0003f0 46 10 ac 3e 27 20 bb bd f3 c8 02 bf ec 12 93 3e
       0.33606166 -0.09136992 -0.51087874 0.28725374

res_conv1.0.bias f4 [32]
000000 14 14 61 bd 6b b2 7e 3c eb 90 e7 bd b8 48 ed 3d
       -0.05495079 0.015545468 -0.11306938 0.115861356
000010 46 f3 8f 3c 9b 3f 3c 3b 51 f5 fb 3c fa ac ce bd
       0.017572057 0.0028724435 0.030756624 -0.100915864
000020 3c 55 8a 3c e6 ad 40 3d 33 f9 56 be 36 77 89 3c
       0.016886346 0.047040842 -0.209935 0.016780477
000030 02 6b 58 bd 3e 7f da 3d dc 77 91 3d 65 3e db 3d
       -0.052836426 0.10668801 0.071029395 0.1070526
000040 c0 9f fa 3d 37 21 2a 3e 72 4b 59 3d fd 09 a7 3c
       0.12237501 0.16614233 0.053050466 0.020390505
000050 8e fe df 3c cb 8e d8 bd 7e 5c df 3d d1 28 58 3d
       0.02734306 -0.105741106 0.10906313 0.0527733
000060 c2 7f 15 b8 37 93 55 bc 78 d3 1c 3e 73 ce a1 bc
       -3.5643352e-05 -0.013035587 0.15315044 -0.019751763
000070 52 fc 5a 3d 69 c2 98 bd 73 f5 1f be 3a 26 90 3c
       0.053463288 -0.07458956 -0.15620975 0.017596353

res_conv1.2.weight f4 [32, 32, 3, 3]
000000 6f e2 66 bd ed da ba bd 80 5f 80 bc d4 97 ac bc
       -0.056368288 -0.09123788 -0.015670538 -0.021068491
000010 0e 61 b8 3d a3 9b 83 bd f9 76 70 bc 37 36 4c bd
       0.09002887 -0.0642617 -0.014676803 -0.04985639
000020 fe fc d0 bd 26 0c 2b bc 98 bc 7b bc 83 4a 16 be
       -0.102045044 -0.010439908 -0.0153647885 -0.14676861
000030 9c 09 d8 bd a9 bf 15 ba 70 94 98 3d c2 8f bc 3c
       -0.10548708 -0.00057124585 0.07450187 0.023017768
000040 1a f3 4c bc 93 47 cd bb fd 2f dc bb ab 16 b9 3d
       -0.012509132 -0.006264636 -0.006719588 0.09037527
000050 75 1e 6c bd 16 43 b9 bb 88 b7 95 bc 5e 9d 7e bd
       -0.057646234 -0.005653749 -0.018275991 -0.062161796
000060 9e 22 33 3a 72 58 4d 3d 7b e8 43 3d bd 32 e4 bd
       0.00068334665 0.050133176 0.047829133 -0.1114249
000070 61 88 65 bd d6 25 96 bd fe 9b a7 3d 6c 3e 0a bd
       -0.056038264 -0.073314354 0.0818405 -0.033750936
000080 b1 8e 0b bd 5c 23 0d bd 63 b4 99 3c 24 eb 92 bd
       -0.034071628 -0.03445755 0.018762773 -0.07173756
000090 c4 a5 10 3e 81 65 65 bc a2 da 83 b8 06 4f 8e bd
       0.14125735 -0.014001251 -6.28729e-05 -0.06948666
0000a0 dd e7 55 3d 3e ea c0 bb e5 4e be bc da d9 84 3b
       0.052223075 -0.005887299 -0.02323098 0.0040542902
0000b0 eb 73 d5 3d da 3e 85 3d b5 b5 9d bd 64 76 b1 3d
       0.104225 0.065061286 -0.077006735 0.08665159
0000c0 21 be 83 bd 69 0c 08 bd aa 10 dc 3d a4 d2 ba bc
       -0.064327486 -0.03321496 0.10745366 -0.02280552
0000d0 71 74 28 3d bd c2 da 3c 49 0f 18 3e 3a 36 72 be
       0.041126672 0.026704187 0.14849581 -0.23653498
0000e0 87 4e 78 3e 1b 43 2f bd b1 ad 17 3e 0f 10 2f be
       0.24248706 -0.042788606 0.14812352 -0.1709597
0000f0 4b 0f 6d bc a0 4c 11 3e 90 19 a5 bd 77 e1 c3 3c
       -0.014468978 0.14189386 -0.08061516 0.023911221
000100 4b 7a 60 bc b9 12 c6 3c 35 90 0a bd 82 52 53 bd
       -0.013701032 0.02417885 -0.033828933 -0.051592357
000110 67 3d 17 bd 47 7b fe 3b 63 e8 b5 bc 52 21 fe 3b
       -0.036923792 0.0077661606 -0.022205537 0.007755437
000120 51 1d 67 bd c5 21 69 3d b7 30 de 3c 5e ce 08 3d
       -0.056424443 0.05691697 0.027122838 0.033399932
000130 15 7b 06 3d 39 9c 36 3c 33 d5 2c bd b9 b5 bf 3c
       0.032832224 0.011145645 -0.04219551 0.023402082
000140 d8 34 0e bd c4 cb 49 bd 9e 4b 06 3e b5 c9 42 bd
       -0.034718364 -0.04926659 0.13114783 -0.047555644
000150 87 cc ba 3d c9 2e e2 bd 35 b7 d9 3c d7 c5 0a 3d
       0.09121042 -0.1104408 0.026576618 0.03388008
000160 a0 71 5d be 03 f1 51 3e 84 45 d5 3c 65 9c a3 3c
       -0.21625376 0.20502095 0.026034124 0.019972036
000170 04 4c ac bc 82 e6 68 bb 24 0e c6 3c 72 7c f3 3c
       -0.02103234 -0.0035537784 0.024176665 0.029722426
000180 70 21 98 3c 62 ca 15 3d 2c 92 6f 3c 43 fa bc bd
       0.018570632 0.03656996 0.014622252 -0.09227421
000190 29 f2 75 bd 9d 49 81 bd 73 8d 71 3d 5e 32 e9 bd
       -0.060045395 -0.06312869 0.058972787 -0.1138656
0001a0 f1 00 83 3d a6 91 25 3e 9f 2f 0f be d3 ea 4c 3e
       0.06396664 0.16168842 -0.1398301 0.20011453
0001b0 7e d1 8b 3d cc ae 89 ba 90 50 0a bf dc 03 00 3e
       0.06827067 -0.0010504364 -0.5402918 0.12501472
0001c0 a8 a1 29 bf 42 6b 32 3e 83 ab 1c bd b2 cb 89 3d
       -0.6626229 0.17423728 -0.038249504 0.06728305
0001d0 27 97 55 3d 3f 5a cd bd 98 35 bc 3c 01 f4 28 be
       0.052146103 -0.10026979 0.022974774 -0.1649933
0001e0 ac 33 4d 3c 66 6d 6a 3d 7b 5b a0 bd c4 d4 2a be
       0.012524527 0.057233237 -0.078299485 -0.16682726
0001f0 f0 36 b2 bd 49 2d 91 be 02 75 f0 bd 27 b7 06 be
       -0.08701885 -0.28354862 -0.117410675 -0.13155805
000200 2b 09 a1 3c d3 5b b8 bd 2c 1c d3 bd 0c 2f 07 bc
       0.019657692 -0.09001889 -0.10308108 -0.008250963
000210 38 29 9a bd aa dd 39 be f4 e4 e1 bb 60 ba de bb
       -0.07527393 -0.18150964 -0.0068937484 -0.00679712
000220 2f ba 35 3d 15 0c 65 bd f6 6e 08 bd ad 5d d5 3c
       0.04436701 -0.055919725 -0.033308946 0.026045645
000230 4a 36 54 bd e2 7d be bd 2e 49 a4 3d 8f 2a 92 bc
       -0.051809587 -0.09301354 0.080217704 -0.01784256
000240 ab a9 e6 3c b4 bd 37 be 49 bc 9c 3e ac a4 a9 3c
       0.028157076 -0.1794346 0.306124 0.020708404
000250 78 be 15 3d e6 dd 92 bd 17 0d 08 bd 6b e2 32 bc
       0.0365586 -0.0717123 -0.03321561 -0.01091824
000260 04 7b 82 be 99 95 ca bd f1 8f b5 3d 41 d6 e2 bc
       -0.25484478 -0.09891815 0.08865345 -0.027690055
000270 82 08 9c bd e2 f3 da 3c 28 ed ab bd 6f 8a 95 be
       -0.0761881 0.02672762 -0.08394843 -0.2920718
000280 28 1a e1 3d 1b 62 fa 3c b3 da 10 3d d5 0b 10 bc
       0.10991317 0.030564358 0.035364818 -0.0087918835
000290 fd c4 98 bc 31 6a 68 3d 9a 2d e1 ba b2 4d ec 3c
       -0.018648619 0.056741897 -0.0017179728 0.028845642
0002a0 ef 99 17 3d a1 8a 2f 3b 43 84 e1 bb 3e 94 b4 bd
       0.037012037 0.002678551 -0.006882222 -0.088173375
0002b0 55 b4 43 3c 3b 4a 0b 3e 9c 3e 8b 3c 16 07 1a be
       0.01194485 0.13602535 0.016997628 -0.15041766
0002c0 d8 41 d9 3c 0c f0 82 3d 5d fd d2 3d 7a 2a 52 bc
       0.026520655 0.063934416 0.103022315 -0.01282751
0002d0 05 10 2d bd 15 83 9b 3c 80 f4 55 3d 97 b7 f6 3c
       -0.042251606 0.018983403 0.052235126 0.03011684
0002e0 f2 43 9d bd 5a d8 76 3d e3 b0 36 ba 95 49 8d bd
       -0.07678975 0.060264923 -0.0006969107 -0.068988
0002f0 2f e6 2b 3e 49 26 84 bd 15 c8 3b bd 23 09 fd bd
       0.16787027 -0.06452615 -0.04584511 -0.12355258
000300 c2 46 02 3d ea 87 30 3c d7 67 df 3c 11 5b d2 bc
       0.03180576 0.010774592 0.027271194 -0.02567819
000310 5c 6a 03 bd 3c 72 cb bd dc 13 18 be 6f 1a b1 3c
       -0.032083854 -0.09933898 -0.14851326 0.02161905
000320 02 76 68 bd 40 f3 a9 3d f5 84 0a 3e 48 d5 86 bd
       -0.056753166 0.082983494 0.13527282 -0.06583649
000330 57 99 1e 3d 58 d7 51 bd 09 a2 3d be bc 29 bf 3b
       0.038720455 -0.05123076 -0.18518843 0.0058338325
000340 75 58 eb 3d 09 f8 13 be b7 87 1e 3d 9b 5f 1c 3d
       0.11491481 -0.14450087 0.038703647 0.038177114
000350 d6 3d ff 3c cf 0c db 3d ee 6d bf bd d0 7a 49 3e
       0.031157415 0.106958024 -0.09347139 0.19675756
000360 ab 83 c8 3d 0b d1 5e bd fa d7 16 3b 19 c7 a8 ba
       0.09790739 -0.054398578 0.0023016916 -0.0012876719
000370 9f 9b d3 3b 0c 2d 94 bc 10 df 62 3d 28 7c 21 bd
       0.0064577605 -0.018087886 0.05538851 -0.039425045
000380 84 6f 17 be 63 95 6f bd 96 e0 0f be ed 9b 9e 3a
       -0.14788634 -0.058492076 -0.14050516 0.0012100913
000390 a4 ee 4e bd ae 5c 5a 3c 4c 6e d4 3d cc 39 56 bd
       -0.050520554 0.013327761 0.103726 -0.052301213
0003a0 a5 be 97 bd 13 b5 f0 3b c3 49 57 be 18 bb fc 3d
       -0.074094094 0.0073458045 -0.21024232 0.12340373
0003b0 87 a7 99 be 17 c4 a7 3d 3b d4 5b bd c2 15 da 3d
       -0.30010626 0.08191698 -0.053669196 0.10648681
0003c0 7b be 26 bd c1 ae 0d bd 72 a1 48 bd 38 c7 8c 3d
       -0.040709 -0.034590486 -0.04898209 0.068739355
0003d0 9c a4 9e 3d 1c 73 1a bc f1 81 8d ba 42 67 a7 3c
       0.077462405 -0.009426858 -0.0010796172 0.02043498
0003e0 25 48 8c bc 63 37 56 bc f9 14 97 bb 1f 95 4a bc
       -0.017124245 -0.013074729 -0.0046106544 -0.012364655
0003f0 e4 c6 8a 3d f3 3c 88 3d 6f 08 9b bd 8f 77 d3 bc
       0.067762166 0.0665225 -0.07569968 -0.025813846

res_conv1.2.bias f4 [32]
000000 b2 d1 03 be de 78 87 bc b4 53 84 bd 38 62 5e 3a
       -0.12872961 -0.016537126 -0.064612776 0.00084832637
000010 5d 2c db bd 3d a8 b5 ba af db 28 3d cd 12 18 be
       -0.10701821 -0.0013859343 0.04122513 -0.14850922
000020 ca 2b b8 3d c8 a2 a8 bd 60 99 61 3d 8a 2e 8b 3b
       0.08992727 -0.08234173 0.05507791 0.0042474912
000030 12 a9 95 bd 1c 8c ed 3c d0 9c 1e 3d a1 38 16 3d
       -0.07307638 0.028997473 0.038723767 0.0366751
000040 68 e4 7a bd 00 37 5a ba 30 b6 86 bc 01 30 bd 3d
       -0.06125298 -0.00083242357 -0.016444296 0.09237672
000050 d7 56 a9 bd 21 f0 45 bc 9f 99 23 be 24 43 c5 3c
       -0.082685165 -0.012081177 -0.1597657 0.024079867
000060 bf d4 8e bd ee 12 32 bf 03 73 5b bb 4f ba e1 3c
       -0.06974172 -0.69560134 -0.00334853 0.02755466
000070 f6 18 56 3d bf 6b ce be 8b 5e c4 bd 34 c7 16 be
       0.0522699 -0.4031658 -0.09588345 -0.14724427

conv.0.weight f4 [3, 32, 3, 3]
000000 2c 3e 69 3b 9c 52 ee bb a2 b7 85 3c 4a d3 2f 3d
       0.0035590036 -0.0072730314 0.016322915 0.04292611
000010 92 a0 95 bc 34 c6 97 b9 23 c6 50 3c 27 72 cd bc
       -0.018265042 -0.00028948637 0.012742552 -0.025078846
000020 d6 71 f9 ba 80 f3 9a bc 36 6e c7 bc b4 bd 64 bc
       -0.0019031118 -0.018914938 -0.024344545 -0.013961244
000030 de 1b 29 3c ec 88 a5 3c 7f 2f f1 bb 22 da 9b 3c
       0.010321585 0.020206891 -0.0073603983 0.019024912
000040 25 eb ea 3c 73 69 f8 3b c2 ba f7 bc 4c f1 39 3c
       0.028676579 0.00758093 -0.03024042 0.011349034
000050 25 f3 e9 3c 03 54 e6 bc a1 92 66 3c 26 8a 0a 3d
       0.028558323 -0.028116232 0.014073045 0.033823155
000060 27 8b 63 bc 54 6d 52 3c 32 6c aa 3b 8d 38 30 bb
       -0.013888157 0.012843449 0.005200886 -0.0026889176
000070 ac bb 5e 3c 18 fd e6 3a 78 0f 28 bd 23 db a9 3c
       0.013594549 0.0017623035 -0.041030377 0.020734375
000080 af 58 12 3c cb 04 c4 bb da f2 92 3c 58 45 c3 3a
       0.008932277 -0.0059820167 0.017938066 0.0014897985
000090 76 56 86 bc 74 eb 45 bc 7e 89 02 bb 05 21 92 bc
       -0.01639865 -0.012080062 -0.0019918378 -0.01783801
0000a0 5a 29 e7 bc cd 2a 64 bc 89 37 9d bb 74 ab 18 bc
       -0.02821796 -0.01392622 -0.00479788 -0.009318221
0000b0 e9 42 f8 bb 1a 8a be bb 93 5e cb bb 75 48 35 3a
       -0.0075763357 -0.005814803 -0.0062063425 0.0006915399
0000c0 e9 b1 21 bb 90 87 c7 bb 43 09 7e bb 6a a9 dd b9
       -0.0024672693 -0.0060891584 -0.0038762845 -0.00042278628
0000d0 4f b1 dd bb 1f b9 3f bb fe 78 ad bb 37 65 c4 bb
       -0.0067655216 -0.0029254628 -0.0052939644 -0.005993511
0000e0 a7 f7 1c 3b 54 8c 1d bb 12 79 a4 b8 5a e6 7d 3a
       0.0023951323 -0.002403994 -7.8426805e-05 0.0009685509
0000f0 5e 5a ba 3b 3a d4 b0 3b 81 af 59 3a ab 15 1a bd
       0.005687042 0.005396393 0.0008304045 -0.03761832
000100 8f 6c 25 bc a6 87 e0 ba e8 93 08 3e 5d 2a 2e 3d
       -0.010096683 -0.001713027 0.13337672 0.04252087
000110 83 a0 34 3c 2b 97 3b bd a0 34 91 3c 8d 40 6a bc
       0.011024597 -0.045798462 0.017725289 -0.014297617
000120 29 e7 40 3b ca c1 e0 3b b2 38 13 ba a3 be b8 bb
       0.0029434657 0.006859039 -0.0005616053 -0.00563796
000130 4b bb 4a bb ee 44 81 b9 2d 77 4b 3b 7f 02 5c 3c
       -0.003093439 -0.00024656154 0.0031046376 0.0134283295
000140 eb e0 9b 3b 93 1b 5e bb 3b 9e 4a 3d e2 d1 0f bb
       0.004757037 -0.0033890947 0.049467307 -0.0021945168
000150 2a 83 4c bc 5c 8c ec bc e1 08 bc 3a 6d eb 37 3a
       -0.012482444 -0.028875522 0.0014345908 0.0007015977
000160 ee e3 01 bd be 2a df 3b 45 28 16 3c 25 ae 1e 3c
       -0.03171151 0.006810515 0.009164874 0.009685074
000170 a3 eb 3b 37 1e 31 c6 b9 6a 95 7e b9 1f e5 3a 3b
       1.1200932e-05 -0.00037802098 -0.00024278989 0.0028517914
000180 c1 13 46 bb f1 d3 08 bc 61 75 3d bb fa 30 4b ba
       -0.0030224177 -0.008351312 -0.0028909075 -0.00077511335
000190 b3 5c 9b bb 4b 08 92 bb 4a 38 8a bb 41 e4 ea bb
       -0.004741275 -0.004456555 -0.004218136 -0.0071683233
0001a0 c6 de bb bb bc 5b f5 ba 60 4d 87 bb 8c f2 48 bb
       -0.005733344 -0.0018719356 -0.004129097 -0.0030662147
0001b0 ad e5 3a bb 8e cf 6a ba 2a 2e 14 3b 4e 89 6f bb
       -0.0028518245 -0.00089573197 0.0022610524 -0.0036550346
0001c0 ea 36 49 bb 38 aa 50 3b fb dd 03 bb a0 92 29 bb
       -0.0030702897 0.003183974 -0.0020121324 -0.0025874749
0001d0 72 72 ee 3a d3 12 0e bb 17 91 97 bb 39 f4 41 3b
       0.0018192066 -0.00216787 -0.0046254504 0.002959503
0001e0 18 f6 50 bc 2e de 9b ba e5 f9 4f 3c f4 7e 8d bb
       -0.012753986 -0.0011891776 0.012693857 -0.0043181125
0001f0 f6 55 c4 3b da 12 19 3c 87 68 25 bb 2f 08 61 3c
       0.0059916927 0.0093428735 -0.0025239305 0.013734861
000200 2b 3f 4b bc d9 10 63 39 78 3f 5e 3b b1 63 d1 bc
       -0.012405197 0.00021654683 0.0033912342 -0.025560232
000210 23 c7 a3 3a cb bb 0f 3c b7 34 00 bc 33 90 7f 3b
       0.001249526 0.008772801 -0.007825068 0.0038995862
000220 c8 c4 ae 3a 40 97 3e bb 15 d1 aa 3b d9 ab b6 3a
       0.0013333792 -0.0029081851 0.005212913 0.0013936713
000230 68 75 bd bb 54 ff 82 3b c3 20 9d 3a 26 3f 58 bb
       -0.005781818 0.0039977226 0.0011987913 -0.0032996624
000240 32 20 82 3b 42 38 b6 3b b7 ee 61 3b d4 7b 83 3b
       0.003971123 0.0055609057 0.003447456 0.004012564
000250 cf bb 99 3b e4 7a 54 3b 3c 32 a8 3b 4c 29 7c 3b
       0.004691578 0.0032421881 0.0051329415 0.0038476763
000260 59 9e 37 3b 86 76 cd 3c e1 97 10 bd 94 a2 23 bd
       0.0028017967 0.02508093 -0.035301093 -0.03994997
000270 5b 1d 04 3d a6 31 02 bd 7d 56 26 bd 14 13 ca 3c
       0.032254558 -0.03178563 -0.040609825 0.0246673
000280 7b a2 99 3b 42 16 86 ba b6 3b 5d b9 02 d2 e1 3a
       0.0046885586 -0.0010230022 -0.00021098446 0.0017228725
000290 c4 c4 73 bb 0e 75 e2 3b 75 d8 12 3c d2 9b 0c bc
       -0.003719614 0.0069109267 0.00896274 -0.008582072
0002a0 99 0b 61 3a 06 a0 26 3b 8b 98 19 3b 2a 2b 8e 3a
       0.0008584797 0.0025424971 0.002343687 0.0010846604
0002b0 43 82 d2 3b d3 cb 0e 3b 94 ec 1b 3a c6 bd 14 3c
       0.00642422 0.002178897 0.00059480336 0.009078449
0002c0 5d b2 ac 3a 2b 3c 42 3a 2f 6f ed 3b ce 35 28 3b
       0.0013175715 0.00074094784 0.00724592 0.0025666836
0002d0 b1 a3 40 bc 20 60 6b bd b9 bb 15 3b 3c 41 85 3d
       -0.011757777 -0.05746472 0.0022847487 0.06506583
0002e0 ad 94 bd be a2 c4 a7 3d 00 d3 01 bd 9f 02 b5 bc
       -0.37027493 0.081918016 -0.031695366 -0.022095976
0002f0 8d ab 23 bc bd 5c 0c 3b ab 66 a2 3b dc b5 31 bb
       -0.009989631 0.002141758 0.0049560866 -0.0027116453
000300 8b 2d 08 3b f6 0f de 3b 68 29 99 3a c8 b2 97 39
       0.00207791 0.006776805 0.0011685314 0.00028934167
000310 8c 7b be 3b b2 55 84 39 b5 1d 28 3c d4 25 80 bc
       0.005813068 0.0002524085 0.010260989 -0.015643038
000320 b3 e3 ed 3b 77 8d 03 bc bc e3 08 3d 7f 09 f4 bb
       0.00725981 -0.008029333 0.03342031 -0.007447421
000330 18 c1 00 bc 2a 8b 76 3c 7c c3 cf bb df 1b c1 3a
       -0.007858537 0.015047828 -0.006340442 0.0014733038
000340 b9 1c ab 3c 43 2f b4 3b b4 58 ba bb da 30 fd bc
       0.02088772 0.005498798 -0.005686844 -0.030907083
000350 2c e3 b6 3b e4 0b 2d bb d2 22 d7 bb af fd e6 3b
       0.00558128 -0.0026404792 -0.00656543 0.0070492844
000360 dd 2d 19 bc e3 b0 bb 3b 8a b4 a9 3b f4 30 1a bb
       -0.009349314 0.0057278736 0.0051789926 -0.0023527713
000370 de ce 5e 3c 90 03 ca 3b 69 83 43 3b 56 b7 bd 3a
       0.013599126 0.0061649755 0.0029832965 0.0014474194
000380 05 a6 74 bb 79 6a 9f 3b be 80 e4 bb 50 d5 22 bb
       -0.00373304 0.0048649875 -0.006973355 -0.0024846382
000390 d4 75 63 bc 2a 41 63 bc 35 4c 51 bb 8c 2b 83 3c
       -0.013883073 -0.013870517 -0.0031936292 0.016011976
0003a0 73 fe 0c 3b e4 b0 37 3b cc a2 d9 39 f5 5e 13 bc
       0.0021513968 0.002802902 0.00041510758 -0.0089948075
0003b0 50 4c 9a bb 77 50 4d bb 73 c9 35 bc 59 42 5d bb
       -0.004708804 -0.0031328478 -0.0110953925 -0.003376147
0003c0 a5 e4 ea bb c5 e0 f5 bb 72 5e 07 ba 85 68 e8 3b
       -0.00716837 -0.0075036013 -0.0005163915 0.007092538
0003d0 4b 7a 00 3c bd 89 d6 ba d1 96 ec bb a1 0e 86 3b
       0.007841657 -0.0016367954 -0.007220127 0.0040910994
0003e0 65 0c c8 3b 28 25 09 bc 48 92 de bb fd 7e 9a 3b
       0.006104993 -0.008370675 -0.0067923404 0.004714845
0003f0 b3 48 7d 3b 11 20 9a 3b 6e a0 93 3b 4e c2 64 bb
       0.0038648068 0.0047035296 0.0045052087 -0.0034905854

conv.0.bias f4 [3]
000000 c2 6b 95 ba fe 6f 13 3b c3 0f 77 3c
       -0.0011399912 0.0022497172 0.0150794415
