logs/Rain100H/PRN6/net_latest.pth (torch_old, 384596 bytes, 24 tensors)

conv0.0.weight f4 [32, 6, 3, 3]
0.047304098 -0.041269712 -0.12083105 0.05537245 -0.017394204 0.046020765 -0.11260418 -0.0829393
0.13744032 -0.0573479 -0.08350265 -0.06282112 -0.028281951 0.18323255 0.053442825 0.0842063
-0.02313842 -0.109594814 0.028546954 0.11651831 -0.14373705 -0.1718635 0.19555414 0.11417787
0.13429183 -0.17368403 0.016777677 0.041010804 -0.13484342 0.0975591 -0.11527401 -0.18846335
0.26798785 -0.09355984 -0.08282714 0.26392183 -0.03043878 0.018564826 -0.014848726 0.06484512
0.04946053 0.12335772 -0.1454878 -0.15556054 0.17637485 -0.041102618 -0.04740198 -0.06445714
-0.061045244 -0.020562487 0.2040517 0.00785276 -0.1665889 0.08080186 0.1289732 0.03564817
-0.0008019113 -0.034853157 0.0027330965 0.04224909 -0.08261597 -0.020249123 -0.079254046 0.021504266
0.076411374 0.051125854 -0.07307001 0.057888415 0.006210482 -0.007681944 -0.07818171 -0.048236012
-0.06592707 0.01079963 -0.078987874 0.007063812 -0.04113702 0.13863604 0.13478366 -0.0936977
-0.02581946 0.116489485 0.21285863 0.11868078 -0.13059263 -0.19016604 0.17243929 0.04730776
-0.27030757 -0.08244411 -0.0074423403 0.26947284 0.19257331 -0.00013690039 -0.15138155 0.16501702
-0.03042291 -0.26854736 -0.14269377 -0.06676737 0.16210751 0.0053795595 -0.12334122 -0.07880313
0.2807218 0.26080412 -0.25871718 -0.22437227 -0.22622298 -0.32093155 -0.05714474 0.05426429
0.14863484 0.009611479 0.003401158 0.022070073 0.06344527 -0.2876882 -0.2534044 0.09127808
-0.07264769 0.12880214 -0.15232328 0.06393121 -0.019236034 0.10641886 -0.085531875 -0.23388849
-0.042458743 -0.054768994 0.2264998 -0.042442974 0.100760445 0.036650665 0.06571855 -0.23296495
-0.017338822 -0.22328204 -0.024752425 0.060905535 -0.2615643 -0.08702023 -0.107718535 0.1295632
-0.0072944267 -0.13550508 0.0123610785 0.07863532 0.11818953 -0.13707693 -0.018686857 -0.09208342
0.05594141 -0.12824006 0.17856467 0.03554749 -0.0032879864 0.23851068 -0.11093346 -0.034005158
-0.25289318 -0.043888263 0.17590375 0.0986469 -0.016718267 0.13038519 0.09729898 -0.078848034
-0.008855951 -0.019989979 -0.025866771 -0.08123481 0.112058915 0.024163453 -0.070444696 -0.14801829
-0.06408241 0.0045847027 0.016240241 0.01436841 -0.08732493 -0.037993412 0.101076744 -0.13078801
0.042343434 -0.048082158 0.055091955 -0.07116242 0.070546344 -0.068584725 0.05576934 0.015829174
-0.09672641 -0.04920755 -0.11624929 -0.045089513 0.04589178 0.023511661 -0.15879677 -0.026465895
0.25980467 -0.22307256 0.11912473 0.31891006 -0.23823398 0.0008512289 0.05148411 -0.28698584
0.11263055 0.33883333 -0.08856565 0.040939894 0.09460786 -0.1272325 -0.18549612 0.21822803
-0.0999116 -0.02338204 -0.096608385 -0.15559323 -0.3060855 -0.15910617 -0.03194836 0.039071385
-0.1901244 0.1993036 0.03614633 0.1699623 -0.053215913 0.05270522 0.012624291 0.03030444
0.2548578 0.0075894813 0.04040869 -0.033269174 0.12605447 -0.045032762 -0.084041595 0.117713645
0.14823638 0.012699683 0.06177429 -0.23032624 0.13645378 -0.37181193 -0.59836704 -0.6304879
-0.90637046 -0.3623611 0.2634763 -0.29504615 0.11502598 0.04420026 -0.1208774 -0.08691305
00000000: f1c1 413d 6e0a 29bd 4576 f7bd 39ce 623d
00000010: 4a7e 8ebc 4580 3c3d 059d e6bd 14dc a9bd
00000020: 28bd 0c3e a2e5 6abd 7003 abbd 5ca8 80bd
00000030: 8daf e7bc 50a1 3b3e dde6 5a3d 5a74 ac3d
00000040: c98c bdbc 3f73 e0bd 4ddb e93c 27a1 ee3d
00000050: ce2f 13be fcfc 2fbe 583f 483e 16d6 e93d
00000060: cc83 093e 3ada 31be 5771 893c f2fa 273d
00000070: 6514 0abe 11cd c73d c814 ecbd 89fc 40be
00000080: b435 893e 4d9c bfbd 47a1 a9bd c320 873e
00000090: c05a f9bc 4315 983c 1248 73bc 85cd 843d
000000a0: 2097 4a3d f9a2 fc3d c1fa 14be 434b 1fbe
000000b0: 9c9b 343e 385b 28bd 9428 42bd 1b02 84bd
000000c0: 940a 7abd a972 a8bc eef2 503e dda8 003c
000000d0: 4896 2abe 727b a53d 8d11 043e d103 123d
000000e0: 5b37 52ba 2fc2 0ebd c01d 333b 620d 2d3d
000000f0: 9032 a9bd 7de1 a5bc f24f a2bd b729 b03c
00000100: 917d 9c3d 5869 513d bba5 95bd 671c 6d3d
00000110: 4d81 cb3b d1b8 fbbb bb1d a0bd 2093 45bd
00000120: c604 87bd eef0 303c 65c4 a1bd 8d77 e73b
00000130: 4b7f 28bd 9bf6 0d3e ba04 0a3e 94e4 bfbd
00000140: 5583 d3bc 0a92 ee3d 9df7 593e e90e f33d
00000150: 13ba 05be e3ba 42be ed93 303e c8c5 413d
00000160: c165 8abe 75d8 a8bd e0de f3bb 58f8 893e
00000170: f031 453e eb8c 0fb9 c403 1bbe 39fa 283e
00000180: 7739 f9bc 0a7f 89be 511e 12be 55bd 88bd
00000190: 83ff 253e 0447 b03b 529a fcbd 8963 a1bd
000001a0: c5ba 8f3e 1e88 853e 9476 84be d8c1 65be
000001b0: ffa6 67be 2451 a4be 9a10 6abd 3b44 5e3d
000001c0: bb33 183e 7779 1d3c f6e5 5e3b 4ccc b43c
000001d0: 98ef 813d de4b 93be 39be 81be 01f0 ba3d
000001e0: 50c8 94bd b5e4 033e a2fa 1bbe 5eee 823d
000001f0: e394 9dbc 22f2 d93d 562b afbd 7780 6fbe
00000200: 38e9 2dbd 7455 60bd 90ef 673e afd8 2dbd
00000210: 7e5b ce3d 021f 163d 7297 863d 5d8e 6ebe
00000220: 250a 8ebc 0ca4 64be 99c5 cabc 1578 793d
00000230: c2eb 85be aa37 b2bd 899b dcbd 37ac 043e
00000240: 1606 efbb d8c1 0abe 1f86 4a3c 8e0b a13d
00000250: 5a0d f23d e55d 0cbe 2e15 99bc 3b96 bcbd
00000260: d222 653d 5d51 03be a8d9 363e 3f9a 113d
00000270: 427b 57bb 253c 743e 1531 e3bd fe48 0bbd
00000280: 377b 81be 2ec4 33bd 1d20 343e 6307 ca3d
00000290: bff4 88bc b283 053e b044 c73d 147b a1bd
000002a0: 8d18 11bc 06c2 a3bc 8de6 d3bc 705e a6bd
000002b0: 257f e53d 6ff2 c53c 4f45 90bd 1b92 17be
000002c0: a33d 83bd 463b 963b 410a 853c 7b69 6b3c
000002d0: 6ad7 b2bd fb9e 1bbd 5301 cf3d 4bed 05be
000002e0: 4f70 2d3d ccf1 44bd 1aa8 613d 9abd 91bd
000002f0: 9a7a 903d 2676 8cbd 646e 643d 2fac 813c
00000300: 7f18 c6bd db8d 49bd 1c14 eebd c8af 38bd
00000310: 05f9 3b3d 879b c03c 9f9b 22be 01cf d8bc
00000320: 1e05 853e 226d 64be abf7 f33d 2e48 a33e
00000330: 9cf3 73be 0125 5f3a 01e1 523d cfef 92be
00000340: d9aa e63d 907b ad3e e861 b5bd 97b0 273d
00000350: c4c1 c13d 3d49 02be b2f2 3dbe 2b77 5f3e
00000360: 749e ccbd b18b bfbc 9eda c5bd d553 1fbe
00000370: 3db7 9cbe baec 22be 49dc 02bd 5109 203d
00000380: f9af 42be 3e16 4c3e 2d0e 143d 990a 2e3e
00000390: eef8 59bd 6ee1 573d 1dd6 4e3c 0441 f83c
000003a0: b97c 823e 2fb1 f83b 9583 253d 4245 08bd
000003b0: 6c14 013e 4674 38bd 001e acbd da13 f13d
000003c0: 47cb 173e 5512 503c 0a07 7d3d a4da 6bbe
000003d0: 8aba 0b3e 225e bebe 952e 19bf a867 21bf
000003e0: e507 68bf 6587 b9be 5ee6 863e 4a10 97be
000003f0: be92 eb3d 550b 353d 928e f7bd 78ff b1bd

conv0.0.bias f4 [32]
0.029726768 -0.0169526 0.070784725 0.028712498 0.16263093 -0.011102338 0.11083932 -0.16189267
0.11280717 0.036554486 0.043318387 0.072565004 -0.0076931226 0.05245001 -0.09670039 0.05480845
0.06921391 -0.00076947117 -0.0077127265 0.0118140085 0.030019607 0.025646733 0.048384324 0.032244526
-0.02155847 0.015416795 0.07679525 -0.13927796 0.021910662 -0.0005425662 0.020497717 0.12673013
00000000: 8d85 f33c 2ee0 8abc 95f7 903d 7936 eb3c
00000010: b988 263e 95e6 35bc baff e23d 31c7 25be
00000020: 7207 e73d 28ba 153d 9f6e 313d f69c 943d
00000030: 9716 fcbb d2d5 563d db0a c6bd d37e 603d
00000040: 06c0 8d3d 56b6 49ba 0abb fcbb 8b8f 413c
00000050: aeeb f53c 1919 d23c a42e 463d d612 043d
00000060: 639b b0bc ba96 7c3c d446 9d3d e29e 0ebe
00000070: fd7d b33c 003b 0eba d4ea a73c 8bc5 013e

res_conv1.0.weight f4 [32, 32, 3, 3]
0.019405527 -0.6412007 0.15430275 0.06174245 -0.7553333 0.09550587 0.08300544 -0.30629268
0.19300106 0.16092885 -0.21375169 -0.10826251 -0.0016027533 -0.0016716686 -0.10311548 -0.09401428
0.07837657 0.048679344 0.07010895 0.50814784 0.25638065 -0.36840016 -0.34094697 -0.13378447
-1.1582642 -1.4133605 0.2042123 0.030099126 -0.0032676815 -0.013293833 0.03284356 -0.13050978
0.053896174 -0.06577866 -0.24263653 0.17639883 0.033725765 -0.18786992 -0.96503896 0.17412566
0.015328419 -1.0321884 0.160613 0.25812033 -0.9028499 0.13189043 -0.25451553 0.21079765
0.15016478 -0.41752726 0.15529776 0.13644281 -0.30362874 0.12443854 0.14091732 0.0929609
-0.34184384 0.1528508 0.06616155 -0.13035479 0.15542398 0.057983857 0.030017184 -0.034262132
0.0006357459 0.014864928 0.03984614 -0.008908707 -0.03793799 0.050402056 0.04856546 0.0014615767
0.082180314 0.08670736 -0.20822372 0.01378894 0.06687884 -0.17382318 0.006558803 0.13228796
-0.16926992 -0.049966678 0.1446178 -0.11569113 -0.034191962 0.17422052 -0.04568901 0.11989789
0.11653093 -0.09303908 0.056433585 -0.026812466 0.12054642 0.11936621 -0.0084913755 0.027388725
0.11949507 0.0300799 0.030608749 -0.2265777 -0.013070193 -0.15907332 -0.19505036 -0.011345552
-0.16669166 -0.10163614 -0.02738535 -0.018398466 -0.18365738 0.07056836 -0.22637615 -0.20585401
0.013569746 -0.10245376 -0.24457052 -0.009164314 -0.08140603 -0.12366715 -0.035085954 0.14059608
-0.010082966 -0.117857575 0.18038827 -0.11488108 -0.15485862 0.097849794 0.08413036 -0.0006289
-0.19615857 0.10765288 0.046137113 -0.035760976 0.060761977 0.02112696 -0.0054924116 0.037990753
-0.059650473 0.036894914 0.0015082071 -0.0064311614 0.15634558 -0.024823647 0.057096604 0.06370087
-0.20907103 -0.9522193 -0.3111645 0.0028698808 -0.6957658 -0.34416538 0.10738841 -0.71051395
-0.2017208 0.06344351 -0.20487133 -0.30246264 0.25959814 -0.14058703 -0.4257148 0.36222023
0.1542422 -0.0706805 -0.06815782 -0.022120534 -0.052755833 -0.034998596 -0.06721032 0.043857545
0.10704106 0.024523724 0.13614084 -0.03923721 0.10436121 -0.25001532 0.0024451495 0.14329703
-0.22085282 0.041866407 0.15333718 -0.12847336 0.03698277 -0.24033551 0.11459096 0.12773478
-0.21763124 0.077778645 0.010397599 -0.13287933 -0.04474455 0.09254641 -0.36174256 0.04536248
0.033443812 -0.6542354 0.05466091 0.06274169 -0.22514856 0.07216189 -0.088457674 0.0609742
0.02769469 0.02736176 -0.024789643 -0.07230334 0.2617963 -0.081520356 0.02635775 -0.028838545
-0.06560018 -0.08921369 0.07735969 -0.02641252 -0.0013248768 0.015023787 0.044498798 0.055232897
0.0715044 0.34681043 -0.053186376 -0.086445995 -0.31976706 0.029606298 -0.13896865 -0.22751938
0.25805846 0.033942256 0.19023971 -0.013547445 0.046772536 0.14997779 -0.12616669 -0.070280634
0.12420885 -0.03987131 0.07639441 0.1043038 -0.13031495 -0.019035175 0.14417788 -0.17420405
-0.08971208 0.11126934 -0.22926608 0.031209072 0.053878635 -0.034587067 -0.013152203 0.013730898
0.017323313 -0.05180811 -0.0022256314 -0.11323314 0.28936422 -0.56660473 0.10562526 0.010838954
00000000: 57f8 9e3c bb25 24bf 8a01 1e3e a7e5 7c3d
00000010: 865d 41bf 9598 c33d c2fe a93d 65d2 9cbe
00000020: 12a2 453e 88ca 243e b9e1 5abe bcb8 ddbd
00000030: 7a13 d2ba e41b dbba 352e d3bd 8f8a c0bd
00000040: e583 a03d fe63 473d 4895 8f3d fa15 023f
00000050: 5344 833e f29e bcbe 9a90 aebe ccfe 08be
00000060: 0042 94bf ffe8 b4bf 071d 513e 7192 f63c
00000070: 9926 56bb 60ce 59bc f886 063d 5ba4 05be
00000080: 3cc2 5c3d f6b6 86bd b675 78be e5a1 343e
00000090: 0724 0a3d f960 40be cb0c 77bf ff4d 323e
000000a0: 0d24 7b3c c01e 84bf bc77 243e 5928 843e
000000b0: 2c21 67bf 490e 073e dc4f 82be 57db 573e
000000c0: ccc4 193e 22c6 d5be 6006 1f3e aab7 0b3e
000000d0: 3a75 9bbe a2d9 fe3d a14c 103e 4962 be3d
000000e0: 2806 afbe ec84 1c3e b57f 873d ba7b 05be
000000f0: 7727 1f3e 7b80 6d3d 99e6 f53c 7356 0cbd
00000100: 2fa8 263a 078c 733c b535 233d d3f5 11bc
00000110: de64 1bbd 6372 4e3d 93ec 463d 6092 bf3a
00000120: 274e a83d a193 b13d 9938 55be 02eb 613c
00000130: c6f7 883d b4fe 31be 3aeb d63b 7f76 073e
00000140: 1855 2dbe dca9 4cbd b016 143e 79ef ecbd
00000150: df0c 0cbd dd66 323e 6624 3bbd 068d f53d
00000160: c5a7 ee3d 468b bebd e726 673d d1a5 dbbc
00000170: 0be1 f63d 4676 f43d 691f 0bbc 525e e03c
00000180: d5b9 f43d 1f6a f63c 33bf fa3c fc03 68be
00000190: 5d24 56bc 1ee4 22be 48bb 47be b2e2 39bc
000001a0: 38b1 2abe 9c26 d0bd 3e57 e0bc 61b8 96bc
000001b0: ae10 3cbe 2586 903d 26cf 67be 65cb 52be
000001c0: a453 5e3c 47d3 d1bd b270 7abe eb25 16bc
000001d0: 34b8 a6bd 3445 fdbd 4ab6 0fbd 6bf8 0f3e
000001e0: 0633 25bc 505f f1bd b4b7 383e c646 ebbd
000001f0: 4293 1ebe 7965 c83d 8a4c ac3d c4dc 24ba
00000200: cbdd 48be 1d79 dc3d 45fa 3c3d 1a7a 12bd
00000210: 8de1 783d 7212 ad3c b0f9 b3bb 319c 1b3d
00000220: 0e54 74bd 1f1f 173d 08af c53a 7ebc d2bb
00000230: 0e19 203e f65a cbbc 21de 693d 9a75 823d
00000240: b716 56be a5c4 73bf f450 9fbe 9c14 3c3b
00000250: b51d 32bf 7236 b0be 74ee db3d 3ee4 35bf
00000260: e68f 4ebe acee 813d cac9 51be 62dc 9abe
00000270: 0cea 843e 0cf6 0fbe 4af7 d9be ee74 b93e
00000280: abf1 1d3e f0c0 90bd 5496 8bbd 1f36 b5bc
00000290: 8016 58bd b05a 0fbd 90a5 89bd f8a3 333d
000002a0: 5838 db3d fae5 c83c 8168 0b3e 32b7 20bd
000002b0: 54bb d53d 0202 80be cd3e 203b 75bc 123e
000002c0: 3e27 62be 1c7c 2b3d 6c04 1d3e 858e 03be
000002d0: 3f7b 173d 831a 76be aaae ea3d e8cc 023e
000002e0: b9da 5ebe 694a 9f3d b15a 2a3c 8511 08be
000002f0: 1046 37bd f988 bd3d 5236 b9be 02ce 393d
00000300: 61fc 083d f97b 27bf 1ee4 5f3d b77e 803d
00000310: 588d 66be 9dc9 933d 4c29 b5bd 15c0 793d
00000320: f9df e23c c525 e03c a613 cbbc c613 94bd
00000330: 2a0a 863e 25f4 a6bd 35ec d73c d03e ecbc
00000340: 6359 86bd abb5 b6bd c26e 9e3d 125f d8bc
00000350: 7da7 adba 5426 763c 5f44 363d e43b 623d
00000360: e670 923d 2391 b13e f5d9 59bd 990a b1bd
00000370: 82b8 a3be e888 f23c cc4d 0ebe d7fa 68be
00000380: 3d20 843e 0907 0b3d 33ce 423e 1af6 5dbc
00000390: 8f94 3f3d c793 193e d731 01be 4bef 8fbd
000003a0: 3661 fe3d 1950 23bd ac74 9c3d 3b9d d53d
000003b0: 4871 05be a8ef 9bbc 5ea3 133e 8c62 32be
000003c0: f8ba b7bd 2ee1 e33d bac4 6abe 2baa ff3c
000003d0: d8af 5c3d 2bab 0dbd 567c 57bc 8ff7 603c
000003e0: 9fe9 8d3c be34 54bd e6db 11bb c7e6 e7bd
000003f0: 8c27 943e 020d 11bf 0e52 d83d de95 313c

res_conv1.0.bias f4 [32]
-0.016182179 0.053096004 -0.017699864 -0.044395495 -0.084697284 0.0041742427 0.010498737 0.018447604
0.11968599 0.04577087 -0.33390114 -0.05997172 0.022226224 0.00515666 -0.014296955 -0.03744622
0.00725664 -0.077528775 -0.04915253 -0.06483647 0.02105952 0.015528298 -0.34748605 0.060689595
-0.046363205 0.014161964 0.07625519 -0.010916843 -0.081675604 -0.051007222 -0.018902555 -0.062509336
00000000: 7d90 84bc 327b 593d 4eff 90bc 0dd8 35bd
00000010: c575 adbd 16c8 883b e502 2c3c 6e1f 973c
00000020: ee1d f53d 3c7a 3b3d 17f5 aabe e8a4 75bd
00000030: c513 b63c 33f9 a83b c73d 6abc 3561 19bd
00000040: 1cc9 ed3b 68c7 9ebd 2a54 49bd fcc8 84bd
00000050: 0485 ac3c 676a 7e3c b1e9 b1be a795 783d
00000060: 58e7 3dbd 9507 683c ae2b 9c3d 8fdc 32bc
00000070: 8a45 a7bd f3ec 50bd 88d9 9abc e504 80bd

res_conv1.2.weight f4 [32, 32, 3, 3]
0.008022189 -0.109146945 -0.15985925 0.086534336 0.027611822 -0.30334094 0.08973465 0.17696168
-0.28947353 -0.028706191 0.025546983 -0.025913069 0.098864526 0.054007955 0.050429553 -0.054238025
-0.10120753 0.0156076485 -0.13004138 0.010536782 -0.061633393 -0.18210106 -0.036322292 -0.18603341
-0.026943944 0.034338195 -0.016317131 -0.027827209 -0.035278235 0.051230624 0.021041099 -0.011657057
-0.08707228 0.020962222 0.027902469 0.09711988 0.037142552 -0.029214567 0.10475745 -0.0440641
0.021207782 -0.06937067 0.116561145 0.07429122 0.019187786 -0.026673337 -0.020301796 -0.0148575585
-0.07194442 0.003206891 -0.08228076 0.12236471 0.08568026 0.06789631 0.026438536 -0.01991298
0.020837668 -0.033099763 0.0032166946 0.004147716 0.104491845 0.2150039 0.12149144 0.044596784
0.07703132 0.032684073 0.047258798 -0.02168571 0.08089895 0.0026636538 -0.047126655 0.08852599
0.10771876 0.047207873 -0.26772708 0.08231788 0.07557862 -0.15032257 0.065576255 0.15724844
-0.1179829 -0.09134867 -0.0020546175 -0.12893102 -0.24948461 -0.29135424 -0.3278463 -0.033190887
-0.060041282 -0.1952683 -0.044391073 -0.056481775 -0.018810427 0.004019594 -0.09223237 0.09325628
0.043771558 0.094984025 -0.036667943 -0.08207778 -0.08872072 -0.0011947837 0.059303205 0.15922873
0.0291779 -0.04806975 -0.0869401 -0.046508588 0.010706733 -0.021160139 0.13513489 0.047962487
-0.054323707 0.018884094 -0.064022005 -0.07575214 -0.027307251 0.008512447 0.04009051 -0.052932993
-0.041298337 0.11335063 0.027847368 -0.26206943 -0.15471369 0.009226696 -0.10829947 0.012011421
-0.08634099 0.06251417 0.15248567 0.0111296475 0.059957653 -0.057759903 -0.01460587 -0.032917053
0.004487615 0.015994854 0.041411873 0.05124427 0.010028657 0.03786713 -0.030008424 0.062364567
0.065410845 -0.101460785 0.01597507 0.059937 -0.24646074 -0.02027518 -0.010910062 0.18520759
-0.00037184247 0.08529596 0.013662534 0.08301725 -0.08019512 0.04218034 -0.1192775 -0.09795505
-0.2265644 0.028256685 0.019079227 -0.052748527 0.06223065 0.014890851 0.0204866 0.052249383
-0.040774595 -0.04909788 0.06338548 -0.09085044 0.029755075 0.11663933 -0.07057167 -0.14192435
-0.032648448 -0.0032103716 0.109083466 -0.05181473 -0.030775247 0.004354495 0.08052866 0.1532979
-0.09014671 0.00988225 0.05391156 -0.11243984 0.020591088 -0.00506133 0.053270634 0.012605361
-0.04302135 -0.029979564 0.014667009 -0.045219857 -0.0010266203 -0.016675405 0.008494435 -0.041213024
-0.01617761 -0.03376766 -0.021196816 0.060243394 -0.027917909 -0.08300257 0.20137702 0.09098509
0.055153165 0.052859742 0.025196811 -0.03575529 0.029245792 -0.12900795 -0.084038645 -0.047960743
0.02811262 0.01725314 0.07940508 -0.009521904 -0.040916394 -0.0077822893 -0.049059328 -0.07132235
0.02523011 -0.038802586 0.031189904 0.034628186 -0.02494375 -0.020899422 -0.097080044 -0.02040411
0.060669683 0.008724451 -0.020222187 -0.12981246 0.029921483 -0.08502691 0.075527735 0.09129647
0.12128853 -0.25036463 0.033705164 0.059907135 -0.11643873 0.25039157 -0.05288769 -0.14090809
0.056941055 -0.002364549 0.07208581 -0.23747039 0.102178566 0.022492025 0.057253025 -0.015605217
00000000: 806f 033c 6f88 dfbd 25b2 23be ea38 b13d
00000010: 3032 e23c 814f 9bbe cdc6 b73d 7135 353e
00000020: e035 94be 3f29 ebbc e847 d13c a547 d4bc
00000030: 7c79 ca3d 7237 5d3d 388f 4e3d b128 5ebd
00000040: e545 cfbd 39b7 7f3c 9129 05be 78a2 2c3c
00000050: 4c73 7cbd b378 3abe afc6 14bd 8b7f 3ebe
00000060: 8cb9 dcbc 35a6 0c3d 81ab 85bc e3f5 e3bc
00000070: e97f 10bd 34d7 513d 625e ac3c 3efd 3ebc
00000080: f452 b2bd f7b8 ab3c b893 e43c cae6 c63d
00000090: ca22 183d 6353 efbc 138b d63d 8f7c 34bd
000000a0: f1bb ad3c 3612 8ebd 9cb7 ee3d ff25 983d
000000b0: b42f 9d3c 0b82 dabc f44f a6bc 1e6d 73bc
000000c0: 9957 93bd b42a 523b d182 a8bd 599a fa3d
000000d0: 2279 af3d 380d 8b3d a195 d83c 8c20 a3bc
000000e0: c2b3 aa3c 9e93 07bd 2ecf 523b 90e9 873b
000000f0: d2ff d53d fb29 5c3e 81d0 f83d 1eab 363d
00000100: 99c2 9d3d bcdf 053d 7192 413d 3ba6 b1bc
00000110: 59ae a53d b290 2e3b e107 41bd 1d4d b53d
00000120: a79b dc3d 0b5d 413d 8613 89be 4796 a83d
00000130: f7c8 9a3d 29ee 19be d84c 863d bc05 213e
00000140: 05a1 f1bd 0315 bbbd c3a6 06bb 7e06 04be
00000150: e578 7fbe 622c 95be 78db a7be 2bf3 07bd
00000160: d9ed 75bd 6af4 47be 6ad3 35bd 6f59 67bd
00000170: 5318 9abc ccb6 833b 53e4 bcbd 26fd be3d
00000180: ce49 333d fc86 c23d 2031 16bd 6518 a8bd
00000190: 35b3 b5bd 4a9a 9cba ebe7 723d db0c 233e
000001a0: 7e06 ef3c c9e4 44bd a70d b2bd ca7f 3ebd
000001b0: 4b6b 2f3c 0758 adbc cd60 0a3e 5074 443d
000001c0: 8982 5ebd d1b2 9a3c f81d 83bd f023 9bbd
000001d0: 75b3 dfbc ca77 0b3c f235 243d 44d0 58bd
000001e0: 7228 29bd 6024 e83d 2a20 e43c f72d 86be
000001f0: 446d 1ebe 912b 173c 1dcc ddbd 8dcb 443c
00000200: 8cd3 b0bd 6e07 803d 3425 1c3e 2059 363c
00000210: 2896 753d a695 6cbd 754d 6fbc 08d4 06bd
00000220: d80c 933b a407 833c 7f9f 293d 83e5 513d
00000230: 3c4f 243c 901a 1b3d 3ad4 f5bc fd71 7f3d
00000240: 1ff6 853d acca cfbd 26de 823c 8080 753d
00000250: 3460 7cbe 2218 a6bc 1ec0 32bc 0fa7 3d3e
00000260: daf3 c2b9 a6af ae3d d2d8 5f3c f304 aa3d
00000270: 573d a4bd 4bc5 2c3d c347 f4bd a89c c8bd
00000280: 8000 68be 907a e73c 0a4c 9c3c d70e 58bd
00000290: 91e5 7e3d c2f8 733c 84d3 a73c 7303 563d
000002a0: 4303 27bd dc1a 49bd 3fd0 813d cc0f babd
000002b0: eac0 f33c 9ae0 ee3d e187 90bd 9e54 11be
000002c0: 61ba 05bd 1965 52bb 2767 df3d af3b 54bd
000002d0: 5f1c fcbc 27b0 8e3b 36ec a43d 20fa 1c3e
000002e0: d79e b8bd 29e9 213c 5ed2 5c3d dc46 e6bd
000002f0: a4ae a83c 83d9 a5bb 4f32 5a3d b786 4e3c
00000300: 2837 30bd b497 f5bc e54d 703c 7538 39bd
00000310: a98f 86ba dc9a 88bc 3e2c 0b3c fdce 28bd
00000320: e886 84bc f54f 0abd f2a4 adbc c7c1 763d
00000330: 19b4 e4bc 40fd a9bd c735 4e3e 6456 ba3d
00000340: 49e8 613d 7583 583d 8b69 ce3c 2474 12bd
00000350: df94 ef3c a91a 04be 741c acbd 7c72 44bd
00000360: 704c e63c 7556 8d3c 219f a23d c301 1cbc
00000370: f397 27bd 9302 ffbb 6ff2 48bd 7411 92bd
00000380: 60af ce3c 76ef 1ebd f881 ff3c 49d6 0d3d
00000390: d656 ccbc 4435 abbc e7d1 c6bd 8526 a7bc
000003a0: c680 783d 00f1 0e3c 00a9 a5bc 8fed 04be
000003b0: e61d f53c 9722 aebd 49ae 9a3d a5f9 ba3d
000003c0: 1f66 f83d cb2f 80be 6d0e 0a3d 2f61 753d
000003d0: 6e77 eebd 5333 803e c3a0 58bd 364a 10be
000003e0: 063b 693d 8df6 1abb baa1 933d 702b 73be
000003f0: ff42 d13d 3241 b83c 2682 6a3d 06ad 7fbc

res_conv1.2.bias f4 [32]
0.024641564 0.0033443442 0.050935656 -0.022567445 -0.080846205 -0.0028916155 0.07282302 -0.04439804
-0.099043384 -0.027453663 0.016894192 -0.012793261 -0.036792897 0.0077823577 0.019189805 -0.068234436
-0.025338296 -0.041025702 -0.034752544 -0.028201642 -0.019524112 -0.040493716 -0.12777987 -0.017594548
0.006299661 -0.09514488 0.06820398 -0.05896441 -0.0052122767 -0.012552482 -0.10261736 -0.023965579
00000000: 1bdd c93c c92c 5b3b e8a1 503d 5ddf b8bc
00000010: b292 a5bd 4281 3dbb 3c24 953d b8da 35bd
00000020: 42d7 cabd 81e6 e0bc b065 8a3c d39a 51bc
00000030: 26b4 16bd 2603 ff3b f033 9d3c 7fbe 8bbd
00000040: 4292 cfbc 910a 28bd af58 0ebd 2107 e7bc
00000050: 08f1 9fbc bddc 25bd bad8 02be 7122 90bc
00000060: 636d ce3b 52db c2bd 87ae 8b3d aa84 71bd
00000070: bfcb aabb eda8 4dbc 0d29 d2bd 7653 c4bc

res_conv2.0.weight f4 [32, 32, 3, 3]
0.11266184 -0.33769518 0.0039610798 0.059521556 -0.34865502 0.20363885 -0.1083944 0.103173
0.025764205 -0.09242056 0.040630363 -0.12794805 0.049539793 0.09710254 -0.07695349 0.02668822
-0.058074955 -0.039767098 -0.08045382 -0.30189648 0.08587613 -0.30874795 0.119063735 0.009531607
-0.42778248 -0.010118742 0.047901858 -0.10011733 0.0511131 0.1158037 -0.055010576 0.063956834
0.07713569 0.00021546223 0.068656154 -0.015156166 0.14196448 0.10475577 -0.009484825 0.02344545
-0.2038985 -0.021574324 0.13816833 0.09514634 0.1756207 0.033729263 0.121892706 -0.4347139
-0.0029046207 -0.20432249 0.06460466 -0.009701381 -0.29955867 0.0957054 -0.23995021 -0.106829196
-0.23507878 0.13038804 0.05928425 0.11583875 0.08413169 0.07276379 -0.07398876 -0.3803306
-0.124164045 -0.17070031 -0.5025428 -0.3195148 -0.3083786 -0.57187575 -0.7264036 -0.32380837
-0.100022905 0.17158772 -0.08963573 0.024894178 0.14418305 -0.1622247 0.09198989 -0.006181507
-0.14811888 0.21143344 -0.06235624 0.09766189 0.020579828 -0.14777327 0.108179696 0.055656306
-0.04724352 0.11216239 -0.18081184 0.07769088 -0.18295819 -0.0091062095 0.07457729 -0.11659553
0.094692245 -0.17327587 0.25557446 0.10287918 0.07652769 0.0085333595 0.11869257 0.11064929
-0.2853674 0.18812437 0.12147671 -0.64472437 -0.11453584 0.16124202 0.10459335 -0.080362454
0.032132793 0.14229164 0.008482538 -0.016620247 0.0806955 -0.0076453686 0.012252241 -0.088046454
0.014881016 -0.07022281 0.017669953 0.080483444 -0.049340513 0.03186382 0.11888722 -0.021443123
-0.061975114 -0.00015975167 -0.013776439 -0.14325519 -0.08900042 -0.0979527 -0.23749658 -0.10502064
0.05110669 0.2809905 0.02182498 0.22528514 -0.115693904 0.042410087 0.1975423 0.034792274
-0.17989096 0.10048878 0.09123603 -0.084013894 0.1179749 -0.021924088 -0.090444826 0.07393697
0.06505187 -0.0457601 0.30937654 -0.5160351 -0.15456231 0.18866248 -0.23143223 -0.06664162
0.23164 -0.15549469 -0.08838729 -0.09555633 0.018641187 0.014255467 -0.17267454 0.069646575
-0.060044542 0.28372407 -0.31437135 0.03847396 -0.030685559 0.03412215 0.021999117 0.04682463
0.016487382 0.039715253 -0.037208483 0.022224765 0.19491737 -0.018275097 -0.17148203 0.111329295
-0.07751658 0.010970492 0.07919124 -0.073694065 0.11464642 -0.0026748262 0.13355759 -0.06425211
0.10893631 -0.19852982 -0.09810626 0.060162093 0.050358567 -0.030560445 0.024829533 -0.09511683
0.008756186 0.0041793273 -0.048276205 0.05826424 -0.012462981 -0.10781272 -0.028041719 0.13691844
0.03574015 -0.24625342 0.06966834 0.07190315 -0.29568565 0.10164264 0.081530906 -0.24712238
0.03103286 0.1830132 -0.054597955 -0.02278745 0.122850224 0.06311272 -0.03182532 -0.05304158
-0.04263954 -0.054164078 0.06599878 -0.18804668 0.03505578 0.07456184 -0.11625049 0.08896355
-0.013877708 -0.11530958 0.013225143 0.013583195 -0.015604752 -0.11548935 0.13346766 -0.19599618
0.18384403 0.064952865 0.094306484 -0.08699093 0.0106014 0.0624626 -0.016787462 0.013896452
-0.11717 -0.11603535 0.015981212 0.05105455 -0.4096114 -0.15609047 -0.29564086 -0.10290454
00000000: 40bb e63d 62e6 acbe f2cb 813b e0cc 733d
00000010: e982 b2be b486 503e e2fd ddbd 5e4c d33d
00000020: 740f d33c fe46 bdbd 066c 263d d004 03be
00000030: 3dea 4a3d b2dd c63d cb99 9dbd 41a1 da3c
00000040: 01e0 6dbd d3e2 22bd f9c4 a4bd 2d92 9abe
00000050: d3df af3d 3614 9ebe b0d7 f33d 752a 1c3c
00000060: 4e06 dbbe 14c9 25bc bd34 443d 510a cdbd
00000070: f85b 513d 7e2a ed3d c552 61bd cdfb 823d
00000080: 51f9 9d3d b4ed 6139 999b 8c3d 9151 78bc
00000090: 235f 113e 318a d63d 3d66 1bbc ac10 c03c
000000a0: c5ca 50be a3bc b0bc 007c 0d3e 16dc c23d
000000b0: ead5 333e b227 0a3d e2a2 f93d d292 debe
000000c0: 735b 3ebb ea39 51be 734f 843d 8bf2 1ebc
000000d0: c15f 99be 3101 c43d 82b5 75be 44c9 dabd
000000e0: 7eb8 70be 7184 053e 0bd4 723d de3c ed3d
000000f0: 3c4d ac3d 2f05 953d 6b87 97bd b1ba c2be
00000100: b849 febd 10cc 2ebe a5a6 00bf 7297 a3be
00000110: cde3 9dbe 7366 12bf 96f5 39bf 36ca a5be
00000120: cfd8 ccbd b1b4 2f3e f092 b7bd e0ee cb3c
00000130: b9a4 133e 3b1e 26be 3265 bc3d 3d8e cabb
00000140: 7aac 17be 0282 583e 4269 7fbd f502 c83d
00000150: 0797 a83c e051 17be 518d dd3d def7 633d
00000160: 6c82 41bd 65b5 e53d bd26 39be 651c 9f3d
00000170: 6459 3bbe 3632 15bc fabb 983d a3c9 eebd
00000180: 02ee c13d 3b6f 31be a8da 823e 52b2 d23d
00000190: 8dba 9c3d 81cf 0b3c 1715 f33d 189c e23d
000001a0: ad1b 92be ada3 403e c8c8 f83d a80c 25bf
000001b0: c491 eabd a11c 253e 0a35 d63d 1295 a4bd
000001c0: ad9d 033d e6b4 113e 58fa 0a3c 2f27 88bc
000001d0: af43 a53d 0086 fabb a0bd 483c b351 b4bd
000001e0: 81cf 733c fad0 8fbd 94c0 903c 81d4 a43d
000001f0: 4719 4abd a383 023d 257b f33d 7da9 afbc
00000200: 9ed9 7dbd 0383 27b9 93b6 61bc 7db1 12be
00000210: da45 b6bd 6d9b c8bd 4e32 73be 1015 d7bd
00000220: 4055 513d fddd 8f3e 4dca b23c 26b1 663e
00000230: edf0 ecbd 33b6 2d3d 8748 4a3e 5882 0e3d
00000240: 5635 38be 10cd cd3d f5d9 ba3d 7a0f acbd
00000250: d39c f13d 259a b3bc 233b b9bd 446c 973d
00000260: ea39 853d f16e 3bbd 9a66 9e3e e01a 04bf
00000270: 9545 1ebe bd30 413e 92fc 6cbe 677b 88bd
00000280: 0933 6d3e 003a 1fbe 6504 b5bd 0ab3 c3bd
00000290: 67b5 983c c38f 693c 98d1 30be dda2 8e3d
000002a0: 44f1 75bd 4844 913e 48f5 a0be df96 1d3d
000002b0: 4860 fbbc abc3 0b3d 7e37 b43c 2fcb 3f3d
000002c0: 8c10 873c 76ac 223d ec67 18bd b610 b63c
000002d0: 6b98 473e a8b5 95bc fc98 2fbe 9d00 e43d
000002e0: 03c1 9ebd 94bd 333c 042f a23d eaec 96bd
000002f0: becb ea3d 234c 2fbb 52c3 083e 9c96 83bd
00000300: 001a df3d 674b 4bbe efeb c8bd 876c 763d
00000310: c944 4e3d e659 fabc 4e67 cb3c 9dcc c2bd
00000320: 1b76 0f3c bdf2 883b 45bd 45bd 7ca6 6e3d
00000330: 8831 4cbc eacc dcbd bfb7 e5bc 5934 0c3e
00000340: 4364 123d db29 7cbe 46ae 8e3d f541 933d
00000350: 1c64 97be 042a d03d adf9 a63d a60d 7dbe
00000360: a038 fe3c d067 3b3e 1ba2 5fbd bfac babc
00000370: e698 fb3d 3e41 813d 445b 02bd 2142 59bd
00000380: cca6 2ebd 27db 5dbd 5e2a 873d 4f8f 40be
00000390: a696 0f3d e1b3 983d bd14 eebd 8632 b63d
000003a0: 545f 63bc 6e27 ecbd 45ae 583c 0d8c 5e3c
000003b0: 13ab 7fbc ae85 ecbd bfab 083e 39b3 48be
000003c0: 9c41 3c3e 0206 853d c223 c13d 4d28 b2bd
000003d0: 7fb1 2d3c c9d8 7f3d dc85 89bc f2ad 633c
000003e0: d3f6 efbd f1a3 edbd 08eb 823c 931e 513d
000003f0: 96b8 d1be 2ed6 1fbe 3d5e 97be 9ebf d2bd

res_conv2.0.bias f4 [32]
-0.080128305 -0.016253885 0.049854532 -0.005167329 7.750722e-05 0.19498082 0.07984171 0.042956978
0.026380226 -0.09925075 -0.06265091 -0.08848804 0.06228661 -0.006502603 -0.066263095 0.062932365
0.01839251 -0.057682138 0.007265013 0.014219009 0.02956785 -0.077800386 0.06722108 0.0414352
0.010837866 0.049237035 0.027945757 0.05336898 -0.059798244 0.13082807 0.05080963 -0.056550916
00000000: 4f1a a4bd de26 85bc 4434 4c3d b352 a9bb
00000010: 5f8b a238 0da9 473e 0d84 a33d a8f3 2f3d
00000020: 581b d83c fa43 cbbd 1f4f 80bd 3839 b5bd
00000030: 3f20 7f3d ca13 d5bb f2b4 87bd afe2 803d
00000040: e4ab 963c 1b44 6cbd 590f ee3b d9f6 683c
00000050: 4738 f23c cf55 9fbd 35ab 893d f5b7 293d
00000060: 4e91 313c c6ac 493d 80ee e43c 6e99 5a3d
00000070: 01ef 74bd cbf7 053e c21d 503d efa1 67bd

res_conv2.2.weight f4 [32, 32, 3, 3]
0.013348342 -0.0049360893 -0.042246476 0.008883085 0.016444981 0.0034151836 -0.048433717 -0.0392256
-0.04058226 0.018584704 0.0084166005 0.014146543 -0.007028679 -0.04077942 -0.033322617 -0.040218234
-0.005820725 0.037701752 0.024906117 0.0034693119 -0.04430594 -0.032809254 0.04578402 0.03325998
-0.0032174948 0.02800599 -0.002364804 -0.030040532 -0.063551135 -0.039154347 -0.009773061 -0.016881188
-0.053835988 0.00959589 -0.053608313 0.054272193 -0.031142911 -0.040893026 -0.058472157 -0.01173909
-0.0038752106 0.031840812 0.011654023 -0.016343586 -0.0029828586 -0.011789065 -0.042990744 0.00084518077
0.0037224032 0.0033568686 0.042151604 0.00044843554 0.009716865 0.012629834 -0.053738058 -0.022556787
0.0071829683 -0.05337046 -0.010145988 -0.0590074 0.022759205 -0.0053010937 -0.04567919 0.013127874
0.027377853 0.014923003 -0.036520623 -0.0011549916 -0.021536177 -0.021587204 -0.06922598 -0.027350346
-0.006339088 0.017575536 -0.05745874 -0.005635729 -0.019478459 -0.009872877 0.016571786 -0.049542237
-0.05424024 0.007016952 0.026417043 -0.01024965 -0.07831789 -0.019703655 -0.036200546 -0.043768425
-0.026560482 -0.002576016 0.013681758 -0.037425544 0.028475763 -0.025943689 -0.02546288 0.017766744
0.028279211 -0.04484734 -0.0071997405 0.02819084 0.008659404 0.0062684976 0.05747104 0.05134924
-0.013426088 -0.01359288 -0.012807459 0.0052777193 -0.031440582 0.016655315 -0.07348456 0.033202205
-0.041819256 -0.016397618 -0.027240943 -0.04047464 -0.039874826 -0.045043074 -0.09966727 -0.06784258
-0.005220447 -0.041747056 -0.013647727 -0.039907843 -0.004671274 -0.023245657 -0.008949883 0.04878463
-0.0051784553 0.029168706 -0.011020584 -0.024539039 -0.040458657 -0.026811365 0.0491451 -0.07034733
0.00074030104 0.04631843 -0.044256337 -0.049957052 0.040491555 -0.0075680465 -0.03528763 -0.049193166
0.040444877 -0.051892363 -0.005316864 -0.012323635 0.035818305 0.008023764 0.011150987 -0.04285751
0.023200952 0.024565842 -0.018064523 0.048314057 -0.022113968 0.03749158 -0.031595036 0.04120377
0.029559668 0.00983927 -0.044033702 0.020075712 -0.00928578 -0.020259658 -0.04134309 0.0056696134
-0.031656258 0.016001292 -0.05726279 0.05016956 0.0040064063 0.0457122 0.020027805 -0.03473338
-0.041195918 -0.051748145 -0.053187616 -0.027198907 -0.060781118 -0.0718255 -0.027042354 -0.0447861
-0.05292242 -0.003234574 0.0014423975 -0.093580276 -0.0920467 0.025850918 0.02131943 -0.05183794
0.04251012 0.026255999 -0.0543387 0.017085116 0.05374321 0.0032261647 -0.093313694 -0.06487524
-0.004779484 -0.042508543 -0.03236814 -0.008894214 -0.0024452072 -0.051890343 -0.068244256 -0.06429537
0.02299319 0.018788254 -0.055331238 -0.039876588 -0.01463231 -0.06122165 -0.00430797 -0.041320536
0.05307423 0.002887105 -0.011779311 0.011515265 -0.064230025 -0.0027031247 -0.02546711 -0.013073954
-0.04169711 -0.021176685 -0.03759967 -0.057893623 -0.022697167 -0.06158293 0.014077424 -0.037692565
-0.025324862 -0.039447684 -0.07096935 0.0057730083 -0.08547758 -0.07358916 0.010459265 -0.085412815
0.017997775 -0.04245615 -0.06153945 0.020141715 0.03202546 -0.004382917 -0.06039536 -0.043401357
-0.05128142 0.019408355 0.036758434 -0.035938628 0.04574168 0.053943418 -0.03110376 0.007483568
00000000: 01b3 5a3c ebbe a1bb a40a 2dbd 5c8a 113c
00000010: a0b7 863c 46d1 5f3b 6f62 46bd 06ab 20bd
00000020: 9539 26bd f33e 983c c8e5 093c e7c6 673c
00000030: d550 e6bb 5208 27bd 4c7d 08bd e0bb 24bd
00000040: c8bb bebb 276d 1a3d ea07 cc3c 655d 633b
00000050: 257a 35bd ff62 06bd 0688 3b3d 9e3b 083d
00000060: 9bdc 52bb d16c e53c d4fa 1abb 9017 f6bc
00000070: 1927 82bd 4f60 20bd 301f 20bc 6b4a 8abc
00000080: 2083 5cbd 1438 1d3c 6494 5bbd 854c 5e3d
00000090: 6b1f ffbc 727f 27bd 8080 6fbd 5055 40bc
000000a0: 3ff7 7dbb 836b 023d 84f0 3e3c fce2 85bc
000000b0: 107c 43bb ec26 41bc 1017 30bd 1f8f 5d3a
000000c0: 90f3 733b e9fe 5b3b 29a7 2c3d 001c eb39
000000d0: 7c33 1f3c 5ded 4e3c 701c 5cbd 03c9 b8bc
000000e0: 1b5f eb3b fc9a 5abd 5c3b 26bc beb1 71bd
000000f0: 8371 ba3c ccb4 adbb 1a1a 3bbd 4b16 573c
00000100: 8547 e03c 9c7f 743c a696 15bd 1663 97ba
00000110: a36c b0bc a6d7 b0bc 5ac6 8dbd d50d e0bc
00000120: 20b8 cfbb 92fa 8f3c db59 6bbd ecab b8bb
00000130: 4a91 9fbc d9c1 21bc 8ec1 873c cdec 4abd
00000140: 042b 5ebd 76ee e53b 8e68 d83c 26ee 27bc
00000150: 2165 a0bd 8f69 a1bc 0647 14bd 8546 33bd
00000160: 5e95 d9bc 60d2 28bb 7429 603c 874b 19bd
00000170: 0146 e93c dc87 d4bc 8897 d0bc 908b 913c
00000180: cea9 e73c d8b1 37bd cdeb ebbb 7af0 e63c
00000190: 2ce0 0d3c f867 cd3b c166 6b3d 9553 523d
000001a0: 18f9 5bbc acb4 5ebc 60d6 51bc b8f0 ac3b
000001b0: d7c7 00bd ba70 883c 137f 96bd 09ff 073d
000001c0: ab4a 2bbd 4c54 86bc 6628 dfbc bcc8 25bd
000001d0: c953 23bd 167f 38bd 5b1e ccbd 0df1 8abd
000001e0: 4910 abbb f6fe 2abd b79a 5fbc 6876 23bd
000001f0: 7d11 99bb ad6d bebc 88a2 12bc 64d2 473d
00000200: 08b0 a9bb 36f3 ee3c ae8f 34bc 1806 c9bc
00000210: fab7 25bd 82a3 dbbc 5f4c 493d 4312 90bd
00000220: c310 423a 65b8 3d3d 2246 35bd c49f 4cbd
00000230: 79da 253d 60fd f7bb c389 10bd c67e 49bd
00000240: 87a9 253d 168d 54bd 1639 aebb 12e9 49bc
00000250: 37b6 123d 1b76 033c a1b2 363c 5b8b 2fbd
00000260: ec0f be3c 4e3e c93c 0dfc 93bc f6e4 453d
00000270: 5a28 b5bc c590 193d cc69 01bd 49c5 283d
00000280: 1e27 f23c e434 213c af5c 34bd d275 a43c
00000290: 6223 18bc 95f7 a5bc 5f57 29bd 2ac8 b93b
000002a0: fea9 01bd 2415 833c 638c 6abd 997e 4d3d
000002b0: 2c48 833b b73c 3b3d 5a11 a43c 9744 0ebd
000002c0: 0dbd 28bd ddf5 53bd 42db 59bd 3ed0 debc
000002d0: 9ff5 78bd 3f19 93bd ed87 ddbc a171 37bd
000002e0: 2ec5 58bd 26fb 53bb d40e bd3a 04a7 bfbd
000002f0: fb82 bcbd 4ec5 d33c 16a6 ae3c 0554 54bd
00000300: 171f 2e3d d216 d73c 4292 5ebd 16f6 8b3c
00000310: d721 5c3d 106e 533b 401b bfbd 4fdd 84bd
00000320: 389d 9cbb 701d 2ebd 7494 04bd 0ab9 11bc
00000330: c53f 20bb f88a 54bd a5c3 8bbd 4aad 83bd
00000340: 375c bc3c d3e9 993c 02a3 62bd a255 23bd
00000350: 5bbc 6fbc 8ec3 7abd df29 8dbb b93f 29bd
00000360: 5d64 593d 9635 3d3b 03fe 40bc 86aa 3c3c
00000370: 088b 83bd e826 31bb 67a0 d0bc 2334 56bc
00000380: 97ca 2abd ba7a adbc 1d02 1abd dd21 6dbd
00000390: 69ef b9bc 623e 7cbd ffa4 663c 8563 1abd
000003a0: 1676 cfbc e593 21bd 6158 91bd 812b bd3b
000003b0: df0e afbd eab5 96bd 565d 2b3c eaec aebd
000003c0: 1270 933c 80e6 2dbd ca10 7cbd 3d00 a53c
000003d0: 212d 033d 939e 8fbb 2061 77bd 9fc5 31bd
000003e0: 770c 52bd 45fe 9e3c 0390 163d 6234 13bd
000003f0: a15b 3b3d c6f3 5c3d 50cd febc b838 f53b

res_conv2.2.bias f4 [32]
-0.08828617 0.028715512 -0.012964244 -0.12631917 0.016197823 0.06233266 -0.04506098 -0.13216226
-0.07081789 0.05432731 0.029458087 0.077552386 0.027395064 0.0031471536 0.06093897 -0.110604994
0.016886463 -0.03604603 -0.13879903 -0.14163676 -0.08853902 -0.027786484 -0.012139514 -0.011837872
0.062473264 0.023229493 0.06999638 -0.054362237 -0.015309234 -0.040552996 0.048090603 -0.07653484
00000000: 61cf b4bd cb3c eb3c fb67 54bc d059 01be
00000010: 4cb1 843c 8850 7f3d dd91 38bd 8b55 07be
00000020: f808 91bd 5086 5e3d 1652 f13c c9d3 9e3d
00000030: 9d6b e03c 7a40 4e3b 249b 793d df84 e2bd
00000040: 7b55 8a3c 01a5 13bd 5521 0ebe 3a09 11be
00000050: f253 b5bd 7ba0 e3bc d0e4 46bc a2f3 41bc
00000060: f7e3 7f3d c74b be3c 435a 8f3d f0aa 5ebd
00000070: 95d3 7abc e61a 26bd a7fa 443d 4cbe 9cbd

res_conv3.0.weight f4 [32, 32, 3, 3]
0.016783733 -0.019048022 -0.02804188 -0.04499671 -0.057220884 -0.015526439 0.037433863 -0.053053647
-0.036605503 -0.039480567 0.033282213 -0.06897267 -0.0019569763 -0.03077102 -0.04702062 -0.0644215
0.032658994 0.025051838 0.010849084 -0.011206477 -0.03754963 -0.058878284 0.011000546 -0.042362887
0.03763075 0.043015867 -0.06994427 -0.009657539 -0.057375666 0.05202997 -0.069456704 -0.068909
-0.032902136 -0.070947655 0.030020675 0.044870514 -0.040154673 0.048975807 0.05005077 -0.008311251
0.017541824 -0.02048222 -0.060209762 -0.052308798 -0.046637777 -0.0071220337 0.026553253 -0.005871511
-0.0075566573 -0.051162284 -0.069919355 0.0058179824 -0.0031907938 0.0149530405 0.017883195 -0.07114442
-0.041247018 -0.07083136 -0.046686552 0.023817705 0.024920419 -0.07154894 0.005771451 0.001633673
-0.029157314 0.041970044 0.012112254 0.015584491 -0.037412856 -0.04902147 -0.044774074 -0.010827325
0.017266795 -0.03974377 -0.018675862 -0.012533231 -0.074495904 0.034381136 -0.014724591 -0.00030383508
-0.019409 -0.008477515 -0.047114085 -0.05827316 -0.034725703 -0.028777687 -0.050452646 -0.035101663
0.033996526 0.0044572866 0.009259049 -0.025592653 0.0036810827 -0.029734572 0.02296016 0.026066598
-0.010387569 -0.003516089 0.00096149294 0.017437467 -0.009572601 0.00073207566 -0.08329596 -0.0783503
-0.039018217 -0.07160329 -0.019070167 -0.040678177 -0.03480581 -0.0028620244 0.02013248 0.04214787
-0.0057308604 -0.039084867 0.036234956 -0.03838517 0.0077370494 -0.014516976 -0.038192865 -0.04654247
0.009261318 -0.04792025 0.0034951337 -0.005634319 -0.05286191 -0.029734734 0.011348892 0.026542649
0.017389763 0.044165473 0.017875103 0.007847841 0.0167149 -0.041431215 -0.01602871 -0.0490595
-0.048682675 -0.0091327205 0.02712887 0.026967345 0.0008625157 -0.025869004 -0.011846038 -0.07245861
-0.029079363 -0.010253452 0.009702799 -0.0640096 -0.09096601 -0.046820957 -0.010979012 -0.034058437
0.003134427 -0.052349765 -0.019940916 0.025200007 0.016809389 -0.07136426 0.010835748 -0.053950667
-0.07596728 0.03207949 0.012963206 -0.0074548954 0.0079622185 -0.053691063 -0.018989682 -0.037453182
-0.0072982684 0.025458185 -0.04320551 0.03250449 -0.050466735 0.03818142 -0.059022203 -0.032968696
0.00098478 -0.028142506 -0.032898705 -0.058762252 0.0019775683 0.039617352 -0.023605883 -0.008913079
0.0018313625 -0.038832746 -0.058114234 0.030382415 0.00075976877 0.030373551 0.031392656 0.015728923
0.014250959 0.019055303 -0.06452816 -0.06311457 -0.005531404 0.040294643 1.0804838e-05 -0.04768492
0.015730089 0.022317307 0.023356723 -0.034748606 -0.06532975 0.027066596 -0.052286293 -0.030911265
-0.058691513 -0.071427576 -0.024288235 0.0034344108 -0.05203616 0.022021785 0.007943924 -0.0066267266
-0.008355188 0.006073168 -0.023638817 0.03400913 0.033343542 -0.025372209 0.016791502 -0.0063387295
-0.072312884 -0.058203872 0.022760015 0.030594908 0.0052070282 -0.004409738 -0.06779455 0.021024983
-0.045632884 -0.008716401 0.025879942 -0.054359555 -0.058245454 -0.024382029 -0.05033684 0.011641746
-0.050859418 -0.044958442 -0.0028928954 0.071603715 0.05872005 -0.050763845 -0.020011846 -0.024253134
0.012334841 0.023909008 0.018971683 0.054026183 -0.0019518856 0.022996379 -0.04844598 -0.051686518
00000000: 0a7e 893c 990a 9cbc 16b8 e5bc 784e 38bd
00000010: 7260 6abd 9b62 7ebc 4054 193d c84e 59bd
00000020: a7ef 15bd 60b6 21bd ee52 083d 8b41 8dbd
00000030: 9d40 00bb 8213 fcbc b298 40bd 6bef 83bd
00000040: 70c5 053d 8339 cd3c 5bc0 313c 5f9b 37bc
00000050: a4cd 19bd 5b2a 71bd a23b 343c b584 2dbd
00000060: b422 1a3d 6831 303d f13e 8fbd a83a 1ebc
00000070: bf02 6bbd 611d 553d 513f 8ebd 2920 8dbd
00000080: 64c4 06bd 014d 91bd ebed f53c 25ca 373d
00000090: 3a79 24bd db9a 483d 0902 4d3d ea2b 08bc
000000a0: dfb3 8f3c 54ca a7bc 839e 76bd c041 56bd
000000b0: 4107 3fbd f35f e9bb 3586 d93c ce65 c0bb
000000c0: d69d f7bb 8b8f 51bd e131 8fbd c6a4 be3b
000000d0: a31c 51bb 99fd 743c c77f 923c 2ab4 91bd
000000e0: a2f2 28bd 0810 91bd 663a 3fbd 591d c33c
000000f0: e825 cc3c 4088 92bd 711e bd3b f820 d63a
00000100: 52db eebc c8e8 2b3d 7a72 463c 1856 7f3c
00000110: 393e 19bd bdca 48bd 0565 37bd 1865 31bc
00000120: 1873 8d3c 5dca 22bd 1ffe 98bc 2e58 4dbc
00000130: 4f91 98bd 3cd3 0c3d 693f 71bc 0e4c 9fb9
00000140: a0ff 9ebc 46e5 0abc b3fa 40bd d6af 6ebd
00000150: 8a3c 0ebd 2fbf ebbc 6fa7 4ebd c3c6 0fbd
00000160: f13f 0b3d 6e0e 923b 44b3 173c afa7 d1bc
00000170: 523e 713b eb95 f3bc f216 bc3c 9e89 d53c
00000180: 9f30 2abc 2f6e 66bb b30c 7c3a 05d9 8e3c
00000190: 66d6 1cbc c4e8 3f3a 1397 aabd 1f76 a0bd
000001a0: 91d1 1fbd bfa4 92bd 0a39 9cbc 299e 26bd
000001b0: 8990 0ebd cd90 3bbb dfec a43c 3fa3 2c3d
000001c0: f1c9 bbbb 7417 20bd 1b6b 143d c539 1dbd
000001d0: 1387 fd3b 9cd8 6dbc 1f70 1cbd 51a3 3ebd
000001e0: c8bc 173c 0648 44bd 9d0e 653b 18a0 b8bb
000001f0: bb85 58bd 4296 f3bc b4f0 393c f86f d93c
00000200: fa74 8e3c dbe6 343d cf6e 923c 3b94 003c
00000210: b0ed 883c c7b3 29bd a44e 83bc 9df2 48bd
00000220: 7c67 47bd 68a1 15bc 5d3d de3c 9fea dc3c
00000230: 731a 623a 3ceb d3bc e215 42bc 2e65 94bd
00000240: d837 eebc 18fe 27bc 7df8 1e3c 7717 83bd
00000250: 634c babd 55c7 3fbd 50e1 33bc dc80 0bbd
00000260: f56a 4d3b b56c 56bd 225b a3bc 3f70 ce3c
00000270: d8b3 893c 6d27 92bd 6c88 313c 60fb 5cbd
00000280: bc94 9bbd c965 033d a063 543c 3248 f4bb
00000290: f773 023c 29eb 5bbd 4090 9bbc 8268 19bd
000002a0: 5026 efbb af8d d03c 43f8 30bd 6e23 053d
000002b0: 35b6 4ebd 1f64 1c3d 44c1 71bd 2f0a 07bd
000002c0: bc13 813a 1d8b e6bc cbc0 06bd b0b0 70bd
000002d0: 179a 013b ce45 223d 2061 c1bc 2a08 12bc
000002e0: 540a f03a 160f 1fbd 3109 6ebd 8be4 f83c
000002f0: 382b 473a f4d1 f83c 9695 003d f1d9 803c
00000300: db7c 693c de19 9c3c 5727 84bd 3642 81bd
00000310: c840 b5bb ff0b 253d 6d46 3537 4351 43bd
00000320: 63dc 803c c9d2 b63c 9956 bf3c 8e54 0ebd
00000330: 9bcb 85bd c4ba dd3c 272a 56bd 9f39 fdbc
00000340: 8366 70bd 9f48 92bd 1ff8 c6bc da13 613b
00000350: de23 55bd 0867 b43c 3b27 023c 0325 d9bb
00000360: 33e4 08bc 6d01 c73b 31a6 c1bc 284d 0b3d
00000370: 3d93 083d 61d9 cfbc 558e 893c 1eb5 cfbb
00000380: c718 94bd 2f67 6ebd 3673 ba3c 2ca2 fa3c
00000390: b89f aa3b 907f 90bb ded7 8abd 963c ac3c
000003a0: 8ce9 3abd 3ccf 0ebc 2c02 d43c 20a8 5ebd
000003b0: c992 6ebd d2bc c7bc 012e 4ebd 06bd 3e3c
000003c0: f751 50bd 5826 38bd bb96 3dbb f8a4 923d
000003d0: 6f84 703d c0ed 4fbd e2ef a3bc 82ae c6bc
000003e0: 1318 4a3c d3dc c33c 816a 9b3c 8f4a 5d3d
000003f0: 6ad6 ffba e762 bc3c 4b6f 46bd 3eb5 53bd

res_conv3.0.bias f4 [32]
-0.05533116 -0.030139202 -0.08564123 0.03608688 -0.35899436 0.02253712 -0.38621864 0.008235819
0.07904155 0.020150922 -0.09835669 0.12449167 0.024429986 0.014136482 -0.07650629 0.046742044
0.013550433 -0.014548992 -0.06649936 0.11563227 -0.019152984 -0.013339413 -0.0059901914 -0.013701638
-0.072955996 -0.04872353 0.02694082 -0.03446942 0.0066528833 -0.06292612 -0.08427467 0.030467333
00000000: eda2 62bd 7de6 f6bc ab64 afbd d6cf 133d
00000010: 1cce b7be c49f b83c 73be c5be 87ef 063c
00000020: 89e0 a13d 8c13 a53c 3b6f c9bd 7df5 fe3d
00000030: 6521 c83c b49c 673c 54af 9cbd 9674 3f3d
00000040: a302 5e3c e55e 6ebc d130 88bd 9dd0 ec3d
00000050: b8e6 9cbc 8e8d 5abc 5e49 c4bb d67c 60bc
00000060: f469 95bd 5392 47bd ffb2 dc3c ce2f 0dbd
00000070: 6e00 da3b 69df 80bd 3398 acbd a196 f93c

res_conv3.2.weight f4 [32, 32, 3, 3]
-0.031227523 -0.049796686 0.035397977 0.042778913 0.039360303 0.034253303 -0.017986257 0.037680726
-0.037026912 0.05399943 0.012523551 0.074648954 0.07360562 -0.06778013 -0.009052047 -0.14054973
-0.046652816 -0.0015065836 -0.007049937 0.002865065 0.028446939 -0.04874165 0.049460795 0.035722557
-0.055489983 -0.0047636884 -0.030229453 -0.102060445 -0.038320072 0.08804221 -0.033131532 0.02257437
0.045756776 0.0061208922 0.008111159 0.017973416 0.016835254 0.06486648 -0.052153464 -0.15974702
0.017967228 0.08663569 0.14529409 0.12613575 0.018617203 -0.08318926 -0.0140552735 0.038175877
0.05679234 0.3590718 0.15284179 -0.045687314 0.096475884 0.08806515 0.033284 -0.0838587
-0.0066166823 0.021757087 -0.1739897 0.043323953 -0.06830511 0.124020755 0.084763974 -0.19031996
-0.058115486 -0.084680274 -0.10303021 -0.003020699 0.021458386 -0.03039648 0.10859648 -0.037024997
0.061037824 0.07909302 -0.19800602 -0.018761126 -0.12473492 -0.23393458 -0.025826303 -0.0057754
-0.2700414 0.043699306 -0.015794085 -0.04946359 -0.055741746 -0.18801764 -0.0937815 -0.12514316
0.028015547 0.09684414 -0.11978539 -0.151023 0.050721675 -0.039330237 -0.06883623 0.077562526
-0.04679378 -0.15120935 0.04662043 -0.15516244 -0.18747826 -0.019781442 -0.06101896 -0.21479334
0.07504032 0.0784317 0.055607386 0.026925765 0.027201302 -0.047267 -0.10954071 0.057053074
0.1484504 -0.02410984 0.08109278 0.08541273 0.06720206 -0.07938907 0.22189084 -0.245549
-0.014365401 0.24622267 0.10161059 -0.10683153 -0.069259144 -0.11141368 0.02680272 0.020301785
0.014997807 -0.07623277 0.0072429604 0.00056335493 -0.02738001 -0.06017069 -0.04822428 -0.23582873
0.19832498 -0.13410425 -0.037935086 0.28848755 -0.32520294 0.0126177175 0.12532333 -0.11283727
-0.060809813 0.029146515 -0.057929616 -0.024766492 0.010219659 -0.021285484 0.014200372 0.024015829
-0.051345397 -0.054913945 0.070819214 0.014150714 0.043935094 -0.07085691 -0.020047925 -0.021610485
0.05415725 0.16720262 -0.024654815 -0.043209042 0.031619098 -0.040313132 -0.025170706 0.04294739
0.029945293 0.03126418 0.015988424 0.03713484 0.14506847 0.15650736 -0.0065205027 -0.02186515
-0.05551387 -0.12316335 -0.04725414 -0.11712846 -0.020319073 -0.08180141 -0.09956987 -0.12615186
0.04484542 0.094176926 0.22572608 -0.021025762 0.030206244 0.04340029 -0.16233617 0.057408944
0.016757801 -0.07221184 0.0030784744 -0.15320508 0.08579658 0.00074843806 0.026497735 0.05409415
-0.05384982 0.0034921994 -0.021755306 0.031723104 0.05371647 -0.0020502151 -0.062042594 -0.017074764
-0.08195078 -0.059515875 0.02538218 -0.047766656 0.010863361 0.035685785 -0.05890386 -0.07571165
0.030692445 -0.026525255 0.13975424 0.097150475 -0.0048615523 0.12202029 0.08060263 -0.23974714
0.0824809 0.17235877 -0.107306205 0.10267658 0.08993265 0.16231704 0.010096548 0.12619893
-0.45073208 -0.10039352 -0.046952683 -0.32704523 -0.22217827 0.09946532 0.023306515 0.08474359
0.16642031 0.16583203 0.050468586 -0.047235683 -0.030282384 -0.000320448 0.039547708 0.008992198
-0.009280143 0.023058781 -0.0016744247 0.0007591462 -0.07836495 -0.11793924 -0.20161462 0.039155222
00000000: ddd0 ffbc 9cf7 4bbd 78fd 103d f138 2f3d
00000010: 4538 213d 314d 0c3d ea57 93bc 1b57 1a3d
00000020: 88a9 17bd 822e 5d3d 942f 4d3c 8de1 983d
00000030: 8bbe 963d 4fd0 8abd 094f 14bc 45ec 0fbe
00000040: 0617 3fbd 8f78 c5ba 2803 e7bb d0c3 3b3b
00000050: 8e09 e93c 53a5 47bd 6797 4a3d d151 123d
00000060: 7749 63bd b718 9cbb c2a3 f7bc 1105 d1bd
00000070: 82f5 1cbd 794f b43d eeb4 07bd e3ed b83c
00000080: 756b 3b3d c491 c83b abe4 043c fc3c 933c
00000090: 16ea 893c b8d8 843d df9e 55bd b994 23be
000000a0: 0230 933c 0d6e b13d f9c7 143e bb29 013e
000000b0: 1b83 983c 215f aabd 1748 66bc 4f5e 1c3d
000000c0: 169f 683d 42d8 b73e 8f82 1c3e 9f22 3bbd
000000d0: 2695 c53d 805b b43d ce54 083d 1cbe abbd
000000e0: c1d0 d8bb eb3b b23c 5b2a 32be 7574 313d
000000f0: 8de3 8bbd 98fe fd3d bc98 ad3d 3ce3 42be
00000100: 810a 6ebd da6c adbd 8101 d3bd ebf6 45bb
00000110: 7fc9 af3c 0a02 f9bc d567 de3d 86a7 17bd
00000120: cc02 7a3d 85fb a13d 17c2 4abe efb0 99bc
00000130: 0675 ffbd 8c8c 6fbe af91 d3bc 913f bdbb
00000140: de42 8abe 0bfe 323d 9962 81bc 559a 4abd
00000150: 7551 64bd b287 40be 8410 c0bd 8725 00be
00000160: dc80 e53c 3856 c63d 0b52 f5bd c6a5 1abe
00000170: 88c1 4f3d be18 21bd 02fa 8cbd 1ad9 9e3d
00000180: d6aa 3fbd a0d6 1abe 10f5 3e3d e7e2 1ebe
00000190: 4dfa 3fbe b10c a2bc 04ef 79bd c9f2 5bbe
000001a0: bdae 993d cda0 a03d 92c4 633d 6c93 dc3c
000001b0: 44d5 de3c 0b9b 41bd e156 e0bd 7cb0 693d
000001c0: 6203 183e 0082 c5bc f913 a63d dfec ae3d
000001d0: 3ca1 893d bd96 a2bd 5a37 633e 3271 7bbe
000001e0: dc5c 6bbc cc21 7c3e 3719 d03d 7dca dabd
000001f0: bdd7 8dbd db2c e4bd 6191 db3c ee4f a63c
00000200: 5db9 753c ed1f 9cbd 5b56 ed3b 1cae 133a
00000210: 0b4c e0bc 8b75 76bd d386 45bd 167d 71be
00000220: b415 4b3e a052 09be d261 1bbd a4b4 933e
00000230: 0081 a6be 8bba 4e3c c254 003e 3a17 e7bd
00000240: b613 79bd acc4 ee3c 9b47 6dbd 19e3 cabc
00000250: 5b70 273c e55e aebc ada8 683c d8bc c43c
00000260: 8d4f 52bd 72ed 60bd aa09 913d 65d8 673c
00000270: 49f5 333d 6d1d 91bd 8c3b a4bc 7908 b1bc
00000280: fed3 5d3d 2a37 2b3e e5f8 c9bc f7fb 30bd
00000290: 0783 013d 621f 25bd cc32 cebc 9ae9 2f3d
000002a0: d54f f53c de0e 003d 28fa 823c b41a 183d
000002b0: d48c 143e 7743 203e f1a9 d5bb 8b1e b3bc
000002c0: 8362 63bd 113d fcbd 8f8d 41bd 0ce1 efbd
000002d0: 2f74 a6bc 7f87 a7bd 4aeb cbbd f42d 01be
000002e0: d5af 373d d5df c03d bd24 673e 383e acbc
000002f0: 1673 f73c 81c4 313d 743b 26be a425 6b3d
00000300: a847 893c cde3 93bd 3bc0 493b cbe1 1cbe
00000310: 1eb6 af3d d432 443a c711 d93c d491 5d3d
00000320: a191 5cbd 62dd 643b 2f38 b2bc 16f0 013d
00000330: cd05 5c3d e75c 06bb 6020 7ebd 60e0 8bbc
00000340: cfd5 a7bd ebc6 73bd 4aee cf3c f8a6 43bd
00000350: 3dfc 313c 422b 123d 2d45 71bd b60e 9bbd
00000360: b96e fb3c 7e4b d9bc bc1b 0f3e d4f6 c63d
00000370: a84d 9fbb c6e5 f93d fe12 a53d 4680 75be
00000380: bfeb a83d d17e 303e 5bc3 dbbd 1948 d23d
00000390: 9c2e b83d 7036 263e fe6b 253c 4b3a 013e
000003a0: 5bc6 e6be 1e9b cdbd 7551 40bd 7972 a7be
000003b0: b382 63be 79b4 cb3d 4eed be3c 0c8e ad3d
000003c0: 166a 2a3e dfcf 293e 26b8 4e3d 347a 41bd
000003d0: c312 f8bc cd01 a8b9 c7fc 213d 0354 133c
000003e0: be0b 18bc c5e5 bc3c 5f78 dbba 7001 473a
000003f0: ce7d a0bd 218a f1bd 1074 4ebe 3a61 203d

res_conv3.2.bias f4 [32]
0.02853711 0.053077582 -0.005370356 0.039919894 -0.014145816 -0.060212743 -0.07341723 -0.010089029
-0.009549591 0.03189615 -0.049513157 0.03368631 -0.030282073 0.0022293003 -0.05767148 0.018270835
0.004310012 -0.041427888 -0.09709793 -0.053265095 -0.013624103 -0.0017773054 -0.10005187 -0.004857368
0.0392794 -0.0011707038 0.023601105 -0.13117272 0.047201414 -0.0278013 -0.054128155 -0.030742938
00000000: a8c6 e93c e167 593d d0f9 afbb 0b83 233d
00000010: dac3 67bc a3a1 76bd c65b 96bd 744c 25bc
00000020: e375 1cbc 8aa5 023d 4fce 4abd a8fa 093d
00000030: 1c12 f8bc 7419 123b ee38 6cbd b8ac 953c
00000040: 003b 8d3b 4ab0 29bd 48db c6bd 802c 5abd
00000050: a137 5fbc 79f4 e8ba ffe7 ccbd 8e2a 9fbb
00000060: 70e3 203d 4d72 99ba 1b57 c13c 2452 06be
00000070: 4556 413d 8dbf e3bc 7cb5 5dbd 9dd8 fbbc
