logs/Rain1400/PReNet6_r/net_latest.pth (torch_old, 382755 bytes, 16 tensors)

conv0.0.weight f4 [32, 6, 3, 3]
000000 c4 c8 b6 be 5e f7 62 be 25 00 5f c0 7f 6e e3 3e
       -0.35700047 -0.22164676 -3.4843838 0.4442024
000010 12 b9 81 3e 3f 8e 48 be 48 e5 32 be 87 35 f2 3c
       0.2533651 -0.19585513 -0.17470276 0.02956654
000020 cc fe d2 3d c1 32 b4 be a7 5f 18 bf 4e 7d 4b c1
       0.10302505 -0.35194972 -0.59520954 -12.718092
000030 26 ff 68 3e e3 4d a4 3e f4 53 ef be 26 ea 1e be
       0.22753581 0.32090673 -0.4674374 -0.15519008
000040 71 6e 97 be 39 5f b8 be 32 da f6 bd f1 8c 4f 3e
       -0.29576448 -0.3601015 -0.12053336 0.20268609
000050 c2 80 da c0 cf 27 ed 3e ae 6a 2c 3f 0d b4 29 be
       -6.8282175 0.46319434 0.6735028 -0.1657259
000060 74 29 05 be 64 c9 83 be 66 98 58 3e 82 1d d0 3e
       -0.13004094 -0.25739586 0.21151885 0.40647513
000070 16 5c ab 3e 1c f6 df 3f 88 7a a2 be 4e ab e2 be
       0.33468693 1.7496982 -0.3173411 -0.4427132
000080 0b 5e e1 3e 90 b5 77 3e 0d 2a b3 3d f9 45 fa 3c
       0.44017062 0.24190354 0.08748255 0.030550944
000090 d1 0d de 3e 64 aa bf 3e 2d fb 88 bf 74 86 88 be
       0.43369916 0.37434685 -1.0701653 -0.2666508
0000a0 30 b4 40 be d0 a6 16 3f 9f 07 8c 3e b6 89 d9 3e
       -0.18818736 0.58848286 0.27349564 0.42487878
0000b0 63 81 c1 3d 14 a4 e9 be 2d 10 08 3d 0d e4 45 bf
       0.09448507 -0.45632994 0.03321855 -0.773011
0000c0 64 75 40 bc 30 eb b1 3d 47 6c 8e 3d 6c db d0 bd
       -0.011746738 0.086874366 0.06954246 -0.101981014
0000d0 1a be 1b ba b4 d5 bf be f3 ca 37 3e 67 eb 03 3e
       -0.0005941108 -0.3746773 0.17948513 0.12882768
0000e0 8b f7 6a 3d f1 6c 00 3c 5e ae e6 bd 58 14 00 3d
       0.05736498 0.007838474 -0.11263727 0.0312694
0000f0 0c d9 32 be 30 37 b1 bd 57 5c 08 bd 3b dd d8 bd
       -0.1746561 -0.08653104 -0.033291187 -0.10589071
000100 d5 e3 6c be 70 f2 fb bd 7c e5 e9 3d 58 91 c2 3d
       -0.23133786 -0.12302101 0.11420724 0.09500378
000110 7f 15 4c 3e 0c 23 98 3c 0b b1 38 3d 1f 2c 3f bd
       0.19930075 0.0185714 0.045090716 -0.046672937
000120 84 3b 2a be 18 24 ec bd 24 ac ea bd 13 38 06 bd
       -0.16624266 -0.11530322 -0.114586145 -0.03276832
000130 6d 4d 8f 3d 1d e6 c9 bd f0 de 87 3d 86 7b 2f 3e
       0.0699719 -0.09858344 0.06634319 0.17136964
000140 81 13 35 3d cd b7 07 bd 63 92 d5 be 92 22 9e 3e
       0.044208053 -0.03313427 -0.41713247 0.3088575
000150 bb 0b 66 3d 09 fb 4b 3d 79 53 00 be 91 67 42 3d
       0.05616353 0.049799953 -0.12531842 0.04746205
000160 34 0c 98 3e 51 3c 38 be d1 a6 ac be 4a 74 44 bf
       0.2969681 -0.17991759 -0.3372102 -0.76739943
000170 76 5a 39 be 9c 2e 0c bd ac 94 97 3d 63 f3 85 3d
       -0.18100914 -0.034224138 0.07401404 0.06540563
000180 70 7a d8 3e 3c 4b 0f 3f 0a 13 51 3e e7 9d 43 bf
       0.42280912 0.55974174 0.20417419 -0.76412815
000190 2a 05 94 bf 42 04 ed be 6f 2e 30 3e f9 29 16 3e
       -1.1564076 -0.4629231 0.17205213 0.14664449
0001a0 6e dd 40 3c 59 fd 55 3f 72 ea 6e 3f 06 15 f3 3e
       0.011771543 0.835897 0.93326485 0.47476977
0001b0 0a 45 14 3c e4 2d 38 bd 5b dd f0 3c 17 29 4c be
       0.009049663 -0.04496564 0.029402426 -0.1993755
0001c0 98 2c db 3b a6 c1 12 3e 3c 94 27 3d b6 79 99 bd
       0.0066886656 0.14331684 0.04091285 -0.07493918
0001d0 12 ca 43 3d 67 b2 ea 3d ea 5a 3d 3d c9 c4 f9 bd
       0.04780013 0.11459809 0.04622928 -0.12195737
0001e0 3b b0 29 3d 50 c6 17 bd 08 28 12 3e 3a 78 00 3d
       0.041427832 -0.03705436 0.14273083 0.031364657
0001f0 7d b6 8a bb d9 51 0a be ca 36 23 3d 6b 17 31 3d
       -0.00423318 -0.13507785 0.039847173 0.043235224
000200 a3 5a c2 bd 7e 61 dd bc f4 df 18 bd da 54 20 3d
       -0.09489944 -0.027024027 -0.037322953 0.03914342
000210 1f a1 e1 3c 15 d1 9e 3d 7f 2e 58 bd b3 cc c5 be
       0.027542649 0.07754723 -0.052778717 -0.38632736
000220 bb ea 5f bd c5 0e 97 3e fb ca 0c bf 33 b7 94 3d
       -0.054667216 0.29503456 -0.54997224 0.07261505
000230 55 6d 23 3f 7e ca 4e be d9 bd 4c 3d 91 d8 36 3e
       0.638387 -0.20194432 0.04998574 0.17856051
000240 00 a3 fa be a7 53 19 be 5e 6b df 3e 54 27 68 bf
       -0.48952484 -0.14973317 0.43636602 -0.9068501
000250 f0 fb be 3d 6c 95 4e 3f 98 8d c7 be 89 47 47 3d
       0.09325397 0.8069675 -0.38975215 0.048652206
000260 a7 be ee 3e 5e 7d bc be 29 eb b4 bb 8a 11 f3 3e
       0.4662983 -0.36814398 -0.0055211973 0.4747432
000270 86 fb 5d bf 48 e6 8a 3d 39 d8 4e 3f b6 42 ee be
       -0.8671192 0.06782204 0.8079868 -0.4653527
000280 93 d1 d8 3d 2a c8 7d 3e 22 76 62 be b8 e6 78 be
       0.10586848 0.24783388 -0.22115377 -0.24306762
000290 4e 1a a5 be 4a 12 2e be c9 b5 45 be 7d 92 a5 be
       -0.3224663 -0.16999164 -0.19307627 -0.32338324
0002a0 24 60 cf be fd 68 ae be 56 23 80 be 42 31 7a 3e
       -0.40503037 -0.34064475 -0.2502696 0.24432853
0002b0 f1 d3 d8 3e 16 73 91 3e 15 48 a2 3e 2a f8 26 3f
       0.42349198 0.28408116 0.3169562 0.6522242
0002c0 3f 42 db 3e 78 c0 90 3e f2 44 d8 3e 00 72 9d 3e
       0.4282398 0.28271842 0.422401 0.30751038
0002d0 ec 00 0f bc f1 41 94 be 0b e7 f2 3d 48 0d 36 3d
       -0.008728247 -0.2895656 0.11860474 0.04444626
0002e0 01 aa 0b be 82 69 11 be b6 1f 0c 3c 6e 9f 9c be
       -0.1363907 -0.14200404 0.008552482 -0.30590385
0002f0 10 c4 d9 bc d7 d5 48 3e f1 88 0f 3e a5 59 4c 3d
       -0.026582748 0.19612823 0.14017083 0.04989018
000300 32 4e a5 3e 93 19 2b 3f 97 21 8f 3b 15 11 e9 3d
       0.3228622 0.668359 0.004368018 0.11380211
000310 de 10 72 be 62 2c 66 3c 3a f7 f4 be 1f 0c 1a 3d
       -0.23639247 0.014048668 -0.4784487 0.037609216
000320 c4 68 87 be 64 d7 a4 be b4 c9 03 3f 9f 67 16 be
       -0.26447117 -0.3219558 0.5147965 -0.14687966
000330 df ec b3 be e1 83 ed bd e0 67 c6 bd 00 64 4b 3e
       -0.35141656 -0.115974195 -0.09687781 0.19862366
000340 70 5e 9d be ee cb d5 3d 18 d3 21 be ed 1a 37 3e
       -0.30736113 0.10439287 -0.15803182 0.17881365
000350 ff 3a aa bd d3 2d f7 3d 2a 7c 0b bf 1b 9b 6a 3e
       -0.08312034 0.12069287 -0.54486334 0.2291073
000360 9e 71 29 be 66 47 04 3e 28 48 30 be 60 34 89 3c
       -0.16547248 0.12917861 -0.17215025 0.016748607
000370 4f bb 51 bc 2f fc 83 3d 8e 11 80 3d 10 75 aa 3d
       -0.0128010055 0.064445846 0.06253348 0.08323109
000380 69 27 8f bd 6c 2c 34 bc 30 07 0f 3c a1 07 de 3d
       -0.06989939 -0.010996919 0.008729741 0.10841299
000390 27 65 06 3e 5a 3a 42 bd 12 e2 44 bd 5a 8d cb 3c
       0.13124524 -0.04741893 -0.04806716 0.024847675
0003a0 27 86 9c 3c fe 84 a0 bb 85 f8 72 3d b7 f2 4b 3d
       0.019106938 -0.0048986664 0.059319038 0.049792018
0003b0 51 e3 e9 bc db 50 d1 bd e8 c7 0e 3d f1 63 08 3d
       -0.028550776 -0.102205 0.034858614 0.033298437
0003c0 c8 ef 57 bd 1b 51 55 be 59 41 7e 3d 95 45 d4 3e
       -0.052718908 -0.2083172 0.06207404 0.41459337
0003d0 0e 15 33 3f dc 7e f6 3d 7e 7b 2a be 86 a8 0e be
       0.69954 0.12035915 -0.16648671 -0.13931474
0003e0 4f a9 d4 3b f0 4c 71 be c8 26 29 bf 9d 5a 12 3d
       0.0064899097 -0.23564506 -0.660748 0.035730947
0003f0 64 00 1b 3f ef a9 60 3f 91 48 de 3e cb 45 52 be
       0.6054747 0.877593 0.4341474 -0.20534436

conv0.0.bias f4 [32]
000000 59 cf 3f 3e 64 6f 77 bb a1 ae d1 3c 64 5e 92 bc
       0.1873144 -0.0037755603 0.025595965 -0.017867275
000010 b5 57 d3 3c 93 76 84 3e 82 55 fc bf 76 70 0d be
       0.025798658 0.25871715 -1.9713595 -0.13812432
000020 e5 63 29 bb 07 6f 63 bc 85 03 6c bd f3 df 22 3d
       -0.0025846895 -0.013881451 -0.057620544 0.039764356
000030 da 69 09 3e f5 2c 37 3d 02 99 42 3e ed 17 1e 3a
       0.13419285 0.04472061 0.1900368 0.0006030787
000040 a1 9b e4 3c 34 92 1f 3d 56 04 34 3e be f5 ce bd
       0.02790624 0.03895779 0.17579779 -0.10105465
000050 21 e8 b4 3d d5 7d 21 3e 94 5e 70 bd f2 a6 42 3e
       0.088333376 0.15770657 -0.058683947 0.19008997
000060 1f 7b ba bc ae 0d 89 3d 56 8d 96 3d 89 c3 04 3d
       -0.022763787 0.06692062 0.073511764 0.03241304
000070 53 20 f9 bd 12 8b 12 bc 47 16 ca 3d 39 55 87 bd
       -0.121643685 -0.00894429 0.0986753 -0.06608052

res_conv1.0.weight f4 [32, 32, 3, 3]
000000 2c 10 ce bc ab df ef be 33 ad 08 3e 86 4c 49 bf
       -0.025154196 -0.46850333 0.1334732 -0.7863239
000010 73 2d 63 3e 76 60 38 be 92 dd 9d bf c8 a5 34 bf
       0.22185306 -0.18005547 -1.2333243 -0.7056546
000020 28 5a c3 bd 4d fa c1 bd 80 01 91 be f9 f6 d1 be
       -0.0953868 -0.09471569 -0.28321457 -0.41008738
000030 72 79 f3 3d 43 0e bc bc b8 f2 c1 be 03 77 a9 be
       0.11888398 -0.02295602 -0.37880492 -0.3309861
000040 47 e2 98 3e f4 11 10 3f 5a 9d b1 3e 6d db 15 3f
       0.29860136 0.56277394 0.34690362 0.5853794
000050 69 27 ac be f8 0a 40 3e 17 cf 2c 3e 5e 2e 15 be
       -0.33623818 0.18754184 0.16875874 -0.14568469
000060 96 ea 43 3e 73 94 05 bd b2 00 0e bf 96 48 0a 3f
       0.19132456 -0.032612275 -0.5546981 0.5401701
000070 b8 8e 0c 3f 7f 61 c2 bd 94 e4 18 3f 78 2a 83 3c
       0.5490527 -0.09491252 0.5972378 0.016011462
000080 74 f9 f5 bc 63 2b d2 3e 00 86 f4 be 20 e6 6c bf
       -0.030026175 0.41048726 -0.47758484 -0.9253864
000090 77 6f 35 3e fd 60 2b be c8 1d b6 bd 18 dd 26 be
       0.17718302 -0.16736217 -0.08892399 -0.16295278
0000a0 66 61 39 bf 97 d6 3f bd e8 3c 37 3e 5d e2 54 3e
       -0.72414243 -0.04683551 0.17894328 0.20789476
0000b0 51 c8 8c bd c2 93 25 bf f8 d0 15 bf 9a a2 4f 3f
       -0.06874145 -0.64678586 -0.58521986 0.81107485
0000c0 26 6b 4c 3e 43 d4 a5 3e 34 59 e5 bd a6 c8 0e 3f
       0.19962749 0.32388505 -0.11198655 0.55774915
0000d0 48 ca 68 3c 27 a0 5b bf 73 74 17 be 4d 05 a9 bd
       0.014208384 -0.8579125 -0.14790516 -0.08252964
0000e0 ec 40 4e be ab d8 5b bd 78 61 29 3e 6d 91 32 be
       -0.20141953 -0.053673428 0.16541088 -0.17438288
0000f0 93 f2 ac be 2a 60 09 3f df a7 2e 3e fd 08 27 3f
       -0.3377882 0.5366236 0.17056225 0.6524809
000100 6e 78 06 3f 95 65 27 bf 5a 75 04 3f 0e 8c 20 3f
       0.5252751 -0.65389377 0.51741564 0.62713706
000110 49 ce 78 be 1d a7 29 3c b1 aa 05 be 97 94 30 bf
       -0.24297442 0.010354784 -0.13053395 -0.6897673
000120 7e b5 c7 bd 5a d9 87 be 3e fc cd bf c0 47 5f be
       -0.09751414 -0.26533014 -1.6092603 -0.21804714
000130 8a 11 34 3f 99 8e e5 3e 4f 12 db be d9 51 02 bd
       0.7033926 0.44835356 -0.42787406 -0.031816337
000140 44 20 d2 be 04 af b6 bd 4f a4 85 bd 3e bf cb bd
       -0.41040242 -0.089201 -0.0652548 -0.09948586
000150 ba 28 51 3e 38 8a 7c 3e d8 94 88 3e ed 3f c8 3d
       0.20425692 0.24662101 0.2667606 0.09777818
000160 6f 1f 25 3d 8a 9a 43 3d 19 e9 c4 be 09 3f 7d be
       0.04031318 0.0477548 -0.3845909 -0.24731077
000170 0b f4 b0 3c 65 12 81 3e d9 23 a1 be c6 b1 e9 bd
       0.021600744 0.25209346 -0.31472662 -0.11410861
000180 0d f9 ee 3d 14 b5 49 be bf 91 8c 3e 7a 9d 35 bb
       0.116685964 -0.19697982 0.27454945 -0.0027712272
000190 de de a0 bc 77 20 4e be ce 45 f9 bd 14 65 40 3a
       -0.019637521 -0.20129572 -0.12171517 0.00073392806
0001a0 62 a1 2f be 72 12 19 3d 1c 25 c1 bd 66 eb eb 3d
       -0.17151406 0.037371106 -0.09430906 0.11519508
0001b0 cf 5d 67 3e 19 54 fd 3e 6c d6 77 3f 43 2d ee bc
       0.22594379 0.49478224 0.96811557 -0.029074317
0001c0 a4 dc 8d 3e a2 63 97 3e 74 35 59 bf 5a 2e 86 bf
       0.27707398 0.295682 -0.8484719 -1.0482895
0001d0 8f 48 4d bf 27 c8 94 bd 76 d7 f4 3d d1 c9 82 bc
       -0.8018884 -0.072647385 0.119551584 -0.015965374
0001e0 a7 d3 5a 3e 6b bf c4 bd b1 c1 b6 3d 07 a5 69 ba
       0.21369801 -0.096068226 0.089236625 -0.00089128356
0001f0 6c 75 33 3c ed 50 a0 bd 7a 72 3b 3e 5d 7e c6 bc
       0.0109532885 -0.07827935 0.18305388 -0.024230177
000200 22 63 7b 3d 95 77 12 be d3 90 97 3d 09 1d 87 3c
       0.061373837 -0.1430343 0.0740067 0.016493337
000210 92 6d 1c 3e 89 2a f5 bd ad 07 71 be 9b 0c 90 be
       0.15276173 -0.119710036 -0.23538084 -0.28134617
000220 f0 7d 0c 3d 64 52 81 3e 7d 17 88 bc df 93 90 3e
       0.03429979 0.25258172 -0.016612763 0.28237817
000230 ae c8 5b 3e 95 52 34 3d d7 77 50 3e 58 4f 07 3d
       0.21463272 0.04402407 0.20358215 0.033034652
000240 28 d3 4e 3e 54 d0 5a 3d 79 09 8f 3c cb da fa 3e
       0.20197737 0.053421333 0.017460572 0.4899505
000250 c1 5d b1 3e e7 d1 e5 3d 8c 0a e7 3e 1a 93 5f 3e
       0.3464184 0.11221676 0.45125234 0.21833459
000260 88 f1 25 3f ad e0 48 3e be 30 f1 3e ce 85 4b bd
       0.6482167 0.19616957 0.471075 -0.049688153
000270 23 d4 9a bd 3f bc 1b be 44 f6 21 be 34 bc 88 bd
       -0.07559993 -0.15208529 -0.15816599 -0.06676522
000280 f2 da 91 3e 68 58 f5 3d 01 43 e1 3d ae b6 8a 3e
       0.28487355 0.11979753 0.10999108 0.270925
000290 11 0a b7 bd 7e 63 2e 3c 57 2b 9d 3b ca 6d c8 3d
       -0.08937467 0.010643838 0.0047964263 0.097865656
0002a0 30 69 0d bd 99 d2 c3 bd 44 7d 58 3e 32 1e cb 3e
       -0.034524143 -0.09561653 0.21141535 0.39671475
0002b0 c1 27 f4 bd 7c 94 df be 6f e6 22 3d 09 db 1e bf
       -0.11921645 -0.43667972 0.03977054 -0.6205297
0002c0 a6 71 8a be 95 fc f5 3e ec e3 12 3f 87 e1 89 be
       -0.27039832 0.48044267 0.5737903 -0.26929876
0002d0 ba ef ca 3e 60 9b 36 3e 1c 00 29 3c 55 73 7a 3e
       0.39636022 0.17832708 0.0103149675 0.24458058
0002e0 8b 8f a0 3d da ee 86 bd 69 26 62 3e 20 55 01 3e
       0.07839879 -0.06588526 0.22084965 0.12630129
0002f0 da 56 b6 bd 23 e1 f2 3d 1c de da 3c e4 2f 07 bf
       -0.08903284 0.11859348 0.026717238 -0.5280745
000300 69 37 8c 3e 5a 02 16 be be b6 09 bf 4f ce fd 3e
       0.27386025 -0.14649335 -0.5379447 0.49571463
000310 3d 01 fa 3e 36 6f de be 2d 40 3d be cb a8 03 3d
       0.4882907 -0.43444222 -0.18481512 0.032143395
000320 ee db 0d 3f d7 ca 7f 3d cc c6 a4 be 9a f6 98 be
       0.5541371 0.062449303 -0.3218292 -0.29875642
000330 b4 72 35 3f ea dd 3f bd f6 1a 85 be 12 bd 6a be
       0.7087815 -0.046842493 -0.25997132 -0.22923687
000340 22 3c b7 3e c0 e6 ac 3d e1 db 64 3e c2 fe bd be
       0.35788065 0.084424496 0.22349502 -0.37108427
000350 33 cc 65 bd 8a f1 45 3e bd fd 22 3d d2 57 91 be
       -0.056102943 0.19330421 0.039792765 -0.28387314
000360 47 70 63 3d 32 9c 56 3d 1a 4e 81 3d 10 33 70 bc
       0.055526998 0.052395053 0.06313725 -0.014660612
000370 d8 04 82 be 16 cd d8 bd da f9 4c 3e 0e e1 c6 bd
       -0.2539432 -0.10585992 0.20017186 -0.097108945
000380 7f fd a5 3d 0a 25 c0 3e 9f c5 2e bf 3f 59 cf be
       0.08104991 0.3752826 -0.68270296 -0.40497777
000390 96 35 c9 be c7 f6 3a bf 0d 5b 29 3e eb f4 dd bc
       -0.39298695 -0.730328 0.1653864 -0.027094325
0003a0 aa b2 f5 3c c7 8f 48 3e b1 7d 09 bf 18 9b b5 be
       0.02999242 0.19586097 -0.53707415 -0.3546989
0003b0 e9 be 88 3e 73 46 9a be 9c 3f 10 3e b0 c0 2a 3e
       0.26708153 -0.30131873 0.14086765 0.16675067
0003c0 73 93 a5 3d d5 30 c1 3e ec fa aa 3d 7e 57 25 3c
       0.08084764 0.37732568 0.08348641 0.010091661
0003d0 9c f8 49 3e e1 ab ce 3e 83 ff 72 3e 33 b5 3c 3e
       0.19723743 0.40365508 0.23730282 0.18428497
0003e0 8d f9 b1 3d 5a 5e f5 3d 48 e7 98 3d ca fd 9f 3f
       0.08690176 0.11980887 0.074659884 1.2499325
0003f0 3b 45 63 3e 5a 3f eb be dc f6 23 be 41 11 e0 3d
       0.22194378 -0.4594677 -0.16012138 0.10940791

res_conv1.0.bias f4 [32]
000000 5c 2c 3b be 94 5d 7f be c7 3d 92 3d 2b ad c9 bb
       -0.1827864 -0.24938041 0.07140689 -0.0061546764
000010 11 f6 a3 bd 11 82 0d 3d 02 a6 16 be 56 28 e5 bc
       -0.08005918 0.03454787 -0.14711764 -0.027973335
000020 27 6e 5e 3d d2 64 63 3d 93 31 75 be 3c 8e 6d be
       0.05430427 0.05551607 -0.23944692 -0.2319879
000030 13 ac 16 3d 97 6d 7f ba 4c e8 e3 3d 74 f0 7d 3d
       0.036785197 -0.0009743808 0.111282915 0.061996892
000040 c7 6a 87 be a5 71 32 be a6 0b 70 3d 6e f1 9e 3c
       -0.26448652 -0.17426164 0.05860486 0.019402232
000050 32 0b 9f bc d2 2a 1d bd e5 6d b7 3c ff c6 93 bd
       -0.019414518 -0.038370915 0.022391269 -0.0721569
000060 23 59 fe 3d 5a cf 96 be 08 6f 8b bd 94 f4 47 3d
       0.12419345 -0.29455072 -0.06808287 0.048817232
000070 66 6f 42 be a5 61 bf bd 1a 3a f3 3c e7 9c 0f be
       -0.18987808 -0.09344796 0.02969079 -0.14024697

res_conv1.2.weight f4 [32, 32, 3, 3]
000000 3c a6 8b bd 26 3e df bb 94 91 0d bd fd bf 2b 3d
       -0.06818816 -0.0068128286 -0.034562662 0.04193114
000010 47 f5 d1 3c 39 ca 2e 3b 20 56 ea bc e8 f2 f6 3c
       0.025629653 0.0026670827 -0.02860552 0.030145124
000020 86 b7 ae 3c b9 97 21 bd dd 55 95 3c e0 55 85 bc
       0.021327745 -0.039451335 0.01822942 -0.0162763
000030 ff f8 71 bc f2 2e 66 3c 45 97 fd bc 71 a0 12 3d
       -0.014768838 0.014049279 -0.03095592 0.03579754
000040 06 13 f7 b9 cc 01 94 3d 3c ef b7 bc 01 22 f6 3d
       -0.00047125685 0.07226905 -0.022452943 0.120182045
000050 d9 06 43 3e 95 6b f3 bd aa 13 01 3e 7d fa 18 3c
       0.19045581 -0.11885754 0.12605157 0.009337065
000060 fb 40 37 be bd 7d d0 3d 49 51 32 3b 50 01 ea bd
       -0.17895882 0.10180233 0.0027209094 -0.114260316
000070 66 59 4b 3e 96 81 2c be 89 57 3f 3c 3a eb 92 bc
       0.19858322 -0.16846308 0.011678585 -0.01793443
000080 5c 3f bc bd f4 ca 84 bd 34 fe ff bc 04 3c 51 bd
       -0.09191772 -0.06484023 -0.031249143 -0.051082626
000090 6f d3 2d 3b 52 e3 81 3c 97 b0 89 bd 96 d7 4f bd
       0.002652373 0.015855465 -0.06723135 -0.05074271
0000a0 79 b6 d8 ba 3d fb 84 3c 6a 08 98 3c 36 62 04 3c
       -0.0016533873 0.016233081 0.0185587 0.008080056
0000b0 a5 97 b7 3c d7 38 91 bd 26 a9 a9 3d 4a a5 a8 bd
       0.022411177 -0.070909195 0.08284216 -0.082346514
0000c0 bd 14 ea bc e2 7f bd 3c ec 83 27 3b 37 ae 2d be
       -0.028574342 0.023132268 0.002556081 -0.16960989
0000d0 5f 64 80 be 20 ce 39 bd 37 ef e5 3c 8e 63 a1 3d
       -0.25076577 -0.04536259 0.028068168 0.07880317
0000e0 01 96 27 bd cd a9 bf bc 47 4c 36 bd a7 a9 f4 3c
       -0.04091454 -0.023396397 -0.044506337 0.029866053
0000f0 ab a8 af 3b 40 a3 e3 bc ca e0 cd bc 60 3b 79 be
       0.005360683 -0.027787805 -0.025131602 -0.24339056
000100 69 77 6e bd a1 17 b2 bb 85 e0 3b 3c 0c df 90 3a
       -0.058219347 -0.0054349457 0.011467104 0.0011052801
000110 3d 57 8a bc d0 d6 03 3e 1d d5 0b 3e a7 9c 0d 3e
       -0.016887302 0.12874913 0.13655515 0.1382929
000120 61 c3 8b be 78 ea 77 be ad c6 01 be 3d 9f de bd
       -0.272975 -0.24210536 -0.12673445 -0.10870216
000130 14 d4 a9 bd 00 c9 ac 3d 91 51 a5 bd 9a c3 c3 bd
       -0.08292404 0.08436775 -0.08072198 -0.095587924
000140 b5 69 ea bd 4e 8e 88 bc c3 b1 5e 3d f0 4d 46 3c
       -0.11445943 -0.016669419 0.054368746 0.012103543
000150 58 8c ac bb 55 d1 c2 3d c7 9b aa bb f4 ee 84 3c
       -0.0052657537 0.09512583 -0.0052065584 0.016227223
000160 ad d9 17 3e 99 dc ad bd ae ae a6 bd 51 0f 8f bd
       0.1482913 -0.08489341 -0.08138786 -0.06985343
000170 6e 1a 9b bb 1f fa 87 3b 2f 13 c6 b8 c8 bb 62 bc
       -0.0047333753 0.00414969 -9.444949e-05 -0.013838716
000180 f4 82 51 bd 66 71 f9 bc 20 27 84 bd 19 15 32 be
       -0.051150277 -0.03044958 -0.06452775 -0.1739086
000190 83 b3 a8 3c ce 0c e9 bd 31 2b 01 be b1 93 1d 3c
       0.02059341 -0.113793954 -0.12614132 0.009617732
0001a0 f7 bc b0 bd 01 5c 7e be 55 86 43 be 22 37 9a bd
       -0.08629792 -0.24839784 -0.19094212 -0.07530047
0001b0 c1 cd a3 be 7d 01 19 be ae e7 35 bd 62 ea b4 bc
       -0.31992915 -0.14941974 -0.0444104 -0.022084419
0001c0 dd 1e 28 bd 94 aa 72 3d 59 65 6b 3e 8c f3 4c be
       -0.04104506 0.059244707 0.2298788 -0.20014781
0001d0 57 29 c6 3e 04 83 1a 3e 2f 47 c2 bd eb 66 d2 3c
       0.38703415 0.15089041 -0.094862334 0.02568384
0001e0 20 bc a8 3c e0 c1 80 bd b3 e5 64 3d 6a 08 29 3e
       0.020597517 -0.06286979 0.05588312 0.16507116
0001f0 20 c9 2b be a5 c5 fc bb 46 c5 32 3d ff 33 94 bb
       -0.16775942 -0.0077139908 0.043645166 -0.0045228
000200 2b 56 e2 3c 77 98 6d bb 55 06 a0 3c 60 3a f4 bc
       0.027628979 -0.0036254206 0.01953427 -0.029812992
000210 5e dd b9 3c bf 7d 6b 3c dc 28 1b 3d 4c bc 76 bc
       0.022688564 0.014373242 0.037880763 -0.015059542
000220 48 4a 28 3e f3 36 7e bd 2f 45 3d 3d de ec a1 3d
       0.16434586 -0.062064122 0.046208557 0.07906507
000230 9b 84 0f 3d a8 40 6c 3b a0 62 95 3c ac 12 c8 3c
       0.03503857 0.003604928 0.018235505 0.024422966
000240 78 95 98 3d 42 f5 67 bd a2 5f 5a 3d 10 8e fc 3b
       0.07450384 -0.05663038 0.05331386 0.007707365
000250 c9 7a e0 3c 8c 4e 1d 3b 8e 99 a2 3d 97 cd 89 3c
       0.027402299 0.0024003116 0.079394445 0.016821666
000260 c6 e3 4d bb 1c 8c 11 bc 82 b4 ab 3c 9f c5 25 bd
       -0.003141628 -0.008883502 0.020960096 -0.04047167
000270 f2 d2 2a bd 6a 6e cc 3c 40 8d 79 bb 31 9b f9 bc
       -0.04170508 0.024954993 -0.0038078576 -0.030469509
000280 3b 02 c6 bb 75 24 5e bc f9 34 3c bc 37 d6 1a bd
       -0.0060427464 -0.013558497 -0.011487239 -0.037801947
000290 95 e6 55 bc 4e 5c 8d 3c 67 77 df 3c f4 c6 81 3c
       -0.013055463 0.017255928 0.027278615 0.015841939
0002a0 81 a9 00 3d 61 a0 96 3d d1 d6 9d bc 51 5a d9 bd
       0.03141165 0.073548086 -0.019267472 -0.106129296
0002b0 ea 8a 35 be 1c 0a 1a 3d 0e 59 38 3d 1b 16 81 bd
       -0.17728773 0.037607297 0.045006804 -0.063030444
0002c0 29 5a 0f 3d e1 42 17 3e 41 5b 23 3e 94 39 e4 bd
       0.034998093 0.14771606 0.1595278 -0.11143795
0002d0 b2 c9 b3 3e 31 68 e6 3d 84 66 e4 bd ff d8 36 bd
       0.3511482 0.11250342 -0.11152366 -0.044640537
0002e0 93 89 47 3d 2b b7 a2 3d b5 7e 1a 3e 19 02 4f bd
       0.048715185 0.07945093 0.15087397 -0.05053911
0002f0 28 46 0e bf 1c c8 d6 3c 13 c5 9f 3d 55 3f 99 be
       -0.555758 0.026218466 0.07801261 -0.2993113
000300 4f 04 d7 bd 8c 67 90 3d 71 66 8b 3d 9f 2a 86 3e
       -0.10498869 0.07051 0.068066485 0.26204392
000310 6e 4b 88 3b 77 5a 0d be 64 27 db 3e ec f0 8c 3d
       0.0041593825 -0.13804041 0.4280349 0.0688189
000320 c4 ed 4b 3e cd 28 c8 3d 9e 60 2a bd dd 30 15 3c
       0.19914919 0.09773407 -0.041596048 0.009105888
000330 10 b2 3e 3e 9c 75 26 3e e3 47 e4 3d 01 3a ad be
       0.18622613 0.16255802 0.11146524 -0.33833316
000340 1e 16 27 be 51 15 2d bd 2d 25 c3 bd 70 9f 6d 3d
       -0.16317031 -0.042256657 -0.09528575 0.05801338
000350 30 d4 fd bd 01 cd ff bd c9 de 45 be 01 af 92 be
       -0.12393987 -0.12490273 -0.19323267 -0.28649142
000360 e6 e9 8d 3b 86 66 74 bd 13 51 89 be bb e5 27 3d
       0.0043308614 -0.059668086 -0.26819667 0.040990572
000370 7b d4 be bb 9b 41 42 3c 6f 3c 8e 3e 67 65 81 3d
       -0.0058236695 0.011856462 0.27780482 0.06318169
000380 83 3a c8 bc b4 10 24 3c 0a 1f f8 ba aa 9a 08 3c
       -0.024441963 0.010013748 -0.0018930149 0.008337656
000390 31 ab 61 3c 41 5a db ba a8 2a d9 3c c0 64 43 bd
       0.013773725 -0.0016735272 0.026509598 -0.047703505
0003a0 70 eb 5a 3d 4c 16 9f ba 24 c4 1d 3c 21 26 05 3e
       0.053447187 -0.0012137382 0.009629283 0.13002826
0003b0 26 7a d8 3d 33 39 fc 3d 61 d0 9e bb 1f a2 bc 3d
       0.10570173 0.123155974 -0.004846618 0.0921061
0003c0 c5 ee ef 3d 45 47 5d bc 81 06 2a 3e 0d 99 14 be
       0.117154635 -0.0135057615 0.16604044 -0.14511509
0003d0 c6 fe a9 3d fe 50 21 bd a1 d2 ac 3c ab be 0e be
       0.08300547 -0.03938388 0.02109653 -0.13939922
0003e0 b8 55 c6 bc 4e e9 21 3d f7 be 35 bc f8 89 59 3d
       -0.024210796 0.039529137 -0.011092893 0.053110093
0003f0 41 32 04 3c e0 17 f4 3a d5 d5 aa 3c 72 06 1e 3c
       0.008068622 0.0018622838 0.020853916 0.009645091

res_conv1.2.bias f4 [32]
000000 fc 24 94 ba eb 5e e7 bd fe 46 c3 bd b0 2b b5 bd
       -0.0011302526 -0.11297401 -0.09535025 -0.08846223
000010 b8 df 92 be c1 a0 c4 3d f9 7b ad 3d d0 a1 ba bd
       -0.2868631 0.09600974 0.084709115 -0.091128945
000020 ab a8 b0 3d c9 b3 bc bd 71 45 dd 3c e1 37 0a 3d
       0.08625921 -0.09213979 0.027010651 0.033744697
000030 ea 0a e6 3d 65 37 7f bd 39 be e5 3c a4 52 b0 bd
       0.112325504 -0.062308688 0.028044807 -0.086095124
000040 51 67 b4 be f2 b6 00 bd 08 01 84 3c 8c e4 b9 bd
       -0.35235074 -0.03142447 0.016113773 -0.09076795
000050 6b 97 77 bd 39 0b b9 3c fc cc dc bd 0c 90 e9 3c
       -0.060447138 0.02258836 -0.10781285 0.02851107
000060 95 b0 15 3d 65 df d8 3d 00 0c d6 bd ea b1 82 3e
       0.036545355 0.10589484 -0.104515076 0.25526363
000070 36 d4 9f ba 52 7e a4 bc 75 72 81 3d c4 17 93 3c
       -0.0012193981 -0.020079765 0.06320659 0.017955668

conv_i.0.weight f4 [32, 64, 3, 3]
000000 87 63 59 40 15 8a db 3f a3 d3 3b bf a9 a3 1e bf
       3.3966997 1.7151514 -0.73369807 -0.61968476
000010 ff e8 b5 3f f2 15 0b 40 fa a2 0c 3f 2a 2f e6 c0
       1.421173 2.1732144 0.5493618 -7.1932573
000020 d9 6c 1d c0 fb 0a 1a bf ea 5d 4d bf 35 4b b0 3e
       -2.4597685 -0.60173005 -0.80221426 0.34432378
000030 d1 5f 93 3f 2d 52 8a bf 17 b4 78 bf 19 ff 04 3f
       1.1513616 -1.0806328 -0.97149795 0.5195175
000040 c4 66 a3 3a d2 23 40 bf 25 87 ca be 9b b9 ae be
       0.001246654 -0.7505466 -0.39556232 -0.3412598
000050 fb 83 11 be cd 67 72 be 0d 13 16 bd 65 12 f4 be
       -0.14210503 -0.2367241 -0.036639262 -0.47670284
000060 c2 90 92 be f8 7d 6d 3e 94 0b 01 bf 7c df 83 3f
       -0.28626066 0.23192585 -0.5040829 1.0302577
000070 26 9a 25 bf 29 aa a2 bf 44 09 9a 3f 87 94 3b 3f
       -0.64688337 -1.2708179 1.2034078 0.7327351
000080 21 af cb 3e 85 10 b6 3e 74 fa 9d 3e 6c 81 13 3f
       0.3978205 0.35559478 0.30855143 0.5761936
000090 70 bd dc 3e f0 ca a7 3c df 6e 05 be 56 59 01 be
       0.4311328 0.02048251 -0.13030575 -0.12631735
0000a0 ac c2 05 3e 02 e1 28 3e 99 45 b0 3e ab 7c 3a bf
       0.13062543 0.16492084 0.344281 -0.7284648
0000b0 3b c0 d0 bf 30 b1 07 3f 30 1d 0e 3f cb 5c b5 3f
       -1.6308664 0.5300474 0.55513287 1.4168943
0000c0 28 bd 41 3e dd 35 91 3e e0 d1 02 3f 6b e9 a7 be
       0.18919814 0.28361407 0.51101494 -0.3279527
0000d0 41 8f 07 bf ee 34 78 bc ad 0b 13 3f 6a 46 e6 be
       -0.52952963 -0.015149338 0.5743969 -0.44975597
0000e0 3c ed bc 3e f2 b2 80 bf e6 d6 cd be 5c 8b de 3f
       0.36899745 -1.005461 -0.40203017 1.7386279
0000f0 09 92 e5 be 8a 1e c6 3e a5 97 0d 40 0a d8 6d be
       -0.44837978 0.38695174 2.2123806 -0.23226944
000100 a4 9f 3a bf 30 8a bb 3d 19 36 09 c0 58 6b 2c 3f
       -0.7289984 0.091572165 -2.1439269 0.67351294
000110 70 12 da 3f 04 7e 05 3f 88 47 c7 3f 31 f9 b1 3f
       1.7036877 0.5214541 1.5568705 1.3904172
000120 52 61 c8 3d ae 9f 4a 3f 67 7b a3 3f ee a0 ba 3f
       0.097841874 0.791499 1.2772034 1.4580362
000130 ed 4d 46 3f 68 23 8b 3f b0 55 db 3d d7 27 b5 be
       0.77462655 1.087018 0.10709703 -0.35381958
000140 bd 46 8b be e9 9f 97 3f 8d eb a8 3f 50 b0 f8 be
       -0.27202407 1.1845676 1.3196884 -0.48572016
000150 2b 55 92 3f 23 b3 1a 40 7f a6 c7 be 76 76 a6 3f
       1.1432241 2.4171836 -0.38994214 1.3004901
000160 70 5a cb 3f 51 2c 67 bf 71 0b fc bb 82 a6 12 3d
       1.5886974 -0.90301996 -0.0076917936 0.035803325
000170 4b 4d 86 3b 65 d3 0b bd 92 8e 1f bd 07 fd 1e 3d
       0.0040985695 -0.03413715 -0.038954325 0.038815524
000180 5c b4 54 3c 66 a8 2e bc 66 d5 da 3c f6 cc d8 3f
       0.012982454 -0.0106602665 0.026713084 1.6937549
000190 6b c9 50 3f 8b 5e 95 3e 18 f0 13 40 65 24 41 3f
       0.8155734 0.29173693 2.3115292 0.7544616
0001a0 57 96 6f 3f 5b 54 9f 3f 10 5a 95 3f 28 60 89 3f
       0.93588775 1.2447618 1.166811 1.073247
0001b0 14 41 45 be 5f 86 c5 bf 1e 1e 24 40 8e 74 76 40
       -0.19263107 -1.5431632 2.5643382 3.850864
0001c0 15 70 be 3e de ac dc bf 00 6b f2 3e a2 9f f0 bf
       0.37194887 -1.7240255 0.4734726 -1.8798716
0001d0 b6 53 e9 bf c4 c6 1f c0 b4 61 2b c0 22 fe ef bf
       -1.8228672 -2.4965067 -2.6778383 -1.874943
0001e0 0c df 58 c0 2e 42 15 c0 7b c2 1e c0 0b 1b d3 bf
       -3.3886137 -2.3321643 -2.4806201 -1.6492628
0001f0 fe b8 65 bf eb 4f f3 bf b4 f1 b8 3e 3e ef 1c bf
       -0.897354 -1.9008764 0.36121905 -0.61302555
000200 60 de af be 4c da 55 3f a7 09 21 3e b4 ba fa 3e
       -0.34349346 0.8353622 0.15726338 0.48970568
000210 50 ad c0 bd 95 18 bf bd 11 12 4a 3e e5 70 17 40
       -0.09408057 -0.093308605 0.19733454 2.3662655
000220 ba 4f 91 be 72 ab 78 bf 62 45 c1 3f 75 12 22 3e
       -0.2838114 -0.97136605 1.5099299 0.15827353
000230 1a 39 4e 3e 99 b0 af 3f b6 17 93 be 08 bd 75 3d
       0.2013897 1.3725768 -0.28729028 0.059994727
000240 39 5f 16 40 6c 26 da be 08 54 3c c0 a5 b7 dd 3f
       2.349562 -0.4260744 -2.9426289 1.7321669
000250 af 51 48 bf 70 d9 51 c0 0c 40 11 40 3e a7 24 be
       -0.7824964 -3.2788963 2.269534 -0.16079423
000260 5a be 0f c0 fb ad 9c 3f 5d c5 6f be f6 fc 5c bf
       -2.2459931 1.2240595 -0.23415132 -0.8632349
000270 00 22 3d 3f 4c d6 cc be e1 32 d9 3e 11 23 68 3f
       0.73880005 -0.40007246 0.4242163 0.9067851
000280 27 8a 98 bf 9c ff 14 be 15 44 33 40 e4 22 ea be
       -1.1917161 -0.14550632 2.8010304 -0.45729744
000290 7a fa ad bf 63 52 c6 3f 2d 2c ac be 3d b6 03 bf
       -1.3592064 1.5493892 -0.33627453 -0.5144995
0002a0 32 12 b6 3f 60 76 7f bf a8 c1 09 c0 a1 ce 9d be
       1.4224303 -0.9979 -2.1524448 -0.30821708
0002b0 26 06 32 3f 97 73 d0 3e 18 13 92 be cd 22 3c 3f
       0.6954063 0.40713188 -0.28530192 0.734906
0002c0 09 cf 59 be 9c 46 d1 be b5 1a ae 3e bf 03 10 bf
       -0.21270384 -0.40874183 0.3400475 -0.56255716
0002d0 14 33 4b 3e 39 7a 8b 3f 9f 33 c4 be 78 19 b4 3c
       0.19843704 1.0896674 -0.38320634 0.0219848
0002e0 58 bc 7d bd 84 a7 05 bf e3 78 be be a9 8e 8d be
       -0.061947197 -0.52208734 -0.37201604 -0.27647904
0002f0 93 9e 9d be eb 0f 2b bf 6d cf 08 bf dc 24 20 40
       -0.30785045 -0.66821164 -0.53441507 2.5022497
000300 a6 e8 c7 3d 82 86 86 be 71 41 34 40 b1 00 49 be
       0.09761171 -0.26274496 2.8164942 -0.1962917
000310 50 84 3f bf 0a 83 13 40 21 c0 d5 bb dc c3 26 bd
       -0.7481127 2.304873 -0.0065231477 -0.04071413
000320 ce eb 25 bd ae 2c 0e 3d b0 62 f8 bc df 3b 06 bd
       -0.040508084 0.03471058 -0.030320495 -0.03277194
000330 2f 76 89 3c 46 bc 38 bb 89 8a e2 bc d7 9e 9b bf
       0.016779987 -0.0028188392 -0.02765395 -1.2157849
000340 90 db ec be 40 ec 6a 3c 1f f4 0a 3e 0b 0f 6d 3f
       -0.46261263 0.014338553 0.13569687 0.9260108
000350 da 36 0e 3f 57 b7 95 bf 4f ca 5f bf ed 02 1d be
       0.55552447 -1.1696576 -0.87418073 -0.15333147
000360 a8 86 45 bf 66 08 19 3f d5 8b 0b 40 4f 5f 0d 3f
       -0.77158594 0.5977844 2.1804097 0.55223554
000370 b1 e6 82 3e 24 ec dc 3e a1 13 eb 3f e9 26 24 3f
       0.2556663 0.4314891 1.8365365 0.6412187
000380 e6 7e c6 3f ac ca f6 3b 1e 01 b4 bd ac b1 29 be
       1.5507476 0.0075314846 -0.087892756 -0.16571683
000390 22 d9 5c be d6 a8 75 be fb da 6b 3e 53 7a 42 be
       -0.21567205 -0.23990187 0.23032753 -0.18991975
0003a0 6a 47 03 3d 4f 02 35 3f 82 7a 7a bf bb 90 29 bf
       0.032050528 0.7070665 -0.9784318 -0.66236466
0003b0 91 0f 90 3e f5 49 33 3d fe 8e 26 3f 6a 03 c9 3f
       0.28136876 0.043771703 0.6506194 1.5704167
0003c0 8d 06 6d bf be 4b 94 be 43 da c1 3e da a7 b3 3f
       -0.9258812 -0.28964037 0.37861833 1.4035599
0003d0 4f 66 0a bf 13 0f 30 bf 44 c6 4e 3f 51 b7 85 bf
       -0.5406236 -0.68773 0.8077128 -1.0446569
0003e0 24 bb 9a be 32 ca 98 3f 79 99 44 bf 3b eb f7 3d
       -0.30220902 1.1936705 -0.7679668 0.121054135
0003f0 55 9e 9e be f3 87 65 bf 03 9a 7c bf fd 6f 08 be
       -0.30980173 -0.8966057 -0.98672503 -0.1332397

conv_i.0.bias f4 [32]
000000 63 60 a9 3d 36 6a dc bf 65 59 9e bf 61 0e b2 bf
       0.082703374 -1.7219913 -1.2371031 -1.3910638
000010 57 36 fe bf 7d 66 f5 be d0 f9 d0 bf 29 aa 8c bf
       -1.9860333 -0.47929755 -1.6326237 -1.0989429
000020 bc b0 a2 bf eb 88 4a c0 de e4 39 bf c1 16 28 3e
       -1.2710185 -3.1646068 -0.7261485 0.1641493
000030 19 43 d5 bf ca 67 a6 bf 83 96 a3 bf d6 d5 03 c0
       -1.6661102 -1.3000424 -1.2780308 -2.0599265
000040 3f 08 e4 bf 8f 13 ac be 05 3f be bf d9 f6 ef bf
       -1.7815017 -0.33608672 -1.4862982 -1.8747207
000050 d7 9f 48 be 02 e2 f6 bf 7b 50 05 bf ea a6 e0 be
       -0.19592224 -1.9287722 -0.5207593 -0.43877345
000060 95 8f 68 bf 35 cd 80 bf a3 e9 9c bf 8f a1 bf bf
       -0.9084409 -1.0062624 -1.22588 -1.4971179
000070 fe c4 66 bf 8a 8a b2 bf 15 f6 fb bf e6 d9 8e bf
       -0.90144336 -1.3948529 -1.9684473 -1.1160247

conv_f.0.weight f4 [32, 64, 3, 3]
000000 8f 07 a4 3f 0e 54 1d bf c3 80 34 40 6c b0 78 bf
       1.2814807 -0.6145638 2.820359 -0.971442
000010 b8 6b 1f c0 fb a9 8d 3f ff f7 3c 40 0b 2e 3e c0
       -2.4909496 1.1067499 2.9526365 -2.9715602
000020 c0 2f da 40 86 de 97 bd fb f7 21 3f a5 cc a0 bf
       6.818329 -0.0741549 0.63269013 -1.2562453
000030 86 ba f2 3f f5 a6 07 3e f7 6e c6 bf 96 bf 11 bf
       1.8963172 0.13247283 -1.5502614 -0.5693296
000040 0e 43 09 be 62 08 30 3f 2f c6 5d 3f de df 89 3e
       -0.13404486 0.6876279 0.8663053 0.2692861
000050 cc ea c7 bf e2 78 06 3f 2f d7 c8 be 37 44 80 bf
       -1.5618529 0.525282 -0.39226672 -1.0020818
000060 e8 d4 1c bf 28 a1 b9 be 1f 5f f6 bd 32 c2 bc 3f
       -0.6126237 -0.36255765 -0.12029862 1.4746764
000070 f8 a2 d5 bd 79 3a 13 c0 d1 cc eb 3d 71 44 6c 3d
       -0.104314744 -2.300444 0.11513675 0.05768246
000080 dd a2 ea bf cf 6f 1b be 69 7c 5b bf f6 c4 b6 bf
       -1.8330952 -0.1517937 -0.8573671 -1.4278858
000090 6d b0 d2 be 3c f4 22 3d 3b db b2 3d bf 6c e3 3e
       -0.41150227 0.0397837 0.08733221 0.44418904
0000a0 33 61 86 3f 96 91 d2 3c de 66 fb 3d b9 45 eb be
       1.0498413 0.025704186 0.1227548 -0.45951632
0000b0 64 2d c9 bf 56 c2 a8 3e a1 6a 96 be 84 a8 ff be
       -1.5716977 0.32960767 -0.29378226 -0.49933255
0000c0 ad ed 8d bf db 57 b7 bf d5 98 9e bf 41 94 94 be
       -1.1088158 -1.4323686 -1.2390391 -0.2901936
0000d0 ea 41 a3 3d 16 5f 63 3f 1d dc ef bf 21 62 e8 3d
       0.079715565 0.88816965 -1.8739048 0.113468416
0000e0 be 48 d4 c0 84 12 3c 40 b4 6c 02 40 fd 9f 19 c0
       -6.6338797 2.93863 2.0378847 -2.40039
0000f0 62 68 74 bf c7 c7 29 3e 7e b4 5a c0 0a d6 a8 3f
       -0.95471776 0.16580115 -3.4172664 1.319032
000100 db 23 54 3e 72 58 f8 be 86 27 90 bf 03 76 5c bf
       0.20716803 -0.48504978 -1.1262062 -0.8611757
000110 20 07 1a bf 7e 93 1b bf e5 ab 66 3f 92 a1 41 40
       -0.6016712 -0.6077193 0.9010604 3.0254865
000120 0b af 58 be 7e e6 0e bf 3d 24 b8 be 35 a9 d2 3e
       -0.21160524 -0.55820453 -0.35965148 0.4114472
000130 f7 3d 9a bd 78 cf a7 bd c2 2c 0f bf 4a 57 1b bf
       -0.0753135 -0.081938684 -0.5592767 -0.6068007
000140 c1 04 f7 be 0b 23 5a c0 88 b7 13 c0 b7 a8 f1 bf
       -0.48245814 -3.4083889 -2.3080769 -1.8879613
000150 18 68 00 c0 1b 00 99 bf 05 82 88 be 9a 3b 6d c0
       -2.0063534 -1.1953157 -0.26661697 -3.7067628
000160 3f e4 9c 3e d3 bc 21 c0 16 e2 85 3c b8 8c d9 bb
       0.30642888 -2.52715 0.016343158 -0.0066390894
000170 17 16 1a bd 2e e5 38 3c 27 22 ad 3c f4 94 9d 3c
       -0.037618723 0.011285109 0.02113445 0.019236065
000180 e0 80 b0 bc f1 a3 7d 3c 0a 86 1a bd a3 ac d8 3f
       -0.021545827 0.015480981 -0.037725486 1.6927685
000190 c3 2c 30 3f 82 76 e9 be 27 f5 85 3f 9f 3c 1b 3f
       0.688183 -0.45598227 1.046544 0.60639375
0001a0 58 1f 95 3e ca 3f 68 be a9 1c c4 3e 93 56 2e 3f
       0.29125476 -0.22680584 0.38303116 0.6810085
0001b0 6a 5d d2 bf cb 7f 88 3e c8 dc 15 3f c2 9e cd be
       -1.6434758 0.26659998 0.5854001 -0.40160185
0001c0 41 54 3d 3e f4 2e 59 3e 4a d2 95 bf 24 96 2e c0
       0.18489172 0.21209317 -1.17048 -2.7279139
0001d0 5f c3 8f bf 3b c3 8c bf 0f 99 8a bf 2e 22 78 3f
       -1.1231498 -1.099708 -1.082796 0.96927154
0001e0 00 e6 93 bf d0 33 6d bf 40 8a 83 be cc ce 16 bf
       -1.1554565 -0.92657185 -0.25691414 -0.58909297
0001f0 54 b0 22 bf 08 63 13 3d 8e ed e9 be af 53 9f be
       -0.63550305 0.035983115 -0.45689052 -0.31118533
000200 c9 57 f3 be 11 60 59 bf e3 6c 69 be 83 33 3f 3e
       -0.47527912 -0.8491221 -0.22795443 0.18671994
000210 3f ad 35 bf b8 1f 0b 3f 28 dc 5b 3f 17 38 9c 3f
       -0.7096748 0.54345274 0.85882807 1.2204617
000220 79 b0 f4 3e 49 c9 cd be 04 33 bb 3d 6f d3 9a be
       0.47790888 -0.4019263 0.0914059 -0.30239436
000230 64 9c 6e bf ea ba 0e 3f 0f ef 3a bf c5 95 42 bf
       -0.93207383 0.5575396 -0.73021024 -0.7600978
000240 52 98 df 3f 9a c8 94 3f c7 1e d8 bd 47 0b 65 3e
       1.746836 1.1623719 -0.10552745 0.22367583
000250 a9 dd e9 3d 2d 53 54 bf 76 83 8e 3d c4 5f 99 be
       0.114192314 -0.82939416 0.06958668 -0.29955876
000260 ed 80 67 bf 71 0a 80 40 55 9d 01 3f 5c 91 98 bf
       -0.904311 4.0012746 0.50630695 -1.191936
000270 2c 56 4c 40 44 18 a6 be 6b 75 de bf 0e b2 32 40
       3.1927595 -0.32440388 -1.7379583 2.7921176
000280 43 b4 1f be b1 a6 69 bf 4c 95 29 3f 77 27 db be
       -0.15596108 -0.91269976 0.66243434 -0.42803547
000290 b5 d3 ab bf 94 70 f5 3f 8a 04 17 3e 92 a3 63 bf
       -1.3423983 1.9174981 0.14747825 -0.88921463
0002a0 94 5d fc 3e 27 5e 92 bf 95 bc d1 bf bd 8d 4c c1
       0.49290144 -1.1434983 -1.6385676 -12.784604
0002b0 4a 08 82 c0 6e bb 02 c1 73 05 56 c1 d5 7c 41 c0
       -4.063512 -8.170759 -13.37633 -3.0232441
0002c0 2c ba 5e c0 2c b6 ab c1 37 cd 19 c1 06 ab f6 c0
       -3.480113 -21.463951 -9.612601 -7.708377
0002d0 48 e7 c7 bd d9 65 05 bf f4 c8 22 3f 59 56 d4 be
       -0.0976091 -0.5210853 0.6358788 -0.41472128
0002e0 0f 58 b5 be e5 ad 47 3d 4c ea e8 be b6 3d ee be
       -0.35418746 0.048749823 -0.45491254 -0.46531457
0002f0 ca 34 50 3d 43 3c b7 be b7 66 41 be cb b4 c0 3e
       0.050831594 -0.35788164 -0.18886839 0.37637934
000300 10 a1 47 bf e8 54 5e bd d1 b0 12 3f 91 0f 0e 3f
       -0.77980137 -0.05428019 0.5730105 0.554925
000310 2f 40 86 3f 55 a4 d9 3f 6c 9f 12 bd dc 1f b4 b9
       1.0488337 1.7003275 -0.035796568 -0.00034356012
000320 2b 51 57 bc 4f 54 82 3c c7 d5 e0 bc 74 61 b1 3b
       -0.013141911 0.015909342 -0.027445687 0.0054132286
000330 8b 30 1c bc 8e d5 ae 3c 0e 4b 34 3c 9d ca 0b be
       -0.009533058 0.021342065 0.011004223 -0.1365151
000340 8b 00 88 3d 6f 11 ca bf de 12 c2 3c 16 ad 3f be
       0.066407286 -1.578657 0.023690637 -0.18718371
000350 55 92 68 bf 4e 9f 0f 3f 57 ce e2 be 9c aa a8 be
       -0.90848285 0.56102455 -0.4429805 -0.32942665
000360 f8 ed 05 c0 82 64 e3 3f 5c 5e 83 c0 39 b6 dd bf
       -2.0926495 1.7765048 -4.1052685 -1.7321235
000370 2f 59 e4 3f ee 23 31 c0 d0 99 1f c0 ae 67 a5 3d
       1.7839717 -2.767818 -2.493763 0.08076416
000380 6e 4b 77 c0 41 45 9f bd dc 63 db bd 72 dd e9 be
       -3.8639789 -0.07776881 -0.10712406 -0.45676762
000390 70 0d 7b bd 9a 5a ca bc ca a9 71 be 95 3c 10 3d
       -0.061292112 -0.024701405 -0.23599926 0.035214026
0003a0 cf 41 5f 3e f6 2e cf b9 54 69 4e bf 64 ad 01 bf
       0.21802448 -0.00039517105 -0.8062947 -0.506552
0003b0 60 f4 80 be ab 9f 47 3d 6a 39 94 3e d0 08 a7 3e
       -0.25186443 0.048736256 0.28950053 0.3262391
0003c0 50 eb 09 bf a1 0b 6d bf 83 02 2d bf 97 15 78 bc
       -0.53874683 -0.9259587 -0.6758196 -0.015141866
0003d0 c4 a3 09 3f f1 27 83 3f d6 9b 48 bf 08 bd 94 3d
       0.5376551 1.0246564 -0.78362787 0.07262617
0003e0 0e 6a 5e 3f 0c 25 a4 bd 8a ce 07 3f 91 72 bc 3f
       0.86880577 -0.08014879 0.5304953 1.4722463
0003f0 b0 6e 0e be 36 cc 76 3e 2e 07 3f bf 10 83 07 bf
       -0.13909411 0.24101338 -0.7462033 -0.5293436

conv_f.0.bias f4 [32]
000000 35 af e2 bd 53 d6 48 3f e3 bb cc 3e ff 46 dd be
       -0.11068574 0.7845203 0.39987096 -0.43218228
000010 e0 31 b0 3e a6 7f a2 3e ee 10 87 bd 64 ed 28 be
       0.34413052 0.31738013 -0.06595026 -0.16496807
000020 83 57 22 bf a7 0f 20 c0 41 de c5 be 66 3a 4b bf
       -0.6341478 -2.5009553 -0.3864613 -0.79385984
000030 d8 a4 fc be 71 87 9f be c6 ac fd 3d 29 b0 ca be
       -0.49344516 -0.3115802 0.123864695 -0.39587525
000040 cb 3c f1 3e 94 44 29 bf 4e 09 a7 3f e1 d7 8c 3e
       0.47116694 -0.66120267 1.3049715 0.27508453
000050 e0 29 86 bf 21 ed 08 3e 89 b0 ee be d8 f6 6e bf
       -1.0481529 0.13371707 -0.4661906 -0.93345404
000060 ff 52 6f bf 5f 61 5d bc 66 35 25 c0 6b 2a 2d bf
       -0.93486017 -0.013511985 -2.5813842 -0.6764285
000070 97 00 58 bf 1e 42 4f 3e 48 04 de 3d 8a 4d de 3e
       -0.843759 0.20240065 0.1084066 0.43418533

conv_g.0.weight f4 [32, 64, 3, 3]
000000 e4 7a 8d 3e 07 6a ef be 84 f7 9a b9 39 32 38 bf
       0.2763282 -0.4676058 -0.00029557582 -0.71951634
000010 43 78 b7 bd 90 d1 52 3f e5 4d bb 3e cf f8 b2 bf
       -0.08958485 0.82351017 0.36582866 -1.398218
000020 0f dd 1c 3f 9a e6 db bd c1 cd 1c bf 99 a3 1d 3f
       0.6127481 -0.10737343 -0.61251456 0.61577755
000030 56 92 e0 3c 8d 79 95 be e6 8b 1a 3e 59 0b 9d bd
       0.027413528 -0.29194298 0.1509243 -0.0766818
000040 b5 a7 88 3e 35 33 d1 3d df 7f c8 bb ab 43 24 be
       0.2669045 0.10214845 -0.006118759 -0.16041438
000050 5d 4f a8 be 4d 47 99 3d 6f 75 27 3e 69 3f 10 3d
       -0.3287305 0.07484303 0.16353391 0.035216723
000060 d8 9a 04 be 4d 72 17 3e 1a 94 0c be c4 a0 1d 3f
       -0.12949693 0.14789696 -0.13728371 0.61573434
000070 23 d7 22 be 8a 36 da be 82 4d 16 3e 42 3e 34 bc
       -0.1590238 -0.42619735 0.14678004 -0.011001172
000080 fb 87 a6 3c ca 06 56 bd 63 ac 8c 3d 32 4a 50 3e
       0.020328512 -0.05225257 0.06868818 0.20340803
000090 75 fd 4b 3e e4 3c ba bd c7 79 f1 3c 89 17 8e 3e
       0.19920905 -0.09093645 0.029477013 0.2775233
0000a0 82 89 39 3e 85 63 98 3d 9f 56 40 3e 39 7d 8d bd
       0.18118861 0.07440857 0.18783043 -0.0690865
0000b0 c0 f8 25 bf 72 9a a9 3e 6b ee 13 3e 3e 87 af 3e
       -0.6483269 0.33125645 0.14446418 0.3428287
0000c0 52 8f 19 be fe 58 2e bd b9 47 bb bc 24 c8 de bc
       -0.14996079 -0.04256534 -0.022861348 -0.027195044
0000d0 bf 6a cc bd ba 90 1b be bf 60 73 3e 41 1c 85 3e
       -0.09981298 -0.15191928 0.23767374 0.2599812
0000e0 66 0a c4 be 11 cd 7d 3e c4 fe d1 be 35 fd 69 3e
       -0.38289183 0.24785258 -0.41014683 0.22850497
0000f0 27 43 e9 3a 80 db 2d 3e 7a 3f ab be 9a 14 9f bd
       0.0017796502 0.16978264 -0.33446866 -0.07767601
000100 5a 67 94 3e 47 34 a6 be c5 4c 65 bf 8e e5 06 be
       0.289851 -0.3246176 -0.89570266 -0.13173506
000110 76 8f 28 be 11 da 4c be 75 c8 62 3f 86 3b 1d 3e
       -0.16460976 -0.2000506 0.88587123 0.15354738
000120 d8 66 96 3f cd d8 2b 3e 6a 9f a3 bf b6 4a 9c 3f
       1.1750135 0.16781922 -1.2783024 1.22103
000130 35 68 a0 bd 44 7e cf bf 08 14 a4 3f d0 f5 ad bb
       -0.07832376 -1.6210408 1.2818613 -0.005308844
000140 36 d5 93 bf 5d 02 33 bf 2c ed 92 be 0c 61 ed be
       -1.1549442 -0.6992548 -0.28696573 -0.46363103
000150 32 3a a5 bd 01 82 4c 3f ad 3a 6c bf e1 40 00 3e
       -0.080677405 0.7988587 -0.9227703 0.1252475
000160 f3 01 2f 3f c2 7a df 3d 3e 21 10 3d 6b 8d e2 b9
       0.6836235 0.10912086 0.035187952 -0.00043211444
000170 e0 92 f5 3c c7 28 21 bc 23 1e 9b 3c db a0 8b bc
       0.029977262 -0.009836382 0.018935269 -0.017044475
000180 af 60 30 3d 43 58 77 ba 10 1e 15 bc 88 a5 2a bd
       0.043060955 -0.0009435454 -0.009101406 -0.04166177
000190 cc 01 6e bd 2c 07 df be 07 b0 0e 3e 27 b7 9b 3e
       -0.058107182 -0.4356016 0.13934337 0.30413172
0001a0 a1 09 ab bd ed 59 79 be d3 b1 c2 3e 4f e9 2a 3e
       -0.08351446 -0.2435071 0.38026294 0.16690563
0001b0 a7 5f 8f bd ae 33 94 be 19 b1 11 3f 90 9a e1 3e
       -0.07000666 -0.28945678 0.56910855 0.44063234
0001c0 81 34 14 be f0 c6 c6 bd 4f 15 85 3f 2c a1 ac be
       -0.14473154 -0.09705913 1.0397128 -0.33716714
0001d0 d8 93 e7 bb 74 b8 9e 3e 36 06 40 3e 5f b4 aa 3d
       -0.007067185 0.31000102 0.1875237 0.08335184
0001e0 3f 33 bc 3e 01 43 90 3e 16 63 14 3f 42 d1 a6 3e
       0.36757848 0.2817612 0.57963693 0.32581526
0001f0 28 36 e4 3d 10 bd e8 bd 2d 79 2b bd 1c a9 24 3e
       0.11143142 -0.11364186 -0.04186361 0.16080135
000200 02 bf 9f 3d 51 ef 50 3d c0 89 4f 3e 91 6d 02 3e
       0.07800104 0.05100948 0.20267391 0.12737109
000210 66 12 dd bc 2d 29 66 3d 3c 0f b9 be b1 6e 70 3e
       -0.026986312 0.056191612 -0.36144435 0.23479725
000220 e5 45 40 bf 75 eb 05 3e 70 04 5f 3f d4 46 1a be
       -0.7510665 0.13078101 0.87116146 -0.15066081
000230 3a d1 36 be c3 0e 3e 3e 1e fc 14 3f df 5f 39 bf
       -0.17853251 0.18560319 0.581972 -0.7241191
000240 53 eb de bf 61 11 08 3e 2d 24 be 3f 2b d0 d4 bf
       -1.7415565 0.1328788 1.485479 -1.6626028
000250 21 1a 90 3e 96 a1 d2 3f ee 48 bc bf d6 8d 4a be
       0.28144935 1.6455562 -1.4709756 -0.19780669
000260 94 80 d9 3f 9d 6c ae 3d 47 41 e1 bd ee 12 3f bd
       1.6992364 0.0851681 -0.10998779 -0.046648912
000270 9d 3e c8 3e 60 82 f9 be c3 99 c8 be 2b ec 1d 3f
       0.3911027 -0.4873228 -0.3917981 0.6168849
000280 9e 46 bb 3e ae 15 3a bf e1 e9 a2 3e 7c 96 ce 3d
       0.36577314 -0.7268933 0.3181906 0.10087296
000290 db 3a 35 be 8a d0 0d bf 48 30 f3 3b 57 a9 bc 3e
       -0.17698233 -0.5539633 0.007421527 0.36847946
0002a0 44 25 83 be 8d 41 2e bd 0b 89 2c 3e 81 89 65 3e
       -0.2561437 -0.042542983 0.16849153 0.22415735
0002b0 8a f8 6c be e5 ba bd 3e ac 95 fe 3d 74 98 60 3e
       -0.23141685 0.37056652 0.124308914 0.21933156
0002c0 a5 cf 1e 3c ff 81 01 bf 6f 4f ff be 1f aa 7d 3e
       0.009693061 -0.50588983 -0.4986529 0.24771927
0002d0 b1 44 71 3d 90 bf 41 3d 45 bd 7f 3b 20 b0 05 3f
       0.0589034 0.04730183 0.0039022726 0.5222187
0002e0 e5 4e 01 3e e2 9b a8 be 9a 4d 88 3c 80 3e 0b 3c
       0.12627752 -0.3293143 0.016638566 0.008498788
0002f0 be 6e db be 69 95 4d 3e 93 eb 56 3e 12 e6 17 be
       -0.42857927 0.20076527 0.20988302 -0.14833859
000300 a8 99 8a 3e ab 0b 32 3e 62 1b f2 bc cc be 0d 3f
       0.27070355 0.17387263 -0.029554073 0.5536926
000310 4f 27 89 be 64 5e 84 bf 8a d3 d5 3c 7b e6 8f bb
       -0.26787803 -1.0341306 0.026101846 -0.004391489
000320 a9 a1 48 3d ea 32 98 bc 20 46 3c 3c a1 8d ba bc
       0.048982296 -0.018578965 0.0114913285 -0.022772612
000330 93 c1 d6 3b 6f b6 ad bc 21 be bd bb b2 b5 83 3e
       0.0065538376 -0.021205155 -0.0057904874 0.2572456
000340 06 e5 9a be 04 cf eb bd 20 54 ba bd 8a a9 08 3e
       -0.30252856 -0.115140945 -0.09098077 0.13345924
000350 ee 4a 0c 3f 8a 52 9e 3d fe 73 2e bf ea 0e d3 3e
       0.54801834 0.07730587 -0.6814574 0.41222316
000360 a3 19 dd 3d 5a 3c 1e be 30 87 e7 3e 3f 7c 02 3e
       0.107959054 -0.1545271 0.45220327 0.12742709
000370 19 39 7c be 50 17 a8 bc fe 6b 09 be e8 d4 71 bc
       -0.24631156 -0.020518929 -0.13420102 -0.014760233
000380 93 0c 4b 3e 61 86 49 3e 53 54 9f 3e b7 4d 8e be
       0.19829015 0.19680168 0.31119022 -0.27793667
000390 49 2e 3e be c1 fb 24 3e 38 aa 6d be 4b 48 40 3e
       -0.18572344 0.16111661 -0.23209465 0.18777578
0003a0 72 04 3d 3e 90 1b 23 be 6b 19 aa bd 52 b8 94 bd
       0.18458727 -0.15928483 -0.08305629 -0.07261719
0003b0 1f 50 0b 3f 8d c6 e8 3e af d3 9e 3e 3b 6b 59 bd
       0.5441913 0.45463982 0.31020877 -0.05308078
0003c0 e2 07 f6 bd 2e f2 04 bf d9 f3 38 bf 23 be 10 be
       -0.12013222 -0.51932037 -0.7224708 -0.14135031
0003d0 4b b6 2f 3f 98 6a a2 bc 08 44 4a bf eb 14 f8 3e
       0.6863753 -0.019826218 -0.7901006 0.4845346
0003e0 0a 1c e2 be 98 5b fd bd e4 73 0a 3f 1f 66 80 be
       -0.44162017 -0.12370986 0.54083085 -0.25077912
0003f0 e1 b0 e2 3e 72 57 2b be 86 e3 86 3e f0 7b 29 be
       0.44275573 -0.16732576 0.26345462 -0.16551185

conv_g.0.bias f4 [32]
000000 2c 6b 91 3d e3 d6 86 3e 5e 8d 09 3e c6 15 04 bf
       0.071005195 0.2633582 0.13432834 -0.51595724
000010 09 85 54 3e 29 a6 b2 bd 2b 42 a8 bd 1d 53 4d 3f
       0.20753874 -0.08723099 -0.082157455 0.80204946
000020 aa 71 6c be 8d 0d 62 3f 83 3a 60 3e ed 29 40 bd
       -0.23090234 0.88301927 0.2189732 -0.046914984
000030 49 b0 82 bf ec fd 59 bf bc bb 0f be b8 3d c5 3a
       -1.0210048 -0.8515308 -0.14036459 0.0015048301
000040 b2 bd 03 3f b7 c0 4a be b0 55 91 be a2 6d 8d be
       0.5146133 -0.19800077 -0.28385687 -0.27622706
000050 8d 30 15 3f 5e a2 9b be cf a4 a1 3e 34 32 0e be
       0.5827721 -0.30397314 0.3157105 -0.13886338
000060 b2 0d 4a 3d 3b c9 4c be 24 a2 04 3f 04 3a 63 be
       0.049329467 -0.19998638 0.51809907 -0.221901
000070 40 78 1c 3f c3 54 98 be 5b 3c 2f 3c 5f 3e 00 bf
       0.61120987 -0.29752168 0.010695542 -0.5009517
