logs/Rain1400/PRN6/net_latest.pth (torch_old, 384596 bytes, 24 tensors)

conv0.0.weight f4 [32, 6, 3, 3]
000000 84 39 af 3b b5 06 29 bd 63 d6 5a 3d 89 b4 19 bc
       0.0053474326 -0.041266162 0.05342711 -0.009381422
000010 82 f8 27 3e f4 19 33 3e c9 4e 38 bd c6 11 2d 3d
       0.16403392 0.17490369 -0.04499701 0.04225328
000020 e2 30 de 3b cc c4 33 bd 22 ea 3c 3e 7c ac 9e 3e
       0.0067807296 -0.043888852 0.1844869 0.3099097
000030 68 48 b6 3c 9b 6b 23 3c 18 81 d3 3e e8 0d 69 3d
       0.022251323 0.009974386 0.41309428 0.056898028
000040 01 ec 3a 3e 7c bd a7 3e d0 a4 36 3d 22 5a 13 3a
       0.18254091 0.32761753 0.04459077 0.0005621036
000050 cb 89 f2 bd 8e 82 bb bc 59 a6 c3 3d a0 9f c2 3e
       -0.11842688 -0.022889402 0.09553213 0.3801241
000060 85 2c 29 bd 1a 17 89 3d f7 0a df bd 86 c8 72 3c
       -0.041302223 0.066938594 -0.10890763 0.014818316
000070 2c a0 3d bc 8d 5d 3c bd 06 71 41 bd 45 e8 80 3d
       -0.0115738325 -0.045987654 -0.04722693 0.06294302
000080 cf 96 72 be 5d e6 48 3d fa 67 28 be 99 7b 0e 3d
       -0.23690341 0.049047817 -0.16445914 0.03478584
000090 66 96 2b bd bc 05 00 be 9d 75 38 be f9 86 12 3e
       -0.041891478 -0.12502187 -0.18013616 0.143093
0000a0 4f 20 ba be 40 46 10 bf df d3 6c bd a0 ae 8d bd
       -0.36352775 -0.56357193 -0.057819244 -0.06918073
0000b0 d8 00 3b be f9 ce f5 3b 87 33 82 3c ad ca 89 bd
       -0.1826204 0.0075014797 0.01589371 -0.067281105
0000c0 39 1c 42 bd 8c c7 a9 bd 44 8a 1a bd 31 e2 0d 3d
       -0.047390196 -0.08290014 -0.037729517 0.03463954
0000d0 d5 85 7e bc 31 27 c9 bd 80 28 62 be ff 2f 99 bd
       -0.015534838 -0.09821928 -0.22085762 -0.07479858
0000e0 f9 54 e6 3d ef b3 a4 3e 0a ca 5f 3e 04 27 97 bd
       0.11246676 0.32168528 0.21854416 -0.073804885
0000f0 5a ad 84 c1 8c 96 a3 bd 2a a7 12 bd 7e 5e 12 be
       -16.584644 -0.07987699 -0.03580395 -0.14293858
000100 76 96 e4 3a c3 42 2e bc 6e 6c b8 3e 5e 68 10 3f
       0.001743986 -0.010636034 0.36020225 0.5640925
000110 29 3c e4 3d 5b 66 96 c1 ff 4e f3 bc 80 29 68 3c
       0.11144287 -18.799978 -0.029700754 0.014170051
000120 d8 5a a7 be 16 80 ef bd 96 aa 8b bd 3f 06 d2 3e
       -0.32686496 -0.11694352 -0.06819646 0.4102039
000130 21 9c fa 3e 4d e5 24 be 1b 3f 6e c1 c5 b6 ba bb
       0.48947242 -0.16103096 -14.890407 -0.0056980574
000140 e5 fc 87 bd d9 97 b2 3e b1 a5 fb 3d 5a 3f 8c bd
       -0.06640033 0.34881476 0.122874625 -0.06848021
000150 d7 21 96 be 55 fc 78 be 69 5d a1 3c e9 f4 b2 be
       -0.29322693 -0.24315007 0.019697862 -0.34952477
000160 72 95 ed 3d c0 eb 7f 3c bf b9 4a 3d 7f c9 5c be
       0.1160077 0.015620172 0.049493548 -0.2156124
000170 bb e2 ac 3d ae e9 c3 be 60 97 0b bf 7b a7 0a 3e
       0.08441683 -0.3826422 -0.54527855 0.13540451
000180 ba 6b f9 be fc 6e a0 bd 96 27 cb 3d e9 9a 5c 3e
       -0.48715 -0.078336686 0.0991966 0.21543469
000190 44 0c 21 3e cc 25 fa bc 3e a0 a7 be 81 42 51 be
       0.15727335 -0.030535601 -0.32739443 -0.20435525
0001a0 49 20 3f bd 8b 23 bd bf 1b 21 fa 3d c6 b1 02 be
       -0.04666165 -1.4776472 0.122133456 -0.12763128
0001b0 d5 69 44 3e 63 32 9f be 50 fb ec bd 83 ec 68 bf
       0.19180997 -0.3109313 -0.115713716 -0.9098589
0001c0 1b eb 68 bd cc 47 6c be 9f 58 9a 3e e2 36 e2 bd
       -0.05686484 -0.23074263 0.30145738 -0.11045624
0001d0 45 ef 09 3e 3c 0f 3d be 13 e8 84 be 57 24 83 3d
       0.1347018 -0.18462843 -0.2595831 0.06403416
0001e0 40 1e f2 bf b6 f5 50 3d 38 fb 0d be 48 af e1 be
       -1.8915482 0.05101558 -0.13865364 -0.4407904
0001f0 c5 8f 68 bd 2c 52 71 bd 7e 9b 3e 3f 7a 8e e3 be
       -0.056777734 -0.058916256 0.7445601 -0.44444638
000200 35 e7 18 3e f3 6a 26 3f 78 9e d5 bc b3 5b 41 3d
       0.14931948 0.6500694 -0.02607654 0.04720659
000210 d8 b6 25 3f f0 62 27 bd 7e 8d 27 3e 15 9c 6b be
       0.6473212 -0.04086584 0.16362569 -0.2300876
000220 18 98 65 3e f7 af 24 3e dc 72 f1 bf 14 be a1 3e
       0.224213 0.1608275 -1.8863177 0.3159033
000230 68 4c d8 3d 83 e8 f5 bd 08 28 c4 3d 50 2f fd 3d
       0.10561448 -0.12007239 0.09577948 0.1236254
000240 ac b9 c7 bc ff 63 9c 3e ca 00 ff 3c 4d f9 88 bf
       -0.024380527 0.3054504 0.031128306 -1.070108
000250 3d be 02 3e d8 0b 75 3d 42 5e b8 bc 83 b9 2f bd
       0.12767883 0.05982575 -0.022505883 -0.042901527
000260 d2 12 00 bd ee a7 89 bd 11 6f 9a 3d 8f da 79 bd
       -0.03126795 -0.06721483 0.075407155 -0.06099945
000270 3b 6b e5 be af 98 0b 3d 9b 28 0c 3e 65 f1 fc bd
       -0.44808373 0.034081157 0.13687365 -0.1235073
000280 48 1f 17 be 7a 08 82 be e5 4e 39 3d de 06 f3 3d
       -0.14758027 -0.25397092 0.045241255 0.11866544
000290 cd d5 83 3d 05 d5 83 3e 0d 91 2e be f0 a2 20 3e
       0.06437264 0.25748459 -0.1704752 0.15687156
0002a0 86 f3 2c bd 3e 4b ae bd 56 68 86 3d cf 11 58 be
       -0.04222443 -0.08510445 0.06562869 -0.21100543
0002b0 2a e7 9c bd 4c 20 a5 bd af d0 3c 3d aa 4a ec 3d
       -0.076612785 -0.08062801 0.046097454 0.115376785
0002c0 13 96 64 bd 40 54 4f bd dd bb 81 bc 0d 98 79 bd
       -0.055807184 -0.050617456 -0.01583665 -0.060936023
0002d0 0b d6 9a 3d 82 6e 68 3c 46 8a e9 bc 42 78 9f be
       0.07560357 0.014186503 -0.028508317 -0.31146437
0002e0 7b 0c e4 3c 31 bd b5 bd bd 8d 03 3e f4 a4 87 3d
       0.027837982 -0.08873976 0.12847038 0.06623259
0002f0 d4 a6 45 3d 36 5b 00 bf 2c 20 d4 be d7 70 2f be
       0.048254803 -0.50139177 -0.41430795 -0.17132889
000300 19 8c 11 bd f9 34 43 be e0 7c e5 3d 11 e1 8c bd
       -0.035534 -0.19063176 0.11205459 -0.068788655
000310 1b a2 8a bc c4 90 2e 3b c5 94 7c 3d ef 07 1f be
       -0.016923001 0.002663658 0.061665315 -0.1553037
000320 57 44 86 3d d3 39 3a 3e c9 01 4d 3e 9e a0 62 3d
       0.065560035 0.1818612 0.20020212 0.055328958
000330 7a f6 06 3e 57 30 9e 3b dc ba 36 be e5 97 e0 3e
       0.13179961 0.00482754 -0.17844719 0.43865886
000340 c6 5b 2d be cc 11 e8 3e f0 84 a1 be df 82 e5 bb
       -0.1692954 0.45326078 -0.31546736 -0.0070041264
000350 48 f4 1f be c5 b1 11 3d 38 64 65 bd 0b 47 35 3e
       -0.1562053 0.035569925 -0.05600378 0.17702882
000360 ed 34 cf bd a3 7e aa 3d b8 85 53 bd dd 5e 06 3e
       -0.10117517 0.08324935 -0.051641196 0.13122125
000370 48 ff a7 be ec 11 96 bd a1 a2 14 be bb 77 18 3e
       -0.32811952 -0.07327637 -0.14515163 0.14889424
000380 90 05 7c bd bc f2 29 be 05 be 94 3d 6d ae a4 3d
       -0.061528742 -0.16596502 0.07262806 0.080410816
000390 b7 96 1c 3e a1 1f 33 be 58 2d 8f 3a db 05 5b be
       0.15291868 -0.17492534 0.0010923548 -0.21388952
0003a0 23 79 f2 3d 24 bf 15 3e 4c 94 31 bc 9b 63 81 3e
       0.11839511 0.14623696 -0.010838579 0.25271305
0003b0 82 02 2f 3d 8e 6b 85 3e 59 6e f1 bd b7 5d 69 bc
       0.042727 0.2605862 -0.11788625 -0.014243535
0003c0 9a 8b 54 bd da 2a 48 3e 2d f3 55 bd 37 cd 8b bd
       -0.051890947 0.19547597 -0.052233864 -0.06826251
0003d0 f4 7e b4 bd 16 db 0f 3e 69 c5 e7 3e a6 bf d8 bd
       -0.08813277 0.14048418 0.452678 -0.10583429
0003e0 d6 d3 3a bc d3 ee ba 3d 6f 0e c9 bd 54 de cf bd
       -0.011403045 0.09127583 -0.09817206 -0.101498276
0003f0 c9 79 82 bd 2c 4e 50 3c 75 88 29 bd 95 67 b6 3e
       -0.06370885 0.01271395 -0.0413899 0.35625902

conv0.0.bias f4 [32]
000000 58 1c f1 3c 6d a1 74 3d 54 7f 13 3d a2 c6 0c 3d
       0.02943246 0.05972426 0.0360101 0.03436912
000010 aa 97 df bd ab f0 26 3d 7e ab db 3d 2c 77 79 bd
       -0.109175995 0.040756863 0.10726069 -0.060904667
000020 fc 05 b5 bc 9e 8b 05 bf a7 3d f6 3c 47 84 c8 bc
       -0.02209758 -0.52166164 0.030058695 -0.024477137
000030 7b 29 7f 3b 85 84 7d 3d 0d 8f fb be 09 99 62 bf
       0.0038934636 0.06189396 -0.49132577 -0.88514763
000040 a5 dd 0b bd 75 ca 0d be 87 5b b6 3d ab 5d 59 3d
       -0.034146924 -0.13846762 0.08904176 0.053067844
000050 4f 30 c7 3c 74 b1 08 3d 2f 31 87 bb ff bf 06 3e
       0.024315028 0.033372357 -0.004125736 0.13159178
000060 82 b5 18 3d b5 95 6e 3c 49 43 5a 3d 52 57 1b 3d
       0.037282474 0.01456206 0.053286824 0.037925072
000070 ae ab a1 be 50 5e e4 3d fd 92 35 3d fd ea 85 bd
       -0.31576294 0.11150801 0.044329632 -0.06538961

res_conv1.0.weight f4 [32, 32, 3, 3]
000000 a7 ad a8 3f f6 fc 35 bf 32 2c b0 3e 0a bc e1 bf
       1.3177994 -0.7108911 0.34408718 -1.763551
000010 22 f9 66 bf e8 07 7a bd eb 07 7f bf a6 64 ab be
       -0.90223897 -0.061042696 -0.99621457 -0.33475226
000020 10 c0 9c 3e 46 01 fc be 04 31 09 40 b0 12 e7 3f
       0.30615282 -0.49219722 2.1436167 1.8052578
000030 ef 9c 9c 3e 15 fd 89 be b4 14 31 3e ed b1 cd 3e
       0.3058848 -0.269509 0.17293054 0.4017481
000040 4d 98 fc be d9 f3 dc 3d c4 5f 51 be 24 44 fa be
       -0.49334946 0.10788698 -0.20446688 -0.48880112
000050 e4 15 91 bf 3f 78 82 3d 0e 9f f7 3e 24 aa 81 bf
       -1.1334805 0.06370591 0.48363537 -1.0130048
000060 68 64 b2 bd 38 db ca 3f b3 2d 60 bf 9a 90 62 bf
       -0.08710557 1.584815 -0.8756973 -0.88501894
000070 a2 d2 ee 3e c2 b4 71 bf 31 1e be 3b 97 96 13 bf
       0.46645075 -0.9441644 0.005801939 -0.57651657
000080 6f 1d 7b be aa 23 66 bf 5d 00 13 be 50 87 fc bd
       -0.24522947 -0.8989817 -0.14355607 -0.12330496
000090 20 14 6f 3d 5f 47 d0 3e be 6a fc bd f0 ad 34 be
       0.058368802 0.40679452 -0.12325047 -0.17644477
0000a0 f6 ab a9 be 25 eb 6d be 0d ec 69 3e 54 cd 14 be
       -0.33139008 -0.23234232 0.22843952 -0.14531451
0000b0 72 30 3a 3e 63 09 2b 3c 43 4d 1b 3d a2 f0 f9 3d
       0.18182543 0.01043925 0.03791548 0.122041
0000c0 82 c8 bb bd c1 a3 e6 3e 9f 66 6c be f4 ad 01 be
       -0.09169103 0.4504681 -0.23086022 -0.12664014
0000d0 4a fc 0c 3e 9a f0 84 be 72 ee 0d 3e e7 c3 d0 be
       0.13768116 -0.25964814 0.13860491 -0.40774462
0000e0 20 f8 3b bd 52 c5 96 3d ec 5c ca be 1e 56 0f bd
       -0.045890927 0.073618546 -0.3952402 -0.034994237
0000f0 11 98 59 be e4 79 d3 3e 8a da 22 bd 5b 38 93 bc
       -0.21249415 0.41303933 -0.039759196 -0.017971208
000100 c6 6d f1 bc 30 02 bd bd 78 c3 ed bb b2 b4 29 bf
       -0.02947129 -0.09228933 -0.0072559677 -0.66291344
000110 1d 43 5e 3e 9f 12 05 3f 17 f7 ce be 75 68 95 3e
       0.21705289 0.5198154 -0.4042289 0.29181257
000120 e4 2f c7 be 0b 75 ed be 8c bf 91 be 58 93 ac be
       -0.38903725 -0.4637836 -0.2846645 -0.33706164
000130 6d 94 05 bf 5a 58 ec 3d bf 78 8b be 9c c7 64 be
       -0.52179605 0.11540289 -0.2724056 -0.2234177
000140 a1 2c d6 be e0 38 16 3d a4 2e 35 3d 51 90 ce 3c
       -0.41830924 0.036675334 0.044233933 0.0252153
000150 83 31 55 be 4f 18 8f bd 72 0d 48 be 06 5e a1 bd
       -0.20819668 -0.06987058 -0.19536379 -0.07879262
000160 e7 be 36 ba 46 3f c4 bd d2 da 40 3d 3b 15 cd 3e
       -0.00069711957 -0.09582381 0.047083683 0.4005526
000170 33 54 d7 be 4b 7b bd 3d 91 e9 cf be 69 dc 07 bd
       -0.42056426 0.09252032 -0.40607885 -0.033169184
000180 9c 2f 74 3f 9e 3f a6 3f dc a1 82 3f eb a9 68 3f
       0.95385146 1.2988164 1.0205646 0.90884274
000190 80 5b 15 bf 9c c1 7d 3e 9c 89 ca be ab e6 aa bd
       -0.5834274 0.24780887 -0.39558113 -0.08344778
0001a0 fa 21 06 3f 2e 04 af bd b3 b1 54 3f f6 e5 67 bf
       0.52395594 -0.08545719 0.8308365 -0.9058527
0001b0 3c d4 a3 3e 31 a5 a0 be b8 f3 89 3e cb 2b 96 bd
       0.3199786 -0.3137603 0.26943755 -0.073325716
0001c0 26 2c 37 3d e1 58 30 be 92 5b d7 3d 19 b6 86 3b
       0.044719838 -0.17221405 0.105155125 0.004111063
0001d0 28 eb 8b 3c 4a 8f 51 bc 55 7f c4 3f 16 74 0d 3e
       0.017079905 -0.01279051 1.5351359 0.13813815
0001e0 4b 4c 86 3f 3b cf 21 3d 02 4a c0 be 2f 77 8e 3f
       1.0492033 0.03950427 -0.37556463 1.1130122
0001f0 75 8b 0a 3f 45 62 4a be 61 58 a1 be f9 29 71 c0
       0.54119045 -0.1976405 -0.3151274 -3.7681868
000200 01 f9 76 c0 a3 40 df be ff 06 84 3e e1 8e 90 bf
       -3.858948 -0.43604 0.25786588 -1.1293603
000210 59 62 85 bf ab da e6 bf 1d f1 bd c0 39 d8 5a 3c
       -1.0420638 -1.8035482 -5.935683 0.013357216
000220 cf 0d 97 be c7 f7 6d bd b5 05 43 bd cb 69 33 bc
       -0.29502723 -0.058097627 -0.047612865 -0.010950516
000230 26 31 88 3e 01 57 3a 3d 69 cc c3 be b7 58 8b bc
       0.26599997 0.04549313 -0.3824189 -0.017010076
000240 c7 dd 6b 3c 0e 52 dd 3e 32 2d fa bd d0 26 dd bd
       0.014396138 0.43226665 -0.122156516 -0.107984185
000250 91 f6 1c be 5d 85 89 3e aa a2 1a be 7a f4 d4 bc
       -0.15328433 0.2685956 -0.15101114 -0.025995482
000260 2a a6 64 3c 7b 53 eb 3d dd 89 0f bb 59 17 6e 3d
       0.013955632 0.11490532 -0.0021902241 0.058127735
000270 81 b6 24 3e e9 02 8b bb bb e7 44 3d fb 55 ae 3b
       0.16085245 -0.0042422903 0.048072558 0.0053203083
000280 6d c2 d1 3c 38 5b c9 3d 90 61 89 bf 43 8c 2a bf
       0.025605405 0.09831852 -1.0732899 -0.6662027
000290 39 a8 28 bf 26 e5 83 3f 23 31 5b 3f ed 8e 02 3f
       -0.6588169 1.0304306 0.8562185 0.5099934
0002a0 fb 78 81 3e 16 a6 aa 3e 03 85 81 bd 19 0e 97 bf
       0.25287613 0.3332984 -0.06324198 -1.1801177
0002b0 41 04 9f be f3 21 44 bf b6 63 c8 be e0 bb 0d 3e
       -0.31057933 -0.766143 -0.39138573 0.138412
0002c0 fe e9 15 3f 01 90 d1 3e e3 3d 84 3e cd d1 ad 3e
       0.5856017 0.4093018 0.25828466 0.33949128
0002d0 2a dc 2f 3f 7c 9c f9 be a2 fb 3a 3f 79 72 db 3e
       0.6869532 -0.487522 0.7304021 0.42860773
0002e0 23 cd 3e be 3a c6 aa bc a2 93 bb 3e e6 a5 65 bc
       -0.18632941 -0.020846475 0.36636072 -0.014016604
0002f0 72 a6 7f 3e 91 1a e9 bd f4 58 2b 3f 31 cb 4d 3f
       0.24965838 -0.1138202 0.66932607 0.8038817
000300 31 9d 7a 3d 2a 8c c2 be 01 47 84 3e 87 7d f2 3e
       0.061185066 -0.37997562 0.25835422 0.47361395
000310 d7 58 21 c0 82 23 36 3b 46 8b 7f be 49 19 95 3e
       -2.5210474 0.002779216 -0.24955472 0.29120854
000320 96 da a9 be 99 3e ea be e7 96 fe 3e e9 91 39 be
       -0.3317458 -0.45750883 0.49724504 -0.18122067
000330 d8 40 f3 3e 2d 62 7d be f3 74 a3 3e ef b3 7c 3e
       0.4751041 -0.24744482 0.31925163 0.24678014
000340 8c bf 74 be 80 71 ef 3c e8 67 e9 bc e5 9a 95 bd
       -0.23901194 0.029228926 -0.02849193 -0.073049344
000350 7c d8 28 bd 5a 96 89 3e 79 2f d2 bd 51 70 35 3d
       -0.04122208 0.26872522 -0.10262961 0.044296566
000360 0c 60 d0 bd 73 f6 a3 be 1b 2f 86 3c 4b 01 e3 3d
       -0.101745695 -0.32023963 0.016379884 0.11084231
000370 8c 30 4f bd 67 2b 5c 3e a3 61 b9 be ea 6c 4f bd
       -0.050583407 0.21500932 -0.36207303 -0.050640978
000380 06 b2 83 bd 57 48 bc bc da 3f 52 bd 5a e6 6c be
       -0.0643044 -0.022983713 -0.051330425 -0.23134747
000390 0a 68 a4 3c 96 89 5a be 61 07 b4 3e 8c 3d 8b 3d
       0.020069141 -0.21341547 0.3516188 0.067988485
0003a0 4b 53 10 3e 99 6c 8d bd 4d 06 26 be 07 f0 22 bf
       0.14094274 -0.06905479 -0.16213341 -0.636475
0003b0 07 44 00 bf 70 f2 ef 3e 11 78 32 bf 82 2d 22 3f
       -0.501038 0.46864653 -0.69714457 0.6335069
0003c0 02 7a 15 3f ce 9e 96 3e ea 2d 0a be 2c 95 a1 3d
       0.58389294 0.29418033 -0.13494077 0.078897804
0003d0 1a 35 29 bd 2a 75 2d 3f bb d7 7f 3e db f1 03 c0
       -0.041310407 0.67756903 0.24984638 -2.0616367
0003e0 35 0e 85 3f 9d 89 83 3e 96 96 04 bf 68 22 e6 3e
       1.0394961 0.25690928 -0.51792276 0.44948125
0003f0 ff 35 d1 3d 52 0a b2 bc ab 1d 0c 3e b2 43 09 3d
       0.10215377 -0.021733437 0.13683192 0.033511825

res_conv1.0.bias f4 [32]
000000 52 c1 08 3d 38 1b 79 be 38 b1 b3 3b ee 30 b5 bd
       0.03338749 -0.2432679 0.0054837726 -0.08847223
000010 6c ab 65 be a0 a7 c0 3c fd 2c bc 3d 63 6e b1 bc
       -0.22428674 0.02351743 0.09188268 -0.021659082
000020 a6 99 40 3d a9 ec 4a bd 3a aa fd 3d 2d ff 35 3d
       0.04702153 -0.049542103 0.12385984 0.044432808
000030 4d 03 f3 bc d5 bc f6 bd e1 92 b4 3d 19 4a 9a bd
       -0.02966466 -0.120477356 0.088170774 -0.07533664
000040 c5 1b c1 3c b4 62 5c 3d 81 3d f8 bc 60 30 56 bc
       0.023572812 0.053805068 -0.030302765 -0.013073057
000050 7e 1f 78 bd 2d 13 2f bc 2c 98 1d 3e 25 42 85 3d
       -0.06057691 -0.010685724 0.1539008 0.06506757
000060 8c 19 c5 bd 95 dd 73 3c 40 70 20 3d 05 31 34 bc
       -0.09624013 0.014884372 0.03916955 -0.010998015
000070 b8 49 c0 be 71 4d 7c bb 27 69 09 3c f6 e9 18 3e
       -0.37556243 -0.0038498307 0.008386887 0.14932999

res_conv1.2.weight f4 [32, 32, 3, 3]
000000 0a c9 0c bf ba a9 aa be 9a 14 df bf df ca a0 3d
       -0.5499426 -0.33332616 -1.7428162 0.078511946
000010 f4 85 fa 3e b7 e7 31 bc 06 ec 02 be 0f bf ed 3e
       0.48930323 -0.010858468 -0.12785348 0.4643483
000020 e8 98 9a 3f 86 e4 92 bf 6f d8 10 3e 76 00 19 3f
       1.2077913 -1.147599 0.14145063 0.5976633
000030 22 74 ab be 70 a3 67 bf c0 14 73 bf d9 44 13 be
       -0.3348704 -0.9048376 -0.94953537 -0.14381732
000040 92 85 f7 bf 0f 1f 17 bf e6 0c 99 bf 39 af c8 bf
       -1.9337637 -0.59031767 -1.1957061 -1.5678474
000050 ec 72 93 3d 42 0c eb bf 69 da c0 bf 7b d4 3a bf
       0.07199654 -1.8363116 -1.5066653 -0.7298047
000060 58 bb 72 bf 13 ad 02 c0 b3 18 ff be e9 e0 e4 3d
       -0.94817114 -2.0418136 -0.49823532 0.11175711
000070 4d 82 fe be 30 2d 33 3d 0c 10 92 be e1 62 7e be
       -0.49708787 0.043744266 -0.28527868 -0.24842407
000080 eb b6 61 3e fa 83 51 be 0b 4f b8 bf 6a 45 f9 3e
       0.22042434 -0.20460501 -1.4399122 0.4868577
000090 9f 81 f0 bf 4b 52 28 c0 66 ce 03 c0 db 0e 98 bf
       -1.8789557 -2.6300228 -2.0594726 -1.1879534
0000a0 78 b3 ba bf 4a b4 12 c0 10 bb ea bf ce 5b 8f bf
       -1.458602 -2.292254 -1.8338337 -1.1199892
0000b0 d3 b9 58 c0 ef 2f 8a bc da 1c ac 3e 2b c5 ab 3d
       -3.3863418 -0.01686856 0.33615762 0.08387216
0000c0 e3 45 e7 bd de 41 23 bf 89 d7 36 3e f1 48 69 be
       -0.11292627 -0.6377238 0.17855658 -0.22781731
0000d0 10 a1 f6 be 07 41 d3 be 07 3f 01 bf 6b 99 07 bf
       -0.48169756 -0.4126055 -0.504868 -0.5296847
0000e0 cb fa b6 bf e9 d4 7d be 7b ab dd bc e2 fb c7 bf
       -1.4295286 -0.2478825 -0.027059307 -1.5623744
0000f0 4a a3 8a bf de cf f1 bf fe 02 b1 bf 99 3a 4f 3e
       -1.0831082 -1.8891561 -1.3829038 0.20237197
000100 92 e9 17 bf 93 9b 8e bd 38 79 da be 71 55 cc bb
       -0.59340775 -0.06963267 -0.42670608 -0.0062357713
000110 5e 17 da 3d f6 4c 22 bf 7d 89 05 bd bb 35 c8 3b
       0.10648988 -0.63398683 -0.032601822 0.006109921
000120 63 84 bf 3e 4b 22 b3 3e a3 6a 8b be ce 4c d3 3e
       0.3740569 0.349871 -0.27229795 0.41269535
000130 6b 98 72 be 95 14 b5 3e d1 aa 48 3f 9a 7a 02 3f
       -0.23690955 0.35367265 0.78385645 0.50968325
000140 88 82 24 3e d3 0b 35 be e1 f9 f9 3e 77 7c 28 3f
       0.16065419 -0.17680292 0.48823455 0.6581492
000150 92 50 9b 3e 96 a5 37 be 3a d9 f1 be 8c 88 1b 3d
       0.30334908 -0.1793426 -0.47236043 0.037972018
000160 42 22 27 bb 6c 10 91 be fe 72 4c 3f 81 b3 ec 3e
       -0.0025502597 -0.2833284 0.79862964 0.462307
000170 55 8c fa bd a6 61 da be f9 6d ad 3e 84 2d e9 bd
       -0.122337975 -0.42652625 0.33872965 -0.113856345
000180 e8 5a 0d 3d 02 4b 09 3f 89 ea 76 bf f5 7c 9a be
       0.034510523 0.5363008 -0.9645162 -0.3017346
000190 d7 10 1d c0 91 67 7b 3f 5a 8a f5 3e da f8 a1 bf
       -2.4541528 0.98204905 0.47957116 -1.2654068
0001a0 02 6f 27 bf 64 9d 03 bf fd 9e f9 bf e2 8f 0f c0
       -0.6540376 -0.51412034 -1.9501644 -2.243157
0001b0 82 bc 2e bf d9 5e 51 bc 3a ca b8 3d 87 e4 55 be
       -0.6825639 -0.012778961 0.09022947 -0.20887958
0001c0 46 f7 ed be 8e e1 47 bf 12 32 1a be 8f 63 6a bf
       -0.46477717 -0.78078544 -0.15058163 -0.91558164
0001d0 07 80 8f be 05 9a 78 be cc 24 40 3e 34 cf 77 3c
       -0.28027365 -0.24277504 0.18764037 0.015125085
0001e0 b4 ed fb be 2b 07 60 bf c8 31 b4 be f0 22 81 3e
       -0.4920479 -0.8751094 -0.3519423 0.25221968
0001f0 79 73 26 bf a2 88 fd be c3 ef b5 be c3 c2 38 be
       -0.6501995 -0.49518305 -0.35534486 -0.18043046
000200 34 63 b7 bd 22 e6 87 be 20 da 36 bc 5e 6d 9b bd
       -0.08954468 -0.26542765 -0.0111604035 -0.075892195
000210 ee 06 8b 3c 01 99 75 be 4e 1e bc be 1b e8 97 3d
       0.016971078 -0.23984148 -0.3674187 0.074173175
000220 cb 12 6b bd 88 18 d1 3b 59 5e 58 3d c0 14 bd bd
       -0.05739097 0.006381098 0.052824352 -0.092324734
000230 57 7e 0b 3d 5c 9c f2 3c 74 c1 6b bd 8c 3e 82 bc
       0.034056034 0.029615574 -0.05755754 -0.015898965
000240 73 d7 41 be e0 4d 22 bf 74 5b 7f bf e1 6d f5 bd
       -0.18929844 -0.6340008 -0.9974892 -0.11983848
000250 03 38 5b be 7a b2 35 bf f4 e3 20 3f 26 e1 32 3f
       -0.21408086 -0.7097546 0.6284783 0.698748
000260 42 49 36 bf 11 56 57 be 6e 3c 17 bf ee 0c b7 bf
       -0.7120553 -0.21028925 -0.59076583 -1.4300821
000270 54 c9 d0 be aa 31 63 3d c0 8c 28 3f d6 7a 4b be
       -0.407786 0.055467285 0.6583977 -0.19871077
000280 bb df 02 be 1c 39 50 be d5 78 59 3d 4d 3e 6b 3e
       -0.12780659 -0.20334285 0.05309375 0.22972985
000290 60 0b 52 3e 6e 6a 9d bd dd 93 61 bf 94 c7 5b bf
       0.20512152 -0.076863155 -0.88116246 -0.8585141
0002a0 c3 dd cd be be 0f 2a be 12 35 ba bc c0 5c 58 bf
       -0.40208253 -0.16607568 -0.022730384 -0.84516525
0002b0 58 15 ca bf 30 05 ea bf c4 73 71 bf 5a 0a ae bf
       -1.5787764 -1.8282833 -0.9431727 -1.3596909
0002c0 10 76 6a bf d6 3a 5e 3e e9 5c 11 bf 25 cf a6 bf
       -0.915864 0.21702132 -0.56782395 -1.3031965
0002d0 aa d3 80 bf 71 80 87 39 db 79 10 be 90 ac 5e bd
       -1.0064595 0.00025844903 -0.14108984 -0.054363787
0002e0 75 6f da bd 05 90 4b 3e b3 80 3d 3e 78 2d ad be
       -0.1066579 0.19879158 0.18506126 -0.33823752
0002f0 6c 06 eb be 20 ac 92 bf b1 ab 22 c0 0b 2e 95 bf
       -0.45903337 -1.1458778 -2.5417292 -1.1654676
000300 4f c4 b8 bf 28 90 73 bf ba 24 4b bf a9 60 46 c0
       -1.4434909 -0.9514184 -0.79352915 -3.0996497
000310 9b dc 07 c0 a4 c2 d3 bf 0d d1 30 3f 0b 13 01 3e
       -2.1228397 -1.6543775 0.69068986 0.1260492
000320 1a 8f 18 3e 06 8d 92 3e 4c 01 29 3e 20 ca e5 3d
       0.14898339 0.28623217 0.16504401 0.11220193
000330 77 fb 8c 3d 41 76 42 3e e4 2f 22 3e 98 7c 2c 3e
       0.068839006 0.18990423 0.15838581 0.16844404
000340 06 e5 2d be 14 c5 6c bc 59 d6 66 3e df 7a 15 3e
       -0.16981897 -0.014451284 0.22542705 0.14597653
000350 12 83 65 3e 47 02 e6 3e 5b a3 a5 be 40 0c 2a bf
       0.2241328 0.44923612 -0.32351193 -0.6642494
000360 71 96 de 3e fd cf 3b bd 8a d6 4d be 1c ea 2c bf
       0.43474153 -0.04585265 -0.20101371 -0.6754472
000370 47 f3 a9 3e bf 60 06 3e 0f 1d 62 bf b8 b5 55 3e
       0.33193418 0.13122843 -0.8832559 0.20870101
000380 24 97 30 bf 3e 6d 21 3f 2f c2 8a bf d6 1e 2d bf
       -0.6898062 0.63057315 -1.084051 -0.67625177
000390 af 20 83 3e ce aa cb bd ee 75 f2 bc 2a 4f 87 3d
       0.25610873 -0.09944688 -0.029597249 0.06606896
0003a0 6c 15 1c 3f db 98 20 bf 04 7e 8d bf 17 b0 fd bf
       0.6097019 -0.6273324 -1.1054082 -1.9819363
0003b0 15 bf 8a be 45 e4 55 bf 13 2b 60 bf e4 89 c1 bd
       -0.2709891 -0.83551437 -0.87565726 -0.09450129
0003c0 95 8b 85 bf c6 bb 48 bf 2e 4b 46 bf b9 03 e4 3e
       -1.0433222 -0.7841152 -0.77458465 0.4453409
0003d0 f4 0b 08 be 23 a1 4d c0 d8 74 cd bd db 89 38 bf
       -0.1328581 -3.21296 -0.10032052 -0.7208535
0003e0 9d eb d2 bf 9f 03 be be ec 1c 11 bf c7 d3 92 be
       -1.6478153 -0.37112138 -0.56684756 -0.28677198
0003f0 27 33 9d bf ae 0a a0 bf 0a ea bf bf 6b 9a c9 bf
       -1.2281235 -1.2503259 -1.4993298 -1.575025

res_conv1.2.bias f4 [32]
000000 bc c9 d0 be e1 a2 e9 bd c4 f2 8f 3d 24 8d e5 3d
       -0.4077891 -0.1140802 0.07028726 0.11208561
000010 a3 ec bb 3c 8f 30 bb bc 8a eb 06 bd 8e 66 0c bc
       0.022939986 -0.022850303 -0.03293947 -0.008569373
000020 47 d1 71 be 0a 8a 83 3d 66 01 da 3c 3e 7b ea bd
       -0.23614989 0.06422813 0.026611995 -0.11449288
000030 30 b8 0e bc 2a e0 0b be 38 3c 25 bf b7 1f cc 3d
       -0.008710906 -0.1365973 -0.6454501 0.099669866
000040 3d 60 74 3c 9d a1 83 bb f8 f5 b2 3d 66 c0 e5 bd
       0.014915523 -0.0040170685 0.08738321 -0.11218338
000050 8c 29 1c be 43 11 9e bc 1f 57 44 be ef a3 84 bd
       -0.15250224 -0.01929534 -0.19173859 -0.0647658
000060 0e 52 e9 bd be 3e cc bc 36 f1 36 bd a8 19 5b bc
       -0.11392604 -0.024932262 -0.04466363 -0.013372816
000070 a9 9b c6 3d 1f b4 47 3d 11 26 56 3b cd 46 3b bd
       0.096976586 0.04875576 0.0032676498 -0.045721818

res_conv2.0.weight f4 [32, 32, 3, 3]
000000 fe 54 50 3d 03 95 13 3e b1 fb d2 bd 5e 70 55 be
       0.050862305 0.14412312 -0.103019126 -0.20843646
000010 42 7a ac bd e9 a4 6c 3e b2 6a 14 3e aa 37 87 be
       -0.08421756 0.23109783 0.14493826 -0.26409656
000020 80 e4 6e 3e 60 95 d2 bf 1d e5 55 be 69 df 6e bf
       0.23329353 -1.6451836 -0.20888181 -0.93309647
000030 b7 74 e0 3f 59 ef d2 3e 71 cc c6 bf bd 8c 33 bf
       1.7535619 0.41198233 -1.553114 -0.70136625
000040 2d 63 4a be 98 2c 9c 3e 37 90 68 3f 6d 76 19 be
       -0.19764395 0.30502772 0.90845054 -0.14986582
000050 2a 6a ad 3e 58 c2 92 3e 45 e7 a0 be fc a5 ed 3e
       0.3387006 0.28663898 -0.31426445 0.464157
000060 2d 6d e5 3b 17 af 85 bc df c0 12 bf c6 62 38 3e
       0.00700154 -0.01631884 -0.5732555 0.18006429
000070 7f 62 7a 3e b4 ea bc be 0d 3d 8a 3e e3 6f 9b 3e
       0.24451636 -0.36897814 0.26999703 0.303588
000080 4e d5 cc bd f5 47 5f 3e 1f b6 e2 be 68 ee c1 be
       -0.10001622 0.21804793 -0.44279572 -0.37877202
000090 31 4b 47 be 60 02 36 be da 50 a5 be c3 ac ea bd
       -0.19462277 -0.17774343 -0.32288247 -0.11458733
0000a0 bd 09 10 bd b8 fe 42 be 73 fe 28 bd 6d f1 24 bd
       -0.035165537 -0.1904248 -0.041258287 -0.040269304
0000b0 07 7b e4 bb 5b a0 e5 3d ce 46 18 3e 21 c3 0c bf
       -0.006972674 0.11212226 0.1487076 -0.54985243
0000c0 53 c4 f1 3e 66 44 3b be e2 8c 2e be 65 bf 9f 3e
       0.47220096 -0.1828781 -0.1704593 0.3120071
0000d0 dc f0 9f 3e 9d 12 4b be f0 c1 6a 3d 0b a3 d6 3c
       0.3123845 -0.19831319 0.05731386 0.026200792
0000e0 c1 ac 0b be ca e3 ba bd b4 e2 86 3c 97 ef a2 be
       -0.13640119 -0.091254786 0.016465522 -0.31823418
0000f0 f7 be 46 3f c7 9f c0 be 2a 31 95 bd 55 1d e0 be
       0.7763514 -0.376219 -0.07284768 -0.4377238
000100 0c 99 84 be fc de 8b 3e eb f4 2a be bc 0c cd 3d
       -0.25898015 0.2731856 -0.16694991 0.100121945
000110 58 cd 77 3e 72 82 24 bf 7d 31 6c be ac ac 52 bd
       0.24199426 -0.64261544 -0.23065753 -0.051434204
000120 df 14 80 3f 37 13 ac 3f 8f 5c 5c 3f c3 d1 84 3e
       1.0006369 1.3443364 0.86078733 0.25941285
000130 9c 8b 01 3f 1d 1f b9 bc ce f4 53 c0 40 d1 54 bf
       0.5060365 -0.022597844 -3.3118167 -0.8313179
000140 aa fd 38 bd b3 fb c8 3e 76 c1 ad bd 71 c3 3d 3e
       -0.045163788 0.3925453 -0.08484165 0.18531586
000150 73 0a 9b 3e 34 d8 91 bd 07 4b 93 be 33 34 a5 be
       0.3028141 -0.071213156 -0.2876818 -0.32266387
000160 35 1d b0 be 1f c4 88 be 98 27 02 bf d1 4d 1c be
       -0.34397283 -0.2671213 -0.50841665 -0.1526406
000170 ea 1d 1a 3e cb 7a 63 3e fb 24 6b 3e bc 82 24 bf
       0.15050474 0.2221481 0.22963326 -0.64261985
000180 d6 38 03 be db fc 48 bd d9 fd b4 3e 6e 89 0d c0
       -0.1281465 -0.049069267 0.3534992 -2.211513
000190 fe 38 a7 bf d4 c4 1f 3f 36 ab 0b c0 38 a7 99 bf
       -1.3064268 0.6240971 -2.182325 -1.2004156
0001a0 8d d7 99 bd e4 32 67 c0 98 d6 4a c0 d9 f0 71 c0
       -0.07511816 -3.612481 -3.1693478 -3.7803252
0001b0 42 70 84 be d8 25 8d bf 3b db 4d 3e f8 17 c3 3e
       -0.25866896 -1.1027174 0.20103161 0.38104224
0001c0 98 c2 c1 be 3d 9b 1a 3f 10 60 60 3e 6a 1c 37 3e
       -0.37843776 0.60393125 0.21911645 0.17881933
0001d0 28 8e 01 3e 33 61 67 bf d7 62 b2 3d 71 4b 22 3f
       0.12651885 -0.9038269 0.087102585 0.63396364
0001e0 60 45 97 3e 5b 4e 82 3e 63 d2 e3 3e c6 fb cf 3d
       0.29545116 0.25450405 0.4449645 0.10155444
0001f0 f5 c4 81 bf d1 4d 8a bf 72 7b a0 bf e9 c2 16 40
       -1.0138232 -1.0804998 -1.2537673 2.3556464
000200 80 55 c7 be 1b 9c 75 3f 58 00 56 3d 72 30 a8 3e
       -0.3893242 0.95941323 0.05224642 0.3284946
000210 7a db 82 3f 70 8a 3c 3f ae da ec 3e da 7f 50 be
       1.0223229 0.7364874 0.4626059 -0.20361272
000220 03 46 9b be 4b a9 30 bf 5b 66 6d 3c 3f bd 0b 3d
       -0.30326852 -0.6900832 0.0144897355 0.034116026
000230 d7 6b a6 3e 1e d6 b4 3e b8 22 68 be e1 4e e4 3e
       0.3250415 0.35319608 -0.22669494 0.4459143
000240 73 03 69 be 22 da c5 3e 13 55 43 be 85 24 2a be
       -0.22755222 0.38642985 -0.19075422 -0.16615494
000250 0b a5 0f be 97 a8 6a 3e b3 75 da bc 80 b2 f6 be
       -0.14027803 0.22915874 -0.026667451 -0.4818306
000260 c7 fd 0b be dd 0b 9e 3e ab cc 01 3e 39 16 91 be
       -0.13671027 0.30868426 0.12675731 -0.28337267
000270 c3 34 bc bd 02 13 98 3d 2b 94 28 bf 4f 26 2b bf
       -0.09189751 0.074255005 -0.65851086 -0.6685533
000280 1d 3c 9d 3e e0 04 b7 bd ad a4 8a be fd ef 95 be
       0.30709925 -0.08936477 -0.27078763 -0.2928466
000290 b3 23 85 3f c7 8f ce 3e 26 25 08 bf ae 61 e8 be
       1.040152 0.40344068 -0.53181684 -0.45387024
0002a0 8a 34 0f be 1e 25 54 be 82 67 27 be 86 13 62 3e
       -0.13984886 -0.20717284 -0.16348079 0.2207776
0002b0 c1 ce ab bd b5 a8 b6 be 5a b8 a8 3e 9e 7b 6c 3e
       -0.083890446 -0.35675588 0.3295315 0.23094031
0002c0 99 64 f6 be e9 86 1a 3e f5 a4 39 3f 86 14 c5 be
       -0.48123625 0.15090527 0.7251733 -0.3849222
0002d0 fa d9 29 bd 93 a8 d9 bd 7f 7b 44 be 2c ea 13 bd
       -0.041467644 -0.10627856 -0.19187735 -0.036111996
0002e0 63 0b ca 3d 8f 9b 57 be aa 44 84 3e d6 d5 79 3e
       0.09865453 -0.21055435 0.25833637 0.24397978
0002f0 cb f7 17 3e 52 92 00 bf 30 29 87 bc 51 bd 38 3f
       0.1484062 -0.5022327 -0.016499132 0.72163874
000300 33 1d 0e 3e f9 02 23 bd 88 57 ab 3d c5 dd a4 bd
       0.13878326 -0.039797757 0.08366305 -0.08050112
000310 27 7f c3 3d b3 fe 48 be 64 df ab be d1 2f ed 3e
       0.09545737 -0.1962841 -0.3356887 0.46325544
000320 87 05 98 3e c5 97 6e bd 26 0e 1d 3f a2 b0 ff be
       0.29691717 -0.058250207 0.61349714 -0.49939448
000330 df f8 86 3e b5 44 ae 3e 1a 51 91 bf 93 a5 44 be
       0.2636175 0.34036794 -1.1352875 -0.19203787
000340 ff 8f 06 bd 84 7e 67 be 89 2b 42 3c d6 a2 ec 3d
       -0.03285217 -0.22606856 0.0118512 0.11554496
000350 8e 12 05 3e 52 70 00 3c 86 6f 73 3d 45 76 2d 3e
       0.1299536 0.007839279 0.05943253 0.16939647
000360 56 e9 13 bf 9f 3d ef bd d9 c5 0a be 2b 8d ae be
       -0.5777792 -0.11681675 -0.13552035 -0.34092078
000370 6a ec 2a bf 24 c1 a0 be 2a bd 57 3e ca 20 91 3e
       -0.6676699 -0.31397355 0.21068254 0.2834533
000380 6c 18 1a 3e 6a ba 98 be b5 a7 05 bf ed d2 91 3c
       0.15048379 -0.29829723 -0.52209026 0.017800773
000390 e8 07 9f be e9 65 e2 be 72 95 9d be 0b 1b 29 3e
       -0.3106072 -0.44218376 -0.3077808 0.16514222
0003a0 4c c6 6b 3d 74 94 e9 3e c9 39 d4 bd e6 9b 8e bf
       0.057562158 0.45621073 -0.10362584 -1.1141326
0003b0 0e 5a 0f 3f 09 86 fc 3e 9f ef 4e 3d 0c 08 68 3d
       0.5599679 0.4932101 0.05052149 0.0566483
0003c0 04 74 e8 3d ee 53 85 3e 19 e0 10 3e 5e 1d 9d bd
       0.11350253 0.26040596 0.14147986 -0.07671617
0003d0 4b 70 1b 3e 2e cb 28 3e 75 de 65 3e c6 e5 ac be
       0.15179555 0.16483757 0.22448142 -0.33769053
0003e0 b0 15 13 bf 09 f2 20 3f 10 ff aa 3e 19 70 f4 be
       -0.5745497 0.62869316 0.33397722 -0.47741774
0003f0 23 73 19 3d 75 76 7f 3e bb ea 93 3e 73 ac b7 be
       0.03746332 0.24947532 0.28890023 -0.35873756

res_conv2.0.bias f4 [32]
000000 31 cc 96 3d 3b c6 3d bd 9c 44 cc 3b dc df 95 be
       0.07363165 -0.046331625 0.006233765 -0.29272354
000010 e3 86 01 3d 61 b9 f7 3c c8 75 f2 bc 99 7d 98 bd
       0.03162278 0.030239763 -0.029597178 -0.07445831
000020 92 4a f5 bd 9d af 4b bd 7e 60 8d bd 56 f4 71 3d
       -0.11977114 -0.049728025 -0.0690317 0.059070908
000030 4d 5a 8b 3d e5 40 76 be 29 09 3e 3c 78 a5 98 3e
       0.06804333 -0.24048193 0.011598864 0.29813743
000040 3a 16 75 be 0a ea 5c bd 20 78 ee bb eb c2 35 3d
       -0.2393426 -0.053934135 -0.0072775036 0.04437534
000050 57 bc f3 bd 9d 52 a3 bd 30 35 6f 3d a0 8c 6d 3d
       -0.11901157 -0.079747416 0.058400333 0.05799544
000060 79 7a 03 3e 1c 06 c7 3d b6 54 06 bd d8 44 bc bd
       0.12839688 0.09717962 -0.03279563 -0.091928184
000070 b8 87 04 bf cb ad d1 3c 85 cd 39 3d 32 96 05 3e
       -0.5176959 0.025595566 0.045362014 0.13045576

res_conv2.2.weight f4 [32, 32, 3, 3]
000000 07 96 f5 bd 2c 7d c5 bd 64 03 b9 3c b4 a7 9f bb
       -0.11991506 -0.09643015 0.022584625 -0.0048722867
000010 57 b2 85 3d 1e e1 31 bd 35 ec 03 3d c8 d5 0f bd
       0.06528156 -0.04342758 0.032207686 -0.035115987
000020 8c 8c 26 bd bf 5c 70 3d 70 e5 ab bc a0 b4 5d bb
       -0.04066138 0.0586822 -0.020983428 -0.0033829585
000030 c8 7d 8b 3b 93 e3 3e 3d 1e 79 ec 3c 1a 49 f5 3c
       0.0042569377 0.04660375 0.028866347 0.029942084
000040 6b fc 69 3d 06 e5 ad 3c b6 bd fa bd ba f5 51 3c
       0.05712549 0.021227371 -0.12243216 0.012814933
000050 aa c7 e1 bc 0c 5f c4 bd 63 af 63 3d bc e4 06 be
       -0.027561028 -0.09588441 0.055587184 -0.13173193
000060 60 5c 13 bc e1 93 a2 bd e3 07 cc bd 05 1c a3 3c
       -0.008994192 -0.07938362 -0.09962442 0.019910822
000070 c7 b5 75 ba 8e 8d b5 bc 1e 2f 7b bd 46 dd 92 bd
       -0.0009373095 -0.022162225 -0.06132423 -0.07171111
000080 bd 76 bf bd 8b 70 15 be 32 7c b6 bd 4e 53 0c bd
       -0.093488194 -0.14593713 -0.08910407 -0.034259133
000090 0c 4a 07 3d 1b 92 03 be ad 33 82 3d 04 8b c8 3c
       0.0330296 -0.12848704 0.063575126 0.02448035
0000a0 3e 31 05 be 6c 29 9e 3c c4 24 0c bd f0 43 f5 bd
       -0.13007066 0.01930686 -0.03421475 -0.11975849
0000b0 ba cd 9c 3a be 5a 62 bd b6 ed a9 3c 75 aa 11 3d
       0.0011963167 -0.05526232 0.020743232 0.03556295
0000c0 4e 9f 89 3c 01 1a 8f bd 24 30 8b bd 31 b8 cd bd
       0.016799595 -0.06987382 -0.067962915 -0.10044897
0000d0 6d 8a ae bd df 44 39 bc 39 f4 32 bd 54 e4 92 bd
       -0.08522496 -0.011307924 -0.04368994 -0.071724564
0000e0 a2 07 0f bb c3 42 a3 bc 3e 71 a8 bd 98 53 83 bd
       -0.0021824618 -0.019929295 -0.08224724 -0.064124286
0000f0 a4 13 83 bd 94 d1 98 bb 74 f4 d3 bd 94 39 57 3d
       -0.064002305 -0.0046636555 -0.1034936 0.052545145
000100 76 7c 52 bd 00 3e d8 3a 98 2d a1 3b c0 aa 6d ba
       -0.051388226 0.001649797 0.0049187653 -0.0009066276
000110 95 d0 54 bd 04 87 69 3c 28 29 ac bc 15 83 6c bc
       -0.05195673 0.014253382 -0.021015719 -0.014435549
000120 0f f3 49 bd 40 50 c0 bc 60 96 ef bb 2e 98 f7 3c
       -0.049304064 -0.023475766 -0.0073116273 0.030223932
000130 4a c4 bd 3c 19 e1 5b 3d 28 1d 6a bd 3a 30 e9 3c
       0.023164887 0.053681467 -0.05715671 0.028465379
000140 3a 6c be 3c 7e b6 37 bd d7 f5 87 3c a7 58 e7 bc
       0.023244966 -0.044851772 0.016596718 -0.028240515
000150 b6 ef be 3a d6 e9 cc bc 8e b5 dd bd 19 8d 4e bc
       0.0014567289 -0.025013845 -0.108256444 -0.0126068825
000160 5b 8c 91 bd 0c ea 1b bd ac 9e 34 bd f1 cd 49 3d
       -0.07106849 -0.038065 -0.044096634 0.049268667
000170 55 93 1f 3d 94 8e c0 bc 56 d1 81 3c 5d 13 5a bd
       0.038958866 -0.023505487 0.01584689 -0.053241123
000180 0a 49 2d bd 38 98 0e bd 10 d9 e9 bb 37 cc 56 3c
       -0.042305984 -0.034813136 -0.0071364716 0.013110212
000190 cc 9e 4e bd 0a 28 96 bd 43 84 d6 bc ee 39 af 3c
       -0.05044441 -0.073318556 -0.026186114 0.021389928
0001a0 57 55 3e 3d 76 8e 7c bd 06 39 ab 3c 2e 35 89 39
       0.046468105 -0.0616593 0.020901214 0.00026170298
0001b0 06 c0 1a bd 89 89 b4 bd b6 4c c4 bd 03 ab 02 bd
       -0.037780784 -0.08815295 -0.09584944 -0.03190137
0001c0 5a d4 0a bd f9 39 e0 bd f5 94 cc bb d7 a7 65 bd
       -0.03389392 -0.109485574 -0.006243343 -0.056068268
0001d0 6a 30 86 bd 19 89 f1 bd ec fa f8 bd 3a 1a d5 3c
       -0.06552203 -0.117937274 -0.121572345 0.026013482
0001e0 28 b3 39 be 5d a8 01 be 69 03 09 3d f3 18 50 bd
       -0.18134749 -0.12661882 0.033450518 -0.050805043
0001f0 d6 0f 14 be 51 ec 93 bd e2 d5 60 bd b8 c8 a0 bd
       -0.14459166 -0.07222808 -0.054891475 -0.07850784
000200 e2 96 ac bd 47 a6 a3 bd f5 1c 47 be 63 37 ec bd
       -0.08427216 -0.07990699 -0.1944464 -0.11534002
000210 49 95 3b bb f7 2b a6 bd ca 8c 02 bd 22 b3 40 bd
       -0.0028622916 -0.081138544 -0.03187255 -0.047045834
000220 49 5a 52 bc e7 26 93 bd 9f 80 20 3b 86 d6 14 3d
       -0.0128389085 -0.071851544 0.0024490727 0.036337398
000230 2a 2d 2e bd a4 9b 5e 3d 25 0b bf bd 5d 53 80 bd
       -0.04252354 0.05434765 -0.093282975 -0.062659
000240 97 04 5b bd ec aa 85 bc fa 1d 3f bd 28 aa fe bd
       -0.053471174 -0.016316853 -0.046659447 -0.124347985
000250 96 78 82 bd c5 97 25 bd 5a 0b a2 bc 29 b7 55 bd
       -0.06370656 -0.04042794 -0.019780803 -0.05217663
000260 1c 41 d8 bd c3 28 a1 bd 6f 22 0e bd 5e bf 1d 3b
       -0.10559294 -0.07869103 -0.034700807 0.0024070363
000270 15 7b 36 bd 22 fe 81 bd af 24 02 bd 96 2f fa 3c
       -0.044550974 -0.063473 -0.031773265 0.030540269
000280 8e a2 a5 bd 32 3b e8 36 e8 79 f0 bd 34 2a 48 be
       -0.080876455 6.92103e-06 -0.11742002 -0.19547349
000290 87 51 b2 bd 44 51 ee bc c0 f1 05 be 51 ac 07 3d
       -0.08706956 -0.029091485 -0.13080502 0.033123318
0002a0 5f a6 85 bd 07 a6 f4 bd 0c c6 4b bb 68 bd c5 bc
       -0.065258734 -0.1194573 -0.0031093387 -0.024138168
0002b0 5c bb d4 bd 4a 37 95 bd 18 ac 9b 3d 8c 73 d0 bd
       -0.103872985 -0.07285936 0.07601184 -0.10178289
0002c0 25 7b f5 bd 10 30 73 bd 43 3a ed bc 6f 70 3c be
       -0.119863786 -0.059372008 -0.028958445 -0.18402265
0002d0 91 38 52 3d fb 4e 34 bd d2 26 ef 3c fc b4 7f 3a
       0.051323477 -0.044020634 0.029193316 0.0009754447
0002e0 d4 75 7c 3c c1 92 5e 3d 1b 28 71 3d 4a 2b e1 bc
       0.015408952 0.054339174 0.05887614 -0.027486462
0002f0 e4 ac 8e bc 00 e0 05 ba 7e 3b b5 3c f1 11 34 3d
       -0.017416425 -0.0005106926 0.022123095 0.043962423
000300 95 32 2d 3d 9e 9a 9e bc 58 f8 5b bd 3c f8 65 bc
       0.042284567 -0.019360837 -0.053703636 -0.0140362345
000310 b3 73 25 3d 8e b6 a2 3c af cf d2 bd 72 5b 08 bd
       0.040393542 0.01986244 -0.10293519 -0.033290334
000320 ee 8f 69 bc 5d e1 aa bc bb dd f9 bd 51 57 e8 bd
       -0.014255507 -0.020859415 -0.12200495 -0.11344779
000330 e4 89 18 bc eb 85 cc bc dd 38 b2 bd bb 1c 98 3b
       -0.009310219 -0.0249662 -0.08702252 0.004642097
000340 05 1f 5c bc 2f 67 d7 3c e1 e0 a7 3b db 38 08 bd
       -0.01343513 0.026294319 0.005123243 -0.033257347
000350 7c 5f c9 bd 7b cd c4 3d 52 e8 85 3d 87 01 2f bd
       -0.09832665 0.09609505 0.06538452 -0.042726066
000360 a3 b5 17 3d 75 81 36 bc 73 d7 5d 3d e5 c7 b7 bd
       0.037038457 -0.011139263 0.054160547 -0.08973674
000370 f1 d7 2b bc 50 47 33 bd e4 22 2c bd ec 45 b4 bd
       -0.010488496 -0.04376918 -0.04202546 -0.08802399
000380 b2 13 3f bd 3c 93 9d bd a8 6b d0 bc 3a ac d6 bd
       -0.046649642 -0.07694098 -0.02544196 -0.10482068
000390 0f 64 01 bd 6f 9f c5 bc ad ab 6a bd 74 18 03 be
       -0.031589564 -0.024123875 -0.05729263 -0.12802297
0003a0 7b c2 87 bd 6d 78 14 be 62 40 eb bd 99 b5 34 bc
       -0.06628891 -0.14499064 -0.114868894 -0.011029624
0003b0 c8 c1 87 3c 62 4f bf bd 27 48 c7 bd bd f8 e8 bd
       0.016571894 -0.09341313 -0.09730559 -0.11375568
0003c0 af c7 1a bd 4b f9 ac bd d4 dc f4 bd 9c c6 6c bc
       -0.03778809 -0.08445986 -0.11956182 -0.014451649
0003d0 89 f0 5c bd 7a c8 5d bd 6d bb 1d 3d 76 0a 13 bd
       -0.05394033 -0.054146267 0.03850882 -0.03589865
0003e0 3b 33 6e bd bb c8 31 3d 5c c2 09 3c 2c 76 4c 3c
       -0.058154326 0.043404322 0.008408155 0.012479346
0003f0 16 8d 9d bd d1 e0 0a 3d de e5 06 3d 11 8f c3 bd
       -0.07692926 0.033905808 0.032934062 -0.09548772

res_conv2.2.bias f4 [32]
000000 5b 95 4b be b6 04 8c 3c fe dc 15 3d fd f4 00 bf
       -0.19881193 0.01709209 0.036587708 -0.5037382
000010 a2 1f a2 3d 9b b3 21 be 63 b1 36 be 6b 96 ad 3c
       0.0791619 -0.1579117 -0.17841105 0.021189889
000020 2d d0 16 3d 69 e9 16 be de c2 53 3d 64 ba db 3c
       0.036819626 -0.14737476 0.05169951 0.026822276
000030 69 70 c8 bc e6 ae c5 bc f0 90 59 3d 27 cc 11 3e
       -0.024467664 -0.02413125 0.05311674 0.14238034
000040 04 9f 38 be 7a 05 22 3d 73 39 38 bf b8 a1 f5 3c
       -0.1802941 0.039556004 -0.7196266 0.02998434
000050 90 ba 93 3c 87 0f e3 bb 39 ce 09 bf a0 4d 25 be
       0.018033296 -0.0069293412 -0.53830296 -0.16142893
000060 87 6f 6f bf 78 7a 11 bd 04 e9 bb 3c b7 38 55 bf
       -0.9352955 -0.035517186 0.022938259 -0.83289665
000070 ed ea 1a bc 68 3a b7 bd 54 cf f9 3c b1 e7 df be
       -0.009455425 -0.08946687 0.03049437 -0.43731454

res_conv3.0.weight f4 [32, 32, 3, 3]
000000 4d ff bb 3e 11 c3 1a bb 76 3c 1e bf 6e 14 13 3e
       0.36718217 -0.0023614804 -0.61811006 0.14363262
000010 42 df e3 be 23 c5 81 be c6 d1 9d be 8f 72 29 bf
       -0.4450627 -0.25345716 -0.30824107 -0.6619043
000020 97 d0 3b be c6 48 de be 79 e7 c8 be 4c 63 93 be
       -0.1834129 -0.43414897 -0.392391 -0.28786695
000030 63 ba 87 bd fe bc 09 bd 43 51 d4 3e 5c c7 35 be
       -0.06627347 -0.033627503 0.41468248 -0.17751831
000040 98 e0 1f be 61 3c 0e 3e 3f b7 99 3c 12 ea 2f bb
       -0.1561302 0.1389022 0.018764136 -0.0026842398
000050 d9 d7 a8 3d f4 ba 45 bb 3e 9e 71 3e 8c 70 17 bd
       0.08244295 -0.0030171247 0.23595521 -0.036972567
000060 66 e1 8c bd 43 03 a2 3d 35 43 28 bc bf e2 bd be
       -0.06878929 0.079107784 -0.01026993 -0.37087056
000070 02 fd 55 be d2 ae b0 3e c2 aa e8 3e 67 3d 98 be
       -0.20897296 0.34508377 0.45442778 -0.29734346
000080 b9 0b f6 3d e7 fb e8 bd c7 2d 05 bf 59 f8 00 3f
       0.12013955 -0.113761716 -0.52022976 0.5037895
000090 4d ab 7d be f3 ef 41 3e 09 74 a1 bc 87 38 27 be
       -0.24772377 0.1893919 -0.01970865 -0.16330157
0000a0 de 8b 28 3c 5e 35 49 3b 10 51 55 be a2 6e 0b be
       0.010287253 0.0030701975 -0.20831704 -0.13616422
0000b0 12 3e b5 be d1 91 3d bd b5 9e 90 be 57 a1 43 3e
       -0.35398918 -0.04628164 -0.28246084 0.19104515
0000c0 93 57 39 bf f6 5c 76 bf 2a 76 03 bf 12 c7 05 3f
       -0.7239925 -0.962356 -0.5135218 0.5225688
0000d0 94 83 49 bf 99 f2 02 be 22 ef 4c 3d e9 15 c9 3e
       -0.787164 -0.12787856 0.050032742 0.3927453
0000e0 0a 90 2a 3e ca c7 16 be 9e 97 41 3e 64 32 f9 3c
       0.16656509 -0.14724651 0.18905494 0.030419536
0000f0 5b 16 bd bf 0f 24 a6 3e 02 57 f3 be da 41 b8 3d
       -1.4772447 0.32449386 -0.4752732 0.08996935
000100 8a 84 2d 3e c8 9c 3f 3d e6 19 9e 3d bd bc 25 3d
       0.16945091 0.046780378 0.077197835 0.040463198
000110 b9 2e 19 be 27 a8 3c 3e 97 bb eb bd ab 28 0c be
       -0.1495923 0.1842352 -0.11510389 -0.13687389
000120 9e 9b 74 3d 1a e1 0e bf 8b a7 ae 3d 86 d0 2d be
       0.05971872 -0.5581223 0.0852805 -0.16974077
000130 46 59 02 bf 8a 0e 8d bc 4d f2 fa bb a5 5e 8d bc
       -0.5091747 -0.017218847 -0.007658279 -0.017257044
000140 1e c7 93 3d 25 a8 b3 3d 06 8b d0 3e 9c fd 5e 3d
       0.07215713 0.087723054 0.40731066 0.05444108
000150 33 45 01 be 9b c1 6b bd 16 a9 0a be 97 b3 09 bf
       -0.12624054 -0.057557683 -0.13541064 -0.5378966
000160 7e 8d 9e be 66 94 8a 3f 52 88 24 bd f0 0f dc bc
       -0.30967325 1.0826538 -0.040169068 -0.026863068
000170 8a 8d f9 bd d4 c5 82 3d 1e 7a 4f 3e 6a 20 12 3e
       -0.121851996 0.06385389 0.20261428 0.14270177
000180 1a b6 9d be 01 ad ed bb 10 29 8e 3d 1c df 91 3e
       -0.30802995 -0.0072532897 0.06941426 0.2849053
000190 37 b0 9e bd d6 b2 1f bd ac c7 1a bd 53 b6 92 3d
       -0.07748454 -0.03898891 -0.03778808 0.07163682
0001a0 64 63 d2 bd 48 38 30 3e d3 ef d6 bd d8 7e 8f be
       -0.102728635 0.1720897 -0.104949616 -0.28026462
0001b0 a1 69 59 3e 4a 28 56 3e 4a a1 c3 be fd e7 f2 3b
       0.212317 0.20913807 -0.3820899 0.007412909
0001c0 b4 f2 14 be df 7e 0f 3e 63 4f a9 3e 63 61 2c be
       -0.14545709 0.14013241 0.3306838 -0.16834025
0001d0 65 4e 8b 3e 02 31 34 3e ce a2 05 be 40 27 d5 3d
       0.27208248 0.1759682 -0.13050386 0.10407877
0001e0 fa 16 c1 bc 8e 5b 9b bd 74 aa 7e 3c 9f 52 22 bd
       -0.023570526 -0.07585822 0.015543569 -0.039629575
0001f0 1c 41 ba be 2a 83 e2 bd 87 56 89 3e 6c d8 3e bd
       -0.363778 -0.11060174 0.26823828 -0.046593115
000200 79 4f 12 3e d7 6f ac 3d c1 ef 7a 3e be f2 8f bd
       0.14288129 0.08419769 0.24505521 -0.07028721
000210 33 af 00 3e a0 25 d8 bb 8f 64 4c bc e9 44 31 be
       0.12566833 -0.006596282 -0.012475147 -0.17311443
000220 e5 d4 35 3e ee c9 19 be 5e d2 0b 3e 87 36 f0 ba
       0.17756994 -0.15018436 0.13654467 -0.0018326797
000230 62 18 2b be ac 4a 03 3e 99 ea 60 3e 2a bd 05 be
       -0.1670852 0.12821454 0.21964492 -0.13060442
000240 19 44 e5 bd 3a 28 a2 be 48 1c 1b 3d d1 e4 df be
       -0.11194629 -0.31671315 0.037868768 -0.4372926
000250 8a 50 69 bc ad c5 7b bd 51 d2 35 3e 90 d0 35 be
       -0.014240393 -0.061467815 0.1775601 -0.17755342
000260 5b f0 16 bf 9f f6 bd 3e 11 91 65 3e 50 cb 80 3d
       -0.58960503 0.3710222 0.2241862 0.06288779
000270 62 a2 f4 3e 1a d8 f9 bc 79 eb f4 bd bb 0e a4 3d
       0.47780138 -0.030498553 -0.11958975 0.08010622
000280 d4 de ac bc 5e 83 b1 3e c2 d6 29 3d 9d e8 89 3d
       -0.021102346 0.34670538 0.041464575 0.067338206
000290 18 85 5a 3e 5a f3 3d 3e 43 52 25 3f 10 58 13 bf
       0.21339834 0.18549863 0.64578646 -0.5755625
0002a0 0a fe c8 3e f7 12 13 3f bd 78 61 bd 45 15 32 be
       0.39256316 0.57450813 -0.055046786 -0.17390926
0002b0 9f 2e 20 3e 9a c1 09 be fc f6 75 be 55 b9 27 bc
       0.15642785 -0.1345276 -0.24019998 -0.010237058
0002c0 39 d7 16 3d b8 12 97 be 8b 00 15 be e7 d0 fa bd
       0.036826346 -0.2950647 -0.14550988 -0.12246876
0002d0 f1 66 85 3d 9b cf 91 3e 3e 7e 65 3e e0 d1 37 bf
       0.06513775 0.28478703 0.22411439 -0.7180462
0002e0 77 1a af be 6d 03 58 bd 33 53 f4 3d a2 40 b7 3e
       -0.3419988 -0.052737642 0.119299315 0.35791498
0002f0 e2 35 c8 3d 60 16 ea 3d 52 45 e6 3e 76 2e 43 be
       0.09775902 0.11430049 0.44974762 -0.19060692
000300 da e2 12 bf 2b 71 9f 3e 0e 43 c4 3e 85 d7 dd be
       -0.573774 0.31141028 0.3833241 -0.4332849
000310 d7 8b 88 be 67 e8 02 bf 08 cb 74 be 79 31 17 be
       -0.2666919 -0.5113587 -0.23905575 -0.14764966
000320 b8 09 5f bf e0 d7 28 3f 3f 17 ff 3e 6c ca 06 bf
       -0.87124205 0.659544 0.49822423 -0.5265262
000330 8e 20 67 3f a2 43 5b 3f b6 e9 d7 be 73 6e 43 bd
       0.9028405 0.85650074 -0.42170495 -0.047712754
000340 fd 35 79 be 42 26 93 3e 22 ca a6 3b 72 0b 3d bf
       -0.24337001 0.28740126 0.005090014 -0.7384559
000350 48 81 09 3f b6 d7 97 be 75 b4 2e bf de 51 01 3e
       0.5371289 -0.29656762 -0.68244106 0.12628886
000360 e2 3a 38 3e 04 b8 32 3c e7 b0 a9 be d8 92 c2 be
       0.17991212 0.010908131 -0.33142778 -0.38002658
000370 a6 5a d1 be cd 00 aa be ea 95 84 3c 0b be ef 3c
       -0.40889472 -0.33203736 0.016184766 0.029265424
000380 c2 a6 54 3e 35 7b b0 bd 11 6b b9 bd bc 0b f4 bd
       0.20766738 -0.0861725 -0.090536244 -0.11916301
000390 7b 93 29 be ee 01 f5 3c 8b e6 8c be ac 0c 88 bf
       -0.16560166 0.029908147 -0.2751964 -1.0628867
0003a0 f9 72 40 bf 5c 48 96 3e bf 9f 33 3e 30 c6 fa 3d
       -0.75175434 0.2935208 0.17541407 0.122448325
0003b0 2d a2 fa bc 79 9b a6 bd 55 9b cb bd c1 b6 64 bd
       -0.03059491 -0.08135123 -0.099417366 -0.05583835
0003c0 55 d2 a6 be d0 19 e9 3d 77 dd 19 be c7 4b 4e bf
       -0.32582346 0.113818765 -0.15025888 -0.8058438
0003d0 7d 29 e7 be 6e 20 27 bf 4b db 2a bf b9 bb 18 bf
       -0.4514884 -0.6528386 -0.66740865 -0.5966144
0003e0 6d 5b 30 bf 05 c5 f0 3f b4 2b d9 3f 3a 2c d2 3f
       -0.68889505 1.8810126 1.6966462 1.6419747
0003f0 f3 96 22 3f e2 fc a4 3e 94 f8 52 3e f6 02 b0 be
       0.6351158 0.32224184 0.20602638 -0.3437726

res_conv3.0.bias f4 [32]
000000 bb 4a bc 3d e5 4d 25 3d 65 bb 4e 3e 7d ac e0 bd
       0.09193941 0.04035749 0.20188673 -0.109703995
000010 d0 fc c0 3d a7 63 09 3c 61 0f d4 3d 05 81 0c 3d
       0.0942322 0.008385575 0.10354496 0.03430273
000020 90 c5 ea 3d 20 59 91 bc c3 9f d7 3c 13 cc 1b 3d
       0.11463463 -0.017742693 0.026321298 0.038036417
000030 9f c3 cd 3d d4 0b 5f 3e 3f 67 74 3e 99 d3 8b bd
       0.100470774 0.21781856 0.2386751 -0.068274684
000040 db fe dd 3d 00 e7 e4 3c f1 a4 18 3e 49 75 1c bf
       0.108396254 0.02794218 0.1490667 -0.6111646
000050 15 0c 26 3e 85 43 95 bd a8 85 26 3e 29 c2 94 3c
       0.16215546 -0.07288269 0.16261923 0.018158989
000060 7e 54 f4 bd 47 27 47 bd e1 c3 33 bd 12 2b d5 3c
       -0.11930178 -0.048621442 -0.043887977 0.026021514
000070 a0 0d ba 3d b9 b4 60 3e 11 6e 8e ba fc 5b 28 be
       0.0908463 0.2194394 -0.0010866543 -0.16441339
